ckpt/mnist_cnnbn.pt (torch, 105213 bytes, 14 tensors)

conv1.weight f4 [40, 1, 3, 3]
00000000: 8718 343e 4510 23be 2928 cabc f33e 023e
00000010: e20b bbbe dbf6 3e3e 7e50 a6bd f511 ee3d
00000020: fa22 5b3d 19dc 16bd afc4 843d d5cc dcbc
00000030: 22fa 153e 3a6c edbd eaa0 dcbd de5f 733d
00000040: ab6d b53d 2e97 3dbd ed25 793e b67d 5b3d
00000050: 023c 06be d033 66be 8a7e 05be 2306 2dbe
00000060: 4fed dcbd faa6 f63c ad76 543e 9d28 4f3e
00000070: aba4 87be 3f91 563e 1854 a63d a747 a53e
00000080: 5d50 373e 650d a8be 8fb3 a7be 9f9a 60be
00000090: ef8f 8c3e 98d4 5dbd a811 0a3e c1b1 08be
000000a0: a2bd a63e 82b0 27be c411 833e 95b4 57bc
000000b0: 18ee 4fbe dda5 3f3e bbdb 33be d93e c63d
000000c0: 3d4d d3bd b51f 42bd 1cf7 a1be 0ed1 26be
000000d0: 717b 313e 49b0 80bd 71f6 a93e 095b 873e
000000e0: 381d b9bc a4bf 70be ed09 4c3e 6072 b63d
000000f0: e52b 77be f0fc 443e 816f 4a3e 07b3 903e
00000100: 3f75 41be d03d 90bd cb6d 9cbc b13a 5c3d
00000110: 6cbe 83be 02b4 7cbe 4ef0 2d3e 5165 b5bd
00000120: 8f3d 2b3e e9bd c13c 8f92 063e 5626 7e3d
00000130: 0ec4 083e 4b6a 393e 335b a0be 7e44 283e
00000140: bdc3 4cbe 2a58 94be 48ce b1bc 37cd 9abd
00000150: 5426 423e 4097 32be d7fb 8bbe c368 7d3e
00000160: 3f37 5dbb 01e5 463e 0df3 9c3d 3655 7cbe
00000170: 7cda e93d eade ce3d 92a6 48be 9950 0bbe
00000180: 6381 1d3e 0a64 ac3d 5b7b 12be bf89 e5bd
00000190: 9592 823e a35d eabd 504f 3b3e d36e 133e
000001a0: 6266 89be d17e 8bbe c822 a53e 3f38 a83a
000001b0: 32a9 753e 0d47 743d 0235 c63d 77c4 7c3e
000001c0: 0626 9c3e 2fab 62be a479 263d 974b 7f3e
000001d0: 5d9f 813e b412 4a3e abaf 80be 8ae1 76be
000001e0: 4e72 71be 9c81 093b d4c6 a63e 7e52 42be
000001f0: be50 523e c765 1cbe ef3a acbe ceec 91bd
00000200: a97e 293e 211d 933e 720b 3ebe 0cb3 903d
00000210: 0008 953e 30ce 743e 77de 633e ee1e 893e
00000220: 381a 823e 5d34 9d3d e29f 58be 7677 76be
00000230: 16fd 47be 15bf 3ebd 6b0c 33be ea04 9f3d
00000240: 7b92 e23d bebd 7bbd b448 0b3e 9990 e53d
00000250: 0dcc 533e 8f17 673e 6906 e8bd ee58 a33e
00000260: f728 10bd 45d4 89bb a72c 9dbe 4aab 49be
00000270: b69a 3fbe 0e0f 01be 893a 8b3e c1a3 e0bd
00000280: e75c 68be 49d3 2d3e 45ea 193e 6b96 5d3e
00000290: 0faf 36be c17c f53d 98cb dabd 4859 bfbd
000002a0: 3a96 6fbe 8ee5 09be 902f ccbd 7462 103e
000002b0: 4ebf 853d 5378 a63d 81a9 a63e 954d a63e
000002c0: ae62 6b3e 145a 7abb f1e5 61be 4c65 8d3e
000002d0: 2a76 adbd 1192 d6bc 6897 90be 21a6 85bd
000002e0: 4d5f 58be 3f0b a43e 2dc7 91be c47d 82be
000002f0: a9b3 f33b aaff 50be d5a7 d23d c580 04be
00000300: 0383 44be 9ad3 a0bc 378e 5e3e 177a 75be
00000310: 242e 053e 6ea4 5a3e 1757 b03e a869 66be
00000320: b628 f33c 426c 3ebe 41df 983e 8364 14be
00000330: d817 663e 2d43 553d 1716 8aba 84c6 4d3c
00000340: 4ef6 7f3d e703 293e eb01 923d d5ac de3d
00000350: b39a 91be 2b02 7c3e 7f41 953e 352d 8d3e
00000360: 6edb 733e d686 83be a333 07be 73ad 8c3e
00000370: fb08 a3be b115 843e 6b77 73be 0350 88be
00000380: d890 0b3e b2ee 7abe 00ba 91bd b31f 863e
00000390: 0fbb 843e 1e41 a33e 35cf 2dbd 943b 77be
000003a0: e96b a83e ecc8 91bd 2fbe 1ebe 6b89 3a3d
000003b0: 992e 81be aeb1 583e aad7 553e 66bb 88be
000003c0: 43a8 8dbe 0f95 0ebd 58df d13d d111 b5ba
000003d0: 3e22 16be be77 043d d1e4 92be 3032 77be
000003e0: 17d2 6fbe 7ace 9a3e 67ad 963e 1e41 dbbd
000003f0: 3a60 c438 998b 143e 6d66 cb3c f5ff 64be
0.17587481 -0.15924175 -0.024677353 0.12719326 -0.36532503 0.18648855 -0.081208214 0.11624519
0.053500153 -0.036830995 0.06482827 -0.02695314 0.146462 -0.11592908 -0.107728794 0.059417598
0.08858808 -0.046286754 0.24330874 0.053586684 -0.13108829 -0.22480702 -0.13036552 -0.16896872
-0.107874505 0.030108918 0.20748396 0.20230336 -0.2649282 0.20953844 0.08121508 0.3228123
0.1790175 -0.3282272 -0.3275418 -0.21933983 0.27453563 -0.054157823 0.13483298 -0.13349058
0.32566553 -0.16375926 0.25599492 -0.013165613 -0.2030567 0.18715616 -0.1756429 0.09679956
-0.103174664 -0.04739352 -0.31633842 -0.16290686 0.17332245 -0.06283624 0.33195832 0.26436642
-0.02259694 -0.23510605 0.19925661 0.08908534 -0.24137838 0.19237113 0.19769098 0.28261587
-0.18892382 -0.0704304 -0.019095322 0.05376691 -0.25731218 -0.24678043 0.169862 -0.08857215
0.16722701 0.023650127 0.13141845 0.06204828 0.13356039 0.18106954 -0.3131958 0.16432378
-0.19996543 -0.28973514 -0.021704808 -0.07558673 0.18959934 -0.1744051 -0.27340576 0.24746995
-0.0033754853 0.19423296 0.07663546 -0.2464188 0.11418626 0.10101111 -0.19594792 -0.13604964
0.15381388 0.084175184 -0.14304869 -0.112079136 0.25502458 -0.11443641 0.18291974 0.14397745
-0.26835924 -0.2724519 0.32253098 0.0012834145 0.23990324 0.05963807 0.09678079 0.2468432
0.3049776 -0.22135614 0.04064335 0.24931179 0.25316897 0.19733697 -0.25134024 -0.24109474
-0.2357876 0.0020981794 0.3257357 -0.18976781 0.20538613 -0.152732 -0.33638713 -0.07125245
0.16552223 0.2873316 -0.18559054 0.070654005 0.29107666 0.2390678 0.22252832 0.2678141
0.25410628 0.07676003 -0.2115474 -0.24069008 -0.19530138 -0.04656895 -0.17485206 0.07764609
0.11063095 -0.06146025 0.13601953 0.112092204 0.20683308 0.2256758 -0.11329348 0.31903785
-0.035195317 -0.0042062127 -0.3069813 -0.19694248 -0.18711361 -0.12603399 0.27193096 -0.109687336
-0.2269169 0.1697513 0.15030773 0.21639411 -0.17840217 0.119866855 -0.10683364 -0.09343201
-0.2339715 -0.13466474 -0.09970009 0.14100057 0.06530629 0.08128419 0.32551196 0.32481065
0.22986862 -0.0038200663 -0.22060372 0.27616346 -0.08469804 -0.026192697 -0.28240514 -0.06525827
-0.21130104 0.3203983 -0.28472272 -0.25486577 0.0074371886 -0.20410028 0.10285918 -0.12939747
-0.19190602 -0.01963215 0.21733938 -0.23972355 0.13005883 0.21351787 0.34441444 -0.22501242
0.029682498 -0.18595985 0.2985783 -0.14491467 0.22470033 0.052066017 -0.0010535148 0.012559537
0.062490754 0.16505395 0.07129272 0.10872809 -0.2843834 0.24610202 0.29151532 0.27573553
0.23814175 -0.2568881 -0.13203292 0.2747608 -0.3184279 0.257978 -0.23776023 -0.26623544
0.13629472 -0.24505118 -0.07115555 0.2619606 0.25923964 0.31885618 -0.042433936 -0.24143821
0.3289483 -0.07118401 -0.15502237 0.04554121 -0.25230864 0.2116153 0.2088305 -0.26705474
-0.27667436 -0.034810122 0.102476776 -0.0013814514 -0.146615 0.032340758 -0.28690198 -0.24140239
-0.23419987 0.30235654 0.2942917 -0.107057795 9.363932e-05 0.14506377 0.024829114 -0.22363265

conv1.bias f4 [40]
00000000: 3e8e 47be f332 a7be 7ae7 4f3e 6772 46bd
00000010: 423c 0c3e 7e68 863c 6b49 9fbe d674 27be
00000020: 600e c03d 0c2c 8abd 70ce a4be 3062 ef3d
00000030: a073 513c 5665 dbbd 90e3 093e d01f 903d
00000040: 00c5 fbbd 6f51 993e 6e3d 2b3e 586f 2b3d
00000050: 6c1b 83bd bc8f 90be 95c4 833e cc27 b0bd
00000060: 0e94 5cbe b6d8 5a3e 2473 f23d 4cf0 a83d
00000070: 045c 87bd 3c0a d5bd e8b1 673d fb11 843e
00000080: 7b85 433d 1666 21be cb89 a93e 729a e93b
00000090: 3dea 863e 2061 a63d 69fa 983e bef0 443e
-0.19487855 -0.3265606 0.20303145 -0.048448946 0.13694862 0.016407248 -0.311107 -0.16353163
0.09377742 -0.067466825 -0.3218875 0.1168865 0.012783915 -0.10712688 0.13465714 0.07037318
-0.12293434 0.2994494 0.16722652 0.041854233 -0.06401715 -0.2823466 0.25735918 -0.08601341
-0.21540853 0.21371731 0.118383676 0.08248958 -0.066093475 -0.10402343 0.05656615 0.25794968
0.04773472 -0.15761599 0.3311294 0.007129007 0.26350585 0.08123994 0.29878548 0.19232461

bn1.weight f4 [40]
00000000: 0b27 7d3f 3896 803f 71bb 833f aa62 823f
00000010: b621 7f3f 6e5e 803f 47c7 7c3f 497a 7e3f
00000020: 5fde 7a3f 7b1e 813f 4625 813f 761d 7a3f
00000030: 5070 7c3f 9d04 813f 8ae8 7d3f 11ef 803f
00000040: 468a 7c3f 3fde 813f e0ee 823f 745b 7c3f
00000050: 7446 803f 1cc7 803f 30a9 793f ca1b 7b3f
00000060: 835f 833f 6ec1 7a3f c496 7e3f a540 823f
00000070: c85e 7c3f 3cfd 7a3f 6523 823f 3450 7b3f
00000080: dfc2 823f 9680 7f3f b4e6 7d3f ae38 803f
00000090: b1d7 843f ec54 803f 82d3 803f c9a9 7c3f
0.988877 1.0045843 1.0291578 1.018636 0.99660814 1.0028818 0.98741573 0.9940534
0.9799556 1.0087427 1.00895 0.97701204 0.98608875 1.0079533 0.9918295 1.0072957
0.9864849 1.0145949 1.0229149 0.98577046 1.00215 1.0060763 0.97523785 0.9808928
1.0263523 0.979514 0.994488 1.0175978 0.98582125 0.98042655 1.0167052 0.98169255
1.021572 0.9980558 0.9918015 1.0017297 1.0378324 1.0025916 1.0064547 0.9869657

bn1.bias f4 [40]
00000000: 40f5 33bc 36f5 5fbc 491f 03bc 350f 90bc
00000010: 8082 33bc 2319 86ba 0f13 84bc 21b1 b7bb
00000020: ba09 9ebb 5625 6ebb b9e3 e2b9 2a75 9dbc
00000030: c52b dfbb e1a8 90bb 2537 92bc 3d7e 6dbb
00000040: 04ad a7bb 1d3e bc3a a76b f8bb b1c2 5bbc
00000050: 2ed3 15bb eb4f 37bc 8a95 59bc c7fe bebb
00000060: a42f dbbb 8d9f 48bc 0b87 7fbb 7647 14bb
00000070: b5fc e9bb 0f46 66bb c9f2 0ebc aec6 81bc
00000080: 7b55 c1bb ce74 8cbb aa22 8abb 3420 0bbc
00000090: 7234 ffbc 0fa0 c73b b647 fc39 f728 d0bb
-0.010983765 -0.013669303 -0.008003064 -0.017585376 -0.010956407 -0.001023088 -0.01612237 -0.005605832
-0.004822937 -0.0036338172 -0.00043275746 -0.019220907 -0.0068106377 -0.004414663 -0.01784856 -0.0036238574
-0.0051170606 0.0014361773 -0.0075811925 -0.013413117 -0.0022861469 -0.0111884875 -0.013280282 -0.0058287117
-0.006689029 -0.012245071 -0.0038990404 -0.0022625602 -0.0071407207 -0.0035136973 -0.008724877 -0.015841808
-0.0059000826 -0.004286385 -0.004215558 -0.008491565 -0.031152938 0.0060920785 0.00048118614 -0.0063525396

bn1.running_mean f4 [40]
00000000: e8fa 46be 1711 a7be de73 423e 1b8f 69bd
00000010: ba2f 243e 21f7 e3bb 0b1b 89be 64a3 3cbe
00000020: e1d7 e73d 6d14 a1bd 234c aabe cbe5 fd3d
00000030: ca13 ac3d 7534 01be 29a7 313e 25a9 703d
00000040: d936 94bd ffdc 843e 470f 163e 47dc e13d
00000050: 2041 e8bd 41d7 93be cdeb 8e3e d6c1 05bd
00000060: 69d3 6dbe ae94 773e e70b c33d 477f 783d
00000070: 0793 23bd b410 d4bd 3cd2 4a3d 05c0 8b3e
00000080: 66b6 153d faf6 49be 9db1 a43e 9b8c ce3b
00000090: 10b1 8b3e f1dd e13c 2270 853e 623e 783e
-0.1943165 -0.32630226 0.18989512 -0.05702124 0.16033831 -0.0069569503 -0.26778445 -0.18421704
0.113204725 -0.07865224 -0.33261213 0.12397345 0.08402212 -0.12617667 0.17348923 0.05875506
-0.07237024 0.25949857 0.14654265 0.11028343 -0.113405466 -0.28875163 0.27914277 -0.03265556
-0.23225178 0.2417781 0.095237546 0.060668256 -0.039935138 -0.10354748 0.0495169 0.27294937
0.0365509 -0.1972312 0.32166758 0.0063033826 0.27283525 0.02757165 0.26062113 0.24242547

bn1.running_var f4 [40]
00000000: fe3d 513d 73fe fe3c 65e5 073e b0e4 783e
00000010: de93 883e 71f6 383e c568 0c3f 2c93 3a3e
00000020: 3a7b 533e 3391 3b3e 2f0e dc3d 0533 b63d
00000030: 3d14 9d3f 9e27 243e a5f1 103f 3592 663e
00000040: fc7d 2d3f 7b5b 153f 8de0 883e 402b 933f
00000050: 2abf 2c3f 9789 803e a176 233e bcef 363f
00000060: db4a 7b3e dc22 b63e 65b5 1e3e 2b15 8d3e
00000070: a2e4 963e 2186 083e 60a5 513e 264d d13d
00000080: 7b97 ab3d e1b5 c13e 26d0 0c3e 1773 8b3d
00000090: 9f1d 473e cfb6 293f 71b0 e33e 24ed 323f
0.05108451 0.03112719 0.13271101 0.24305987 0.26675314 0.1806276 0.54847366 0.18220204
0.20652476 0.18317108 0.10744893 0.0889645 1.2271801 0.16030738 0.5661872 0.22516711
0.6777036 0.58342713 0.2673382 1.1497574 0.67479193 0.25104973 0.15963222 0.71459556
0.24540274 0.3557347 0.15498884 0.27555212 0.29471308 0.13332416 0.20473242 0.10219793
0.08378502 0.37834075 0.13751277 0.06809061 0.19444893 0.6629457 0.44470552 0.698931

conv2.weight f4 [40, 40, 3, 3]
00000000: f83a 2bbc 5e09 483d 7fc5 a63b 9dc6 23bd
00000010: 0fbf a63c 43e2 25bd 83b3 61bc 2f40 973b
00000020: 1b8b 4b3d edc9 333b 81ac 48bc 9079 0b3d
00000030: d1da b53c 90da 09bd e29f 9b3c cccd 1639
00000040: e4a0 e6bc bafe 2b3d b17e 20bd 6270 01bd
00000050: 88d0 38bd 8d51 ac3c 3292 173b 4782 103d
00000060: 946e c03b f037 0e3d 2416 49bc e544 49bd
00000070: 4b50 64bb f7b5 88bc 1ad5 09bc fa25 25bd
00000080: 6383 aebc 38f0 843c d412 6e3c c10d 23bd
00000090: 4e21 8a3c af0b 81bb ec30 253d 96ba 143d
000000a0: 74b2 06bd 6def 463d 5c4a 3dbd 59e3 473d
000000b0: 3baa ef3b 7244 b83c 6271 02bd 9449 063d
000000c0: 21b3 0bbd 4696 72bd d90a 113c 9fba ab3c
000000d0: 7a39 4b3d b949 b13a 40b3 623d 34a0 103d
000000e0: a2d6 50bc da20 18bd de50 d93c f2ff d8bc
000000f0: 3d62 043d 572f 4dbd 51f5 053d e8a0 7f3c
00000100: c22d 9fbc 7cea ca3c a366 48bd d12a dbbc
00000110: a307 f4bb 577a 12bd 9b66 ab3a 83e6 20bc
00000120: 91b2 323d c848 0f3d 11f8 293d ab42 2c3d
00000130: 5530 7ebd a794 263b 7337 d73c be59 1cbd
00000140: cd9e b73c 846c 53bc 939c f03b 0b6d aa3c
00000150: f71b 813d ac6b a0bc 9002 4dbd d7f0 f33c
00000160: 9a88 863b 1e19 b83b 88b5 143d 2708 86bc
00000170: b8f5 243d 5860 1abd 02b2 f13b d711 2d3c
00000180: 1dfd a73c 9786 0fbd d7a0 2cbd 79e2 d33c
00000190: a288 08bd 5135 97bc 5ad4 0ebd 4df6 fabc
000001a0: 5cb6 8cbb b67f d7bc 5616 a1bc c331 42bd
000001b0: 47f1 e83c 5151 9dbc 52a9 14bd 0c29 7e3c
000001c0: 17c5 36bd af3a fd3c 930f 023d 5b07 5ebd
000001d0: 4199 39bd 8c6e 0fbd a39a 05bd 628d 7fbb
000001e0: 4f4b 90bd c50f 3bbd f044 a63c 66a8 57bc
000001f0: 0400 a43b f48d fabc f3a9 393c 2e2e 98bb
00000200: 8014 25bd d0b1 04bd 3df2 a03c d561 623c
00000210: f938 6f3c d379 563c 03c5 4ebc 0ef0 3cbd
00000220: f80b fa3c 215e 9b3a 48ef 6cbd dbcd 313d
00000230: 23e2 2b3c f649 18bd c08e 9fbc 6e3d 8bbc
00000240: dda3 0bbd bded 5b3c e01e 15bd 0a54 573d
00000250: e97d a6bc aaef d63c 4953 163c c4a6 a0bc
00000260: 9421 183d 3265 26bd 96f6 16bd e6a7 f1ba
00000270: c014 093d 9250 c2bc acea fcbc b803 06bd
00000280: c72e 7abc 2d05 64bc d05f dfbc fd60 47bd
00000290: fa8c 103c 46a2 b4bc ba9a 20bd c41e 0abd
000002a0: 5781 553c 3321 613c 6ed0 453d d507 68bc
000002b0: 7102 56bd 826a 41bd 162e 94bc b125 acbc
000002c0: d961 11bc 26fd 03bc 8f1c 673c c522 85bc
000002d0: 1580 243d 04c5 fb3b 3b40 aabc a8cd 213d
000002e0: b01f 203c 4451 0fbd 2e9d f5bc 7635 0f3d
000002f0: 3792 d13c db63 233d 44f8 1fbc 3622 003d
00000300: 32f4 bc3c 902a a73c d800 d43b cbb9 543d
00000310: d340 993c 921b e83b b464 8fbb 615c 2c3d
00000320: 829e 243d 9f76 5b3a 146a 643d c5f9 7f3c
00000330: efa2 ebbc 075a 33bd f115 b33c 0c39 3b3d
00000340: 1036 24bd aa1f 753c 8c86 163c d3b3 13bc
00000350: 7529 36bc 5337 ed3b b3fc 6a3b 5447 ec3c
00000360: d5fe cc3c 1d85 103c 659d 303d 342b b53b
00000370: ca64 9b3c 6a59 f2ba cf21 1d3d d518 f63c
00000380: cf4d 6a3d 02f2 403d 5b80 a6bc b0d5 1e3d
00000390: 6525 f9bb 27f2 433d 142d 273d 5131 65bc
000003a0: d021 313c 7e64 4dbc 03eb 9ebc c42d bebc
000003b0: 2b11 b63b 4f3a a0bc a0ef 2ebd f44a 00bd
000003c0: de00 e53a db93 7cbc 3162 0f3d 1862 563d
000003d0: fa69 2d3d 47f7 063d 2e7c 24bd 8918 413d
000003e0: 1862 80bd 15d7 3dbd 6d9a 7dbd 5674 43bb
000003f0: 4a38 36bd 121c e2bc c6d8 fcbc 8ed5 00bd
-0.010451071 0.04883706 0.0050894613 -0.039984334 0.020354776 -0.040498983 -0.013775709 0.0046158056
0.04969321 0.002743359 -0.012248159 0.034051478 0.022199066 -0.033655703 0.018997137 0.0001438178
-0.02815289 0.041990973 -0.039183322 -0.031601317 -0.045120746 0.02103498 0.002312791 0.035280492
0.005872557 0.034721315 -0.012273345 -0.04913797 -0.0034837897 -0.01668833 -0.008412624 -0.04031942
-0.021302884 0.016227826 0.014530856 -0.03980804 0.016861584 -0.0039381604 0.04032986 0.036310755
-0.03288503 0.048568178 -0.046213493 0.0488008 0.007313994 0.022493575 -0.03184641 0.032785013
-0.034106378 -0.059225343 0.008852684 0.020963011 0.04961536 0.0013525999 0.055346727 0.03530903
-0.012746485 -0.037140705 0.026527818 -0.026489232 0.03232025 -0.050093975 0.032704655 0.015602328
-0.019430999 0.024770014 -0.048926007 -0.026753815 -0.0074471994 -0.035761204 0.0013076843 -0.009820583
0.043627325 0.03498152 0.04149634 0.042055767 -0.06205781 0.0025418194 0.026271557 -0.038171522
0.02241459 -0.01290429 0.007342884 0.020803949 0.06304162 -0.019582592 -0.050051272 0.029777927
0.0041056396 0.0056182286 0.036305934 -0.01636131 0.0402734 -0.037689537 0.0073759565 0.010563335
0.020506436 -0.035040464 -0.042145576 0.025864827 -0.03333343 -0.01845804 -0.034870483 -0.030635023
-0.0042942 -0.026306015 -0.01966397 -0.047410738 0.028435363 -0.019203814 -0.03629429 0.015512716
-0.044621553 0.030911772 0.031753134 -0.054206233 -0.04531217 -0.035017535 -0.032618176 -0.0038994183
-0.07045614 -0.045669336 0.020296544 -0.013162708 0.0050048847 -0.030585267 0.011332023 -0.004644177
-0.040302753 -0.032396138 0.019646758 0.01381727 0.014600986 0.013090569 -0.012620213 -0.04612737
0.030523285 0.0011853614 -0.057845384 0.04340921 0.010490927 -0.03717991 -0.019477248 -0.016997065
-0.03409182 0.01342338 -0.036406398 0.05257038 -0.02032371 0.026237328 0.00917513 -0.01961077
0.037141398 -0.04062385 -0.036856256 -0.0018436878 0.033467054 -0.02372006 -0.030873619 -0.03271839
-0.015269942 -0.01391725 -0.027267367 -0.04867648 0.008822674 -0.022050034 -0.03921006 -0.033720747
0.013031325 0.0137408255 0.048294477 -0.014162024 -0.052248422 -0.047220714 -0.018088382 -0.021014066
-0.008873426 -0.008055961 0.01410593 -0.016251931 0.04016121 0.007683398 -0.02078258 0.03950277
0.00977318 -0.03498961 -0.029982176 0.034963094 0.025582416 0.03989015 -0.009763781 0.031282626
0.02306566 0.020406038 0.006469827 0.051935 0.018707668 0.0070833648 -0.0043760184 0.042080287
0.040190227 0.0008371863 0.055765226 0.015623515 -0.028764216 -0.04378703 0.021861048 0.0457087
-0.04009062 0.014961163 0.009187352 -0.009015041 -0.011118283 0.007239261 0.0035856187 0.028842606
0.025023857 0.008820799 0.043118853 0.005528832 0.018968958 -0.0018489782 0.03836232 0.030041138
0.05720311 0.047105797 -0.020324877 0.038778007 -0.0076033347 0.047838356 0.040814474 -0.013988809
0.010811284 -0.012536166 -0.019399172 -0.023215182 0.005556246 -0.019559054 -0.042708993 -0.03132148
0.0017471572 -0.015416111 0.035005752 0.052339643 0.042337395 0.032950666 -0.04015749 0.04714254
-0.0626871 -0.046347696 -0.06191485 -0.002982398 -0.044487275 -0.027601276 -0.030865084 -0.03145366

conv2.bias f4 [40]
00000000: 54e2 5bbc 9793 673b f232 b13c 21a4 123d
00000010: 9a31 08bd f042 1838 9cd9 463c 365d 49bd
00000020: 46e8 1bbd e406 303c 0842 c8bc 85dd 2cbd
00000030: ff38 4b3d 5b01 033d 4034 67bc 807e 1cbc
00000040: 3263 49bd fd0f 29bd 6a87 ccbc 4724 0dbd
00000050: 2ea8 e13c 0db5 203d 7738 113d 1ca1 2f3c
00000060: 910e 523d 6063 13bc faed bd3c c555 223d
00000070: d1b6 56bd d66c d83b 88f4 dfbc a960 07bd
00000080: 4d59 673b 43cc 173d 313e 273b 0b45 0b3d
00000090: a2b0 f03c 082d a93b 4084 42bc a496 5b3c
-0.01342066 0.0035335773 0.021630738 0.035801057 -0.03325043 3.6301964e-05 0.012136843 -0.04916116
-0.03806331 0.01074383 -0.024445549 -0.042203445 0.049614903 0.031983715 -0.014111578 -0.009551644
-0.049166866 -0.041275013 -0.024966914 -0.034458425 0.027546015 0.039235163 0.03545424 0.010719564
0.051283423 -0.008995861 0.023184765 0.039632577 -0.05242044 0.006604771 -0.027338281 -0.033051167
0.003530103 0.037060034 0.0025519247 0.03400139 0.0293811 0.005162839 -0.011872351 0.013402615

bn2.weight f4 [40]
00000000: c06b 863f 2351 8f3f f90c 8b3f 9b89 853f
00000010: ae15 883f 81f5 863f 109d 893f 4b25 893f
00000020: d9c7 853f 67b6 873f 5f84 8f3f 2bf5 883f
00000030: 37f6 8c3f f680 923f 2acb 883f b5d3 8a3f
00000040: 2fb8 8d3f 8980 8d3f 152c 8e3f 7f7a 8a3f
00000050: eca7 863f 1c6f 8d3f 40f2 893f 0309 873f
00000060: 878a 893f f2ef 883f 0068 893f 0e3c 863f
00000070: dc79 893f 65ac 853f 7141 863f 7776 893f
00000080: f956 8b3f 70d1 8a3f 10c2 863f 1f99 873f
00000090: 1815 873f 0696 883f 37cf 893f ed09 8f3f
1.0501633 1.1196636 1.0863334 1.0432619 1.0631616 1.0543672 1.0751057 1.0714506
1.0451614 1.060254 1.1212271 1.0699819 1.1012639 1.1445606 1.0687001 1.0845858
1.1071833 1.1054851 1.1107203 1.0818633 1.0519996 1.1049533 1.0777054 1.0549625
1.07454 1.0698225 1.0734863 1.0487077 1.0740314 1.0443236 1.0488721 1.0739278
1.0885917 1.0845165 1.0527973 1.0593604 1.0553312 1.0670784 1.0766362 1.1174904

bn2.bias f4 [40]
00000000: 9b45 723a 4d74 8f3c 3c5e 97bb 96bf 35ba
00000010: c246 fb3b 8b2e 8f3c 9f82 e63b 61de a93c
00000020: 1a72 f63c 834b b43c 9ca0 913c 7e57 91ba
00000030: 2f4c 153c 9077 ff3c eb6e f23b 353d e7bb
00000040: 38fd b03b d7a1 9d3c c986 be3c 6be2 b63c
00000050: 24d5 0c3d a152 a23c 6904 553b ec8e d4ba
00000060: 7f4e 5a3c bb81 b6bb 1884 b03c d8ba 973c
00000070: a177 c8bb b527 8a3c 00be c838 7bce 2b3c
00000080: a291 f93b d5d5 7d3c 77d9 1a3c 4980 3d3c
00000090: 7df5 b03b b3fd ad3a ade7 8cbb 908a d1ba
0.00092419394 0.017511511 -0.004619388 -0.00069331506 0.007668347 0.017478248 0.007034614 0.020735921
0.030083705 0.022008663 0.01777678 -0.0011088697 0.009112402 0.031184942 0.0073984764 -0.007056857
0.00540128 0.01924221 0.02325763 0.022324761 0.034382954 0.019814791 0.003250385 -0.001621691
0.013324379 -0.0055696643 0.021547362 0.018521711 -0.0061177765 0.016864637 9.5721334e-05 0.0104862405
0.0076162377 0.015492876 0.009451262 0.01156623 0.0054003582 0.0013274461 -0.004300079 -0.0015986729

bn2.running_mean f4 [40]
00000000: 501d 61be 1545 043c cb65 33be 3869 dbbd
00000010: 1a87 693d 7ee0 50be e6df 943e 0aae 73bd
00000020: 4bf4 03bf 50ba c8be 87b0 40be 8cb4 37be
00000030: 3554 523d a032 8e3e ffc2 433e feab 06be
00000040: 7078 e3bd 1131 cbbb dff8 f23e 14f7 c43e
00000050: 4e59 05bf 360b 8bbd 0b8a aebe bb65 3cbe
00000060: ebc0 b33e ec4e 7e3e 2d6b 603e 8201 1ebd
00000070: d269 97bd c6f6 b5be 948e 553e fe2a 2bbe
00000080: b9b2 9b3d aa08 073f e6f4 a33c 8430 7a3e
00000090: aa61 39be cf24 093d 1484 723d cbc1 633d
-0.21983838 0.008073111 -0.175193 -0.10713428 0.05701361 -0.20398137 0.2907707 -0.05949215
-0.51544636 -0.39204645 -0.1881734 -0.17939967 0.051349837 0.27773 0.19117354 -0.13151547
-0.11106956 -0.0062009175 0.474555 0.38469756 -0.52089393 -0.06789248 -0.34089693 -0.18398182
0.35108122 0.24834794 0.21915884 -0.038575657 -0.073932305 -0.35539836 0.2085517 -0.16715619
0.07602448 0.52747595 0.020014238 0.2443257 -0.18103662 0.03348237 0.05920799 0.055604737

bn2.running_var f4 [40]
00000000: 23d7 0f3e 9431 a13e ec28 303e fad6 4b3e
00000010: b0fd 533e c78f 5b3e 076a b03e 816c 693e
00000020: 1e30 9b3e 3f16 163f 8202 603e 8314 343e
00000030: 1887 4c3e 5b3d 823e 61f4 8f3e e731 833e
00000040: 6cd8 593e 30ad f63e 000c 353e 2765 1a3e
00000050: 91c2 a73e 6a8d 9c3e b849 a33e cc76 ef3e
00000060: b496 663e 1ac9 863e 647f d23e ca18 b43e
00000070: 45e1 393e a10b 9a3e 8855 b93e 88d0 423e
00000080: ce41 403e 7580 a93e c0d1 473e 28b9 843e
00000090: 5b82 963e 8b1b 1f3e bab2 6a3e ca4f 4b3e
0.14046912 0.31483138 0.1720311 0.19906226 0.20702243 0.21441565 0.34455892 0.22795297
0.30310148 0.58627695 0.21875957 0.1758595 0.19973409 0.25437436 0.28116134 0.2562401
0.21273965 0.48179007 0.17680359 0.15077649 0.3276563 0.3057664 0.3189218 0.46770322
0.22518426 0.26325303 0.41112816 0.35175163 0.1815234 0.30086997 0.36198068 0.19024861
0.18775102 0.33105817 0.19513607 0.25922513 0.29396328 0.1553785 0.22919741 0.19854656

fc.weight f4 [10, 1000]
00000000: c85e f6bc ea9f 5ebb 0a4c 4ebc 76fa 013b
00000010: a645 d1bc 493a 7b3c 086e 9a3c 2169 88bc
00000020: bb0d 1cbd 9771 0e3d 07fa f33b 79b1 db3c
00000030: 99bb b13b 4cd6 903c 6d92 b93c 735d bd3c
00000040: 78dd 763b 8650 3cbc 79d7 62bd c236 203c
00000050: 7d5c d63c c980 22bc eead 8bbc 66b1 18bd
00000060: 5600 22bd 6bbe 86bc 4382 5ebc 4140 eebc
00000070: 2341 9bbc 7fc0 a5bb c09d cb3c dd48 b6bc
00000080: 386c b43c cf9e 553c 16bd 2fbd a471 2a3d
00000090: 5868 bc3d 3cb2 b13c bb07 bebd 39b7 323d
000000a0: d713 7f3d 20e2 163d 2e75 12bd b284 a53c
000000b0: ba2f 143d 8f33 fd3c 750a 4abb 030c 31bc
000000c0: 082c 973b 0f28 343c 0c47 19bc 7064 ad3c
000000d0: 7698 96bb d479 183d b5ba 5e3d 6f02 2dbb
000000e0: 47ad b7bc e1c2 88bc e74f 5f3d fca5 ca3d
000000f0: fc98 043d c908 5f3d ecaa 53ba 7d97 41bd
00000100: f1cf 7f3c 4bdc 823c e478 843d b466 0cbc
00000110: a3a0 50bd 0d5e a93b 27c2 113d ff75 3a3d
00000120: 0808 043d edbd 79bc 56b2 25bd da37 8a3c
00000130: d216 43b9 47c4 febc 2898 343c 299e bb3c
00000140: 93c7 103b f349 24bc 5282 ed3b 6e1c 483d
00000150: 1dbf 003d d627 6a3c 253a c83c e3a9 3a3b
00000160: e8b3 98bc 40cf c53c 3678 0d3d 4b8d 27b8
00000170: 81af 7bbd 31f0 89bc 9308 533c e362 97bb
00000180: 1324 7e3d 5289 6dbc 7c18 70bc 612b 92ba
00000190: 2519 db3c 866a 0b3c 3d69 36bd c329 7ebc
000001a0: 46dd ee3c 9f6b a73c b3ec 0abd 1907 12bd
000001b0: 88a9 2dbd d83d 2ebb 1d3d 2ebb b7a4 923c
000001c0: 7eee 1bbd 7504 cc3c 3a30 71bd e7b8 d83c
000001d0: 0b72 853c 2a4e a03c d197 77bc b823 68bb
000001e0: 0e31 78bc 388c 5d3c e0e4 abbc 4f46 12ba
000001f0: c650 0d3d 6224 e13c 3050 623b a33f c93c
00000200: 249e 483c 9793 12bd 18ff fdbc 794c 393b
00000210: 165f 783c c24e 033b d7b8 263c a89f 793b
00000220: 6e80 e9bb 51dc 883d d9a2 a3bb 681c f2bc
00000230: 9aa1 ebbc 2ce1 ad3c 04ec 893d db21 f6bc
00000240: caa9 f4bc 07c5 c53c e22d ce3c 9c0e d1bc
00000250: 0f63 a9bc ce18 6abb cb4a 9c3c df2b 12bd
00000260: afd7 cfba cbb2 15bc 4a79 bc3b 4ca2 4d3c
00000270: 6127 31bd 68a9 3fbd a30e 413c f2ff d0bc
00000280: 5bbe b6bc 2064 00bd a591 9dbc 49e9 323d
00000290: 3e9e 0dbc f858 5c3c 801f 5c3c 97e7 1bbc
000002a0: cd62 28bd c0ba ea3b d483 cdbc bf3e 2ebd
000002b0: d193 9cbc 9b6d 473d 109e 1a3d 44c6 86bc
000002c0: 153c e3bb a665 1cbd fd2d 00bc 790c 59bb
000002d0: fb22 133c 2702 983c 820e 513c 4f43 1ebb
000002e0: 6f93 0f3c 276b 433d 2638 e43b feac e8b9
000002f0: 905b 383d 104c a1bb 4683 89bb 63fa 8e3c
00000300: e951 f63c 9ccb c63c fbcd b63c 6160 8abc
00000310: 5fa7 abbc 2b4a c33a 3fc4 11bd 796e f23a
00000320: 0b29 3c3c 83bd 2cbc c1c9 88bc 6cc8 5a3b
00000330: bb2d 45bc 6b8b ab3c ea99 713c 8f9e 543c
00000340: c33e c5bc 6c9f 3ebd 5ab6 4c3c 9309 aebc
00000350: c244 443c b565 943c 00d1 84bd 846b d9bc
00000360: 7d7c d3bc f52e 9dbb e916 5ebc 6068 0ebb
00000370: 8fb4 e0bc a19b 2abb dfe7 77bc e90a a63c
00000380: 2b40 ba3c 9ed5 0ebd 3ee7 73bc af5e 95bc
00000390: ee1f ba3c 0609 ed3c f40e 323b 9e2c 1ebd
000003a0: 8c7f 15bd 20d9 d73c 95ef 0abb f7af 20bb
000003b0: 2388 30bd fc81 96bb 2052 143d 34e1 143c
000003c0: d61e 9f3c 1eae 21bd 3ef3 74bd 04d5 9cbc
000003d0: 952e 71bc b65c c1bc c5c5 b63c 7100 12bd
000003e0: d796 9b3c 8305 b83b 0534 06bd 4895 4ebc
000003f0: 4a4b 8fbc 46fd 783c 0ce6 9bba 9a1b 003b
-0.030074492 -0.0033969828 -0.012591371 0.0019833124 -0.025545906 0.0153337205 0.018851295 -0.016651692
-0.038099032 0.034776296 0.007445577 0.026818024 0.0054239747 0.01768031 0.022652829 0.02311585
0.0037668627 -0.011493808 -0.055381272 0.00977868 0.026167149 -0.0099184 -0.01705071 -0.037278555
-0.0395511 -0.01644822 -0.0135808615 -0.029083373 -0.018951958 -0.0050583477 0.024855494 -0.02225154
0.022024259 0.013038351 -0.042904936 0.041612282 0.091995895 0.021691434 -0.09278818 0.043631766
0.06227478 0.036836743 -0.035756283 0.020204876 0.036178328 0.030908374 -0.0030828987 -0.0108060865
0.004613403 0.010995879 -0.009355318 0.021166056 -0.0045958115 0.03722556 0.054377276 -0.0026399156
-0.022421492 -0.016694488 0.05451956 0.0989494 0.03237246 0.054451738 -0.00080744806 -0.04726361
0.015613542 0.015974184 0.064683706 -0.008569408 -0.050934445 0.0051686824 0.03558555 0.045522686
0.03223422 -0.015243036 -0.040453278 0.016872335 -0.0001860515 -0.031099452 0.011022605 0.022902565
0.0022091612 -0.0100273965 0.0072482014 0.048855238 0.03143226 0.014291724 0.024441788 0.0028482608
-0.018640473 0.024146676 0.03453847 -3.9947492e-05 -0.06144667 -0.016838165 0.012880462 -0.0046199425
0.06204612 -0.014498072 -0.014654275 -0.0011151844 0.026745388 0.008509284 -0.044533957 -0.015512886
0.029158246 0.02043706 -0.03391714 -0.0356513 -0.042398006 -0.0026587155 -0.002658672 0.017900808
-0.03806924 0.024904469 -0.058883883 0.026455356 0.016289731 0.019568522 -0.015111879 -0.003542168
-0.015148414 0.0135222 -0.02098316 -0.0005579935 0.03450086 0.027483169 0.0034532659 0.024566477
0.012244735 -0.035785284 -0.031005427 0.002827434 0.015159389 0.0020035957 0.010175905 0.0038089547
-0.0071259057 0.06682647 -0.004993778 -0.02955456 -0.028763581 0.021225534 0.067344695 -0.03004544
-0.029866118 0.024141802 0.025168363 -0.025519662 -0.020677118 -0.003572035 0.019078633 -0.03568637
-0.0015857125 -0.009136866 0.0057517635 0.012550902 -0.043250445 -0.046792418 0.011783275 -0.02551267
-0.022307565 -0.031345487 -0.019234488 0.04367951 -0.008643685 0.013448946 0.013435245 -0.009515665
-0.04110985 0.0071633756 -0.025087275 -0.042540308 -0.019113453 0.048688512 0.037748396 -0.016451962
-0.0069346526 -0.038182877 -0.007823464 -0.0033119007 0.008980508 0.018555714 0.012759807 -0.0024149006
0.008763178 0.04770961 0.006964701 -0.00044379378 0.045009196 -0.0049223974 -0.004196557 0.017453378
0.030068355 0.02426701 0.022315016 -0.01689166 -0.020953832 0.0014899423 -0.035587545 0.0018496058
0.011484395 -0.01054323 -0.016697766 0.003338362 -0.012034829 0.020940503 0.014746169 0.012977256
-0.024077779 -0.046538755 0.012494648 -0.0212448 0.011979284 0.018114904 -0.06485176 -0.026540525
-0.025816197 -0.0047968575 -0.013555267 -0.0021729693 -0.027429847 -0.0026032703 -0.015130966 0.020268874
0.022735676 -0.03487169 -0.014886675 -0.018233625 0.022720303 0.028934967 0.0027169557 -0.03861677
-0.03649859 0.02634865 -0.002119993 -0.0024518946 -0.04309858 -0.004593132 0.036211133 0.009086896
0.019423883 -0.03947269 -0.059802286 -0.019144543 -0.014720579 -0.023603778 0.0223111 -0.035644952
0.018992824 0.0056158914 -0.032764453 -0.012608834 -0.017491955 0.015197104 -0.0011894121 0.0019547702

fc.bias f4 [10]
00000000: 3c1c c83c 2594 243d 858e ba3c 446d 15bd
00000010: 5dbd ee3c cd7a 553c 3897 ee3b 0d99 a93c
00000020: 367f 54bd 6115 0e3c
0.024427526 0.040180344 0.022773037 -0.036481157 0.02914303 0.013029766 0.0072812103 0.020702863
-0.05187913 0.008672089
