ckpt/mnist_cnn_user.pt (torch, 60233 bytes, 4 tensors)

conv1.weight f4 [10, 1, 5, 5]
00000000: 0504 db3d 368c cbbd ce22 18be 021a e7bd
00000010: 7ce3 8ebe 44b8 8c3e 6ec2 7b3e 16df ab3e
00000020: e094 783e c784 203e 4122 f43d 9ec4 973e
00000030: 7b7d cd3e e307 8b3e c703 8a3e d54e 80be
00000040: b77e 4bbd aa39 1ebd 26fc 293e 9fa4 183e
00000050: e56f eebe ebce 04bf 3a7f f7be 0253 ebbe
00000060: 7777 8bbe c816 253e 4eb2 e83e dde0 893e
00000070: 6864 ecbe 190b a0be dc0c 3f3e 070e 123f
00000080: b23c 7d3e b687 01bf 44cf 15bf 43ea b23d
00000090: 37fc 123f 8f84 1c3d 7f9e 73be 564e f0be
000000a0: 6fbc bc3e 85eb 563e 3da6 533e 65c6 60be
000000b0: 19af b5be fd42 9d3e 7b64 173e 63a0 2c3e
000000c0: 72dd e4bd 9935 f9bd 957a c4be 77b6 81be
000000d0: 7dbd 773d a469 e33d ae6f e13e 9b86 72bc
000000e0: 9441 0abd e993 9f3d a19d de3e 1609 743e
000000f0: e423 17be 3251 9b3e 7594 de3e 9dda cd3e
00000100: 99f5 2dbe 8982 c13d d4db 5a3e 4f6f 3f3e
00000110: 700d 45be 2633 a2be 8279 703e bb06 503d
00000120: 23e3 5b3d f032 1abe a961 eebd 22ce a3bd
00000130: 8212 8fbd 8282 cf3c 447b f5bd 2be3 813e
00000140: 8b8c 83be 1549 90be efcf 70bc 5f67 ff3d
00000150: 5bca 9f3e 7f5e 8bbe 1c18 a5be 7965 3d3e
00000160: ec6a 283e a031 7a3e be15 0cbe a615 71be
00000170: 2a3a 373e 321e 803e 009d a1bd 4b79 7abe
00000180: 24e2 6b3d 9af1 363e 6ae7 303d 6f74 89bd
00000190: f3fd a73e c584 533e e0d4 973e a7f2 0d3e
000001a0: 4b1a 51be dddc 8fbd 6f2c e33e f565 6c3e
000001b0: 274e 473e dc09 4abb 5335 233e 7b60 f33e
000001c0: 0a21 fa3e 677d 00bd 3d95 6c3d bda8 603e
000001d0: 5ce4 e73e 1ccb df3e 441b 143d c9d7 56bc
000001e0: ec90 babd fc34 753e cd9c f03e a140 b23d
000001f0: d238 753e cc88 83be bf89 9abe d209 1bbd
00000200: 8632 993e baf1 d03e a741 98bd baeb 623e
00000210: 6877 e33e 9983 ca3e 0bf7 713e 7fee ce3e
00000220: 13a0 cd3e e592 7f3e 633e 98bd c5b2 59be
00000230: cd11 2c3d 2532 813c c000 0ebe 1752 ce3d
00000240: 3cb5 e93d e3a7 e2bd 76c0 6ebc 0661 693d
00000250: 1c4e 5c3e 9670 803e dc3d 30be 9cbf 593d
00000260: b2d6 3ebe ac44 1ebe d4b3 93be e636 8abe
00000270: 6c26 93be 0231 9bbe a0c6 84bd dd10 3abe
00000280: 3ee8 80be 6475 0cbd 8acb afbd 1d61 07bb
00000290: b43d 32be fb5b 2b3d 535d 7abd 5142 35bd
000002a0: 86b6 0bbe 6809 86bd 0ead a83d 6458 853e
000002b0: db14 853e 3371 963e 7c43 d43e 166e bc3e
000002c0: bfcb ab3e 8a8c ea3d 98c3 25be 2892 913c
000002d0: 83cb 173d fa97 1abd 4a1f 9dbe 3443 5cbe
000002e0: 277f 92be 960b 803d cc16 cabe f644 c4be
000002f0: b1eb 2cbe c184 02be ec04 ecbd 609c 8dbe
00000300: 8ed8 19be 3ef7 cf3d 1ac7 ab3e 2ba2 27be
00000310: 2f0d 1d3e df45 b23e 2753 d73e d8d9 0b3d
00000320: 3bdc b93d 27d1 c8bd c3c7 473e bf30 7bbd
00000330: b35f 3b3d 930d 0f3e 191c d93d e107 3f3e
00000340: cf3c 913e 6279 6c3e 8354 4f3e 0e20 5e3e
00000350: 8639 1f3d cd2d f43e b109 0a3f f905 513e
00000360: 5e70 113e 707e 3abe 7869 713c c5e3 fa3e
00000370: 7e25 afbe e801 24bd e1c2 c2be 3803 90be
00000380: 9deb 533e 23aa 583d e804 893e 204f f53e
00000390: f753 e83e d051 093f d830 df3d 3d7d ea3d
000003a0: 2078 f13e 24b4 613e b7c6 853e 1b8b 14bd
000003b0: fe7b 5bbe ef3a 813c 3aa4 a83d 3b50 81bd
000003c0: 4ab8 ddbe 562a b0be 4b4c 89be c3fe 75be
000003d0: a9eb 48be acf8 88be d26d 02bf e23a f3be
000003e0: a3b8 bebe b2f2 6bbb
0.10694126 -0.099388525 -0.14857027 -0.112842575 -0.27907932 0.27484334 0.24585888 0.3356864
0.24275541 0.1567565 0.11920596 0.29642195 0.40134797 0.27154455 0.26956007 -0.25060144
-0.04968139 -0.03862921 0.16600093 0.14906548 -0.46569744 -0.5187823 -0.48339254 -0.45961767
-0.27239582 0.16121972 0.45448536 0.2692937 -0.46170354 -0.31258467 0.18657249 0.57052654
0.24730185 -0.50597703 -0.5851939 0.08736088 0.574161 0.038212355 -0.2379093 -0.46934766
0.36862513 0.20988281 0.20668884 -0.21950682 -0.3548515 0.3071517 0.14784424 0.16858058
-0.1117505 -0.12168426 -0.38374773 -0.25334522 0.060483444 0.11104134 0.44030517 -0.0148026
-0.033753946 0.077918835 0.43479636 0.23831591 -0.14759785 0.30335385 0.4347264 0.4020585
-0.1698822 0.09448726 0.2137292 0.18694805 -0.19243407 -0.31679648 0.23483852 0.05078767
0.05368341 -0.15058494 -0.11639721 -0.07998301 -0.06985952 0.025330786 -0.11986402 0.25368628
-0.25693163 -0.28180757 -0.014698013 0.12470888 0.31209072 -0.27220532 -0.32244956 0.1849574
0.16447037 0.24432993 -0.13680169 -0.23543414 0.17893282 0.25023037 -0.078912735 -0.24460332
0.05758871 0.17865601 0.043189444 -0.06711661 0.32810935 0.20656116 0.29654598 0.13862096
-0.20420186 -0.07024548 0.44369838 0.23085769 0.19463407 -0.003082863 0.1593831 0.47534546
0.48853332 -0.031369593 0.057759512 0.21939369 0.45291412 0.43709648 0.036158815 -0.013112971
-0.09109673 0.23945993 0.4699463 0.08703733 0.23947456 -0.25690305 -0.30183217 -0.037851162
0.2992136 0.40809423 -0.07434397 0.22160235 0.44427037 0.39553526 0.23629396 0.40416333
0.4016119 0.2495838 -0.07433774 -0.21259601 0.042009164 0.015770981 -0.13867474 0.10074251
0.11411521 -0.11067178 -0.014572253 0.056977294 0.21514171 0.25085896 -0.17211097 0.05316125
-0.18636587 -0.15455884 -0.28848135 -0.2699501 -0.2874025 -0.30310827 -0.06483197 -0.18170495
-0.25177187 -0.03429164 -0.08583744 -0.002065725 -0.1740635 0.041835766 -0.061124157 -0.044252697
-0.13643846 -0.06544763 0.082361326 0.26044 0.25992474 0.2938324 0.41457736 0.3680274
0.33553883 0.11452587 -0.16187894 0.017769888 0.03705932 -0.037742592 -0.30687934 -0.21510011
-0.28612635 0.0625221 -0.39470518 -0.38333863 -0.16886784 -0.12745954 -0.11524376 -0.27658367
-0.15024015 0.101545796 0.3355034 -0.16370456 0.1533706 0.34818932 0.42055628 0.0341433
0.09075209 -0.09805518 0.19509797 -0.061325785 0.045745563 0.13970022 0.10601062 0.1865535
0.28366706 0.23093179 0.20247082 0.21691915 0.038873218 0.47691193 0.5392104 0.20412435
0.14203021 -0.18212295 0.014734618 0.490019 -0.34208292 -0.04004088 -0.38039306 -0.28127456
0.20695348 0.05289663 0.26761556 0.4791193 0.4537656 0.5364046 0.10897988 0.114496686
0.4716196 0.22041374 0.2612817 -0.036265474 -0.21434018 0.015775172 0.08234449 -0.06314131
-0.43304664 -0.344073 -0.2681602 -0.24022965 -0.19621147 -0.26752222 -0.5094882 -0.47505862
-0.37250242 -0.0036002812

conv1.bias f4 [10]
00000000: f7fe b63d af82 57be ac03 d8bd 5aa0 ae3d
00000010: 1dd0 acbb 3cf9 01b8 1ebc af3e b017 213e
00000020: 80f2 59bc 3020 d93a
0.089353494 -0.21045946 -0.10547575 0.085266784 -0.0052738325 -3.0988114e-05 0.3432321 0.15731692
-0.013302445 0.0016565379

fc.weight f4 [10, 1440]
00000000: 98ca af3c 637b a73c e323 93bc a6bb b23c
00000010: 48c8 cf3a 609d bebc 0fa2 133c 21d2 cebc
00000020: 4bab a13c d098 b4bc cf49 803b 380e c03b
00000030: a046 463b 91c6 873c b9af 9ebc a251 c5bc
00000040: 9c46 29bd bd6f 94bc bb58 8bbc adec 55bb
00000050: f9d7 c8bc 4064 91bc 461e 2c3a 2933 40bb
00000060: ac3d 3dbc eeff 8ebc b8af 09bd 3e90 9b3b
00000070: 3f28 e9bc 1ed7 80bc 9555 b1bc 7970 fabc
00000080: 8479 233b 9af4 0d3c 873f e4bb 60c4 00bd
00000090: 3eeb 65bc 8b31 c2bb 2e61 d3bc ff68 dfbc
000000a0: 9a9c c2bc a4c6 10bd 88aa efbb 5229 dfbb
000000b0: ccbb 88bc 9b2f e4bc 2de2 19bd 7a27 1b3c
000000c0: b13d 7a3a f60d 713c d561 dfbc d5d3 27bd
000000d0: c9fa 88bd 54ee 67bd 68b5 b1bc 78ff 40bd
000000e0: d1a0 debc cad1 cc39 4463 08bb ea1e 13bb
000000f0: c20c 20bc 4ac6 5bbc b18e 26bd e585 66bd
00000100: 03e2 14bd 7656 87bd 5c8d 94bd c81b 5abd
00000110: a946 96bd 0e20 0ebd 3cfe 9d3b 5b08 ed3b
00000120: 6652 8a3c 2252 ffbc dbed 08bd 6004 26bd
00000130: 90de 4bbd 8991 4dbd 8597 3fbd e690 94bd
00000140: 98bc 94bd 726c 48bd dec4 f6bc 375d 123d
00000150: f6b2 36bc d550 abbc 81f8 21bd dc45 48bd
00000160: 22da 77bd bc34 8dbd f80d 1abd 8978 0abd
00000170: ae8b 03bd c368 b2bc 0ac3 583c ceda e43c
00000180: 0bc4 8c3c f4c9 05bc c83e 47bc 81db 28bc
00000190: 3573 b4bc 631e 29bd 9d98 a7bc 01cd d0bc
000001a0: 24f2 993b 1737 72bb ef8a d5bc 1d34 1abc
000001b0: 282a 873b afc9 9bbb 1313 09bd 0205 fd3a
000001c0: fe68 913c 5e7e 843b 2a17 9fbb 55e9 79bc
000001d0: c7a0 bebc afd7 983c 38d6 0b3c 8ec4 da3a
000001e0: 8304 34bc 3962 c3bc 9a5f 0f3d e906 8a3c
000001f0: 66ce ef3c d3fa ab3d 0c95 523d 6c00 913c
00000200: 95a6 47bc 6c63 a1bc debe 1cbb 8ac6 863c
00000210: 5512 a03a 65be acbc d725 2c3c 5cb8 9abc
00000220: 1ef6 6a3c 7840 a23c 953e 153d 9b88 613c
00000230: c5f0 fdbc afc3 b3ba 2cd6 30bc e823 d1bc
00000240: 2f9a b4bb 9cc4 c6bc 8e75 82bc 38e0 a0bc
00000250: 705d 953c 7e45 9dbb 7942 55bb 80b2 e33b
00000260: df8a 20bb ad8c 08bd 05f6 3539 74dd d53b
00000270: 97ab abbc 186b b13c d993 afbc 5feb 5ebc
00000280: 7268 99bc f379 0e3d d1a6 c33c f6c2 023d
00000290: 4a43 cebb 420b 8d3a 8784 02bc 920e acbc
000002a0: 8b90 853b 39ae abbb eefc 21bc c132 9ebc
000002b0: da44 b23b 7e1b df3c 66e2 043d 4dc9 3b3c
000002c0: f377 633d 3477 fd3b 0684 103d d600 d23c
000002d0: a2c4 acbc 62f0 a23c d4d4 0bbd 2495 253c
000002e0: da2e 953c e648 123d 9293 043c 9030 7c3d
000002f0: a881 a93d fafb cf3c ad24 513d eec4 383d
00000300: 5042 d23c bb58 24bc 0e46 bf3c 0a63 e83c
00000310: 141f 203b 77af a83c 2f98 023d d704 d1bb
00000320: 8796 cc3d 2d3a 413d 58ff 913d 30a0 803d
00000330: 3cdc 6abb 1c2d 863b 6eb4 423c 0420 153d
00000340: 903e 3a3d f8a3 813d a46b 883c aef9 8ebd
00000350: 13e6 883d 07ac 6a3d 1d74 8b3d dd18 c63d
00000360: c265 d5bc 7ef3 bf3b 0a68 943d 00ae 5b3d
00000370: 6071 b03d da45 a83d 620f f8bc 76f5 90bd
00000380: 0410 463d 580a 65bb 4791 be3b cccd d53d
00000390: 53a4 1d3c 9562 903c 03cc b53d e917 8b3d
000003a0: f5e8 d73d 4527 733d eacd afbd 5750 acbc
000003b0: 95bb 273d 8551 1abc b0b3 073c 63ab 903d
000003c0: ddac b2bc 919e 62bc b038 6a3d 88e3 443d
000003d0: 27b5 ac3d 344a 173d 5713 9abd e230 27bd
000003e0: aa03 1a3d c7b1 92bc 0424 d63a f2ed 043d
000003f0: 08a7 a5bc 514e 933c 2bae 793d 383c af3c
0.021458909 0.020444578 -0.017961448 0.021817993 0.0015852535 -0.023268402 0.009010806 -0.025246682
0.019735 -0.022045523 0.0039150487 0.00586107 0.0030254498 0.016574176 -0.0193709 -0.024086777
-0.041327104 -0.018119687 -0.017010083 -0.003264229 -0.024517046 -0.017747998 0.00065657904 -0.0029327369
-0.011550348 -0.017456021 -0.033614844 0.0047474196 -0.028461574 -0.015727576 -0.021647254 -0.03057121
0.0024944255 0.008664275 -0.006965581 -0.031437278 -0.014033137 -0.005926316 -0.025803175 -0.027271746
-0.023756314 -0.03534569 -0.00731403 -0.0068103457 -0.016691111 -0.027854731 -0.037569214 0.009469861
0.0009545936 0.014712801 -0.02726833 -0.040973503 -0.066884585 -0.05662377 -0.021692947 -0.047118634
-0.027176293 0.00039066217 -0.002081112 -0.0022448846 -0.009768667 -0.013413975 -0.040663425 -0.056280036
-0.036348354 -0.06608288 -0.07253525 -0.05324915 -0.07337696 -0.03469854 0.004821567 0.007233662
0.016884994 -0.031167094 -0.03342996 -0.040531516 -0.0497728 -0.05018762 -0.04677536 -0.072542
-0.07262534 -0.048931547 -0.03012317 0.035733428 -0.011151066 -0.020912567 -0.039543632 -0.048894748
-0.060510762 -0.06894824 -0.037610978 -0.033806358 -0.03211563 -0.02177847 0.013230095 0.027936365
0.017183324 -0.008165825 -0.012160964 -0.01030624 -0.022027591 -0.041288745 -0.020458514 -0.025488378
0.004698055 -0.0036959106 -0.026067225 -0.009411839 0.0041248985 -0.004754267 -0.033465456 0.0019303861
0.01775026 0.0040433845 -0.0048550563 -0.015253385 -0.023270024 0.018657533 0.00853496 0.0016690658
-0.010987404 -0.023850547 0.035003282 0.016848998 0.029273223 0.0839745 0.051411673 0.017700396
-0.012185712 -0.019700728 -0.0023917477 0.016452093 0.0012212495 -0.021086881 0.010507069 -0.018886738
0.0143409055 0.019806132 0.036436636 0.013765479 -0.030998597 -0.0013714934 -0.01079325 -0.025529817
-0.005511544 -0.024263673 -0.015925195 -0.019638166 0.018233031 -0.004799544 -0.0032540841 0.006948769
-0.0024496836 -0.033337284 0.00017353155 0.0065266434 -0.020955844 0.021657512 -0.021432804 -0.0136059215
-0.018726561 0.03478427 0.023883255 0.03192421 -0.0062946426 0.0010760801 -0.007966167 -0.021003041
0.0040760688 -0.005239275 -0.009886963 -0.01931131 0.0054403367 0.027234789 0.032442473 0.011461568
0.055534314 0.0077351574 0.035282157 0.025635164 -0.021089856 0.019890014 -0.034138516 0.010106359
0.018210817 0.035714053 0.008091824 0.06156975 0.08276683 0.025388706 0.051060367 0.04510968
0.025666386 -0.010030921 0.023348834 0.028367538 0.0024432587 0.02059148 0.031883415 -0.006378751
0.09989648 0.04717462 0.07128781 0.06280553 -0.0035836836 0.004094733 0.011883838 0.036407486
0.04546982 0.06330103 0.01665289 -0.06981216 0.06684508 0.057292964 0.06809256 0.09672711
-0.026049498 0.005857884 0.072464064 0.053632736 0.086153746 0.08216448 -0.030280773 -0.07078068
0.048355117 -0.0034948792 0.0058156583 0.10439643 0.0096216975 0.017625133 0.08876803 0.0679167
0.1054248 0.059363622 -0.08584197 -0.021034403 0.040950377 -0.00941885 0.008282587 0.070639394
-0.021810943 -0.0138317505 0.057182968 0.048068553 0.084329896 0.036936 -0.0752322 -0.040818103
0.03760115 -0.017907036 0.0016337638 0.032453485 -0.020221248 0.01798168 0.060957115 0.02139102

fc.bias f4 [10]
00000000: a3ff 01bd 7fa9 0b3d 5813 a03c 8fdd 6bbd
00000010: 36c9 593b 5fb9 b13d 1596 0abd cd90 553d
00000020: 7c60 9cbd e66a 00bd
-0.031737935 0.03409719 0.019540474 -0.05758434 0.0033231503 0.08677935 -0.033834536 0.052140046
-0.076355904 -0.031351946
