ckpt/mnist_cnn_user_qat.pt (torch, 68427 bytes, 8 tensors)

conv1.weight f4 [10, 1, 5, 5]
000000 1d b6 ea 3d 6d 37 1a be 67 7a 99 be 61 bc a3 be
       0.114605166 -0.15060206 -0.29976198 -0.3197966
000010 25 12 dc be 0f a2 8e 3e 9e 31 a0 3e d4 b9 ba 3e
       -0.42982593 0.27858016 0.31287855 0.364699
000020 79 1b 6c 3e 8a 81 17 3e 3d ca 11 3d 44 2b b8 3e
       0.23057355 0.14795509 0.03559326 0.3597051
000030 37 78 05 3f 29 2a bf 3e ea 59 b3 3e 0a e5 c8 be
       0.5213656 0.37336853 0.35029536 -0.39237243
000040 cd a3 ce bd 3f 30 c8 bb 51 be 5f 3e 6d 3b 65 3e
       -0.10089836 -0.006109267 0.21849944 0.2238595
000050 96 a1 04 bf 93 2a 11 bf 5f 11 06 bf 4e 39 00 bf
       -0.5180906 -0.5670559 -0.52370256 -0.5008744
000060 fa e1 96 be ee 51 b5 3d 4e df e2 3e 89 4f 5e 3e
       -0.2946928 0.088535175 0.44310993 0.21710028
000070 db 5d 10 bf 18 17 c7 be 21 5a ee 3d 5b fa 1b 3f
       -0.5639321 -0.38884807 0.116382845 0.6092889
000080 9c 78 36 3e ab 8a 20 bf 65 3f 29 bf bb f7 8e 3d
       0.17819446 -0.6271159 -0.6611236 0.069808446
000090 bf dc 29 3f 48 15 cc bc 51 4e c1 be 5b ab 11 bf
       0.66352457 -0.024912491 -0.37755063 -0.5690209
0000a0 44 46 ad 3e 0c d3 74 3e bd fc fe 3d f1 4c ab be
       0.3384267 0.23908633 0.1245055 -0.3345714
0000b0 25 a3 d1 be c3 bd 99 3e 0d d8 f8 3d da 62 70 3d
       -0.40944782 0.3002759 0.121505834 0.058688022
0000c0 97 84 55 be f7 9e 02 be d6 d5 d8 be 68 55 b0 be
       -0.2085136 -0.12755953 -0.42350644 -0.3444016
0000d0 0d df f2 bd 99 2e df bb 26 9e d7 3e da 36 ed bd
       -0.1185895 -0.006810975 0.42112845 -0.11582728
0000e0 3a df fb bd 10 53 fa 3c 59 2d fa 3e 3d c2 62 3e
       -0.122984365 0.030557185 0.48862723 0.22144409
0000f0 7a a2 64 be fd 47 99 3e 58 46 05 3f cc e5 e5 3e
       -0.22327605 0.29937735 0.5206046 0.44901884
000100 f3 1f 84 be a9 4e 02 3e 4b 78 91 3e c4 35 6a 3e
       -0.25805625 0.12725319 0.2841209 0.22872072
000110 a8 aa 76 be 8a 8c de be a3 a9 a6 3e 19 39 2b 3d
       -0.24088538 -0.43466598 0.32551298 0.0418025
000120 b5 cb aa bd 2b 19 96 be 34 a6 6d be c1 ea 1c be
       -0.08339635 -0.29316077 -0.23207933 -0.15323927
000130 b0 ae 2e be 8f d9 8b bd 9d 7c 07 be a2 f5 9e 3e
       -0.17058825 -0.068286054 -0.1323113 0.31046778
000140 ac 63 a3 be 75 46 b5 be 99 4f c6 bd 9e a5 08 3e
       -0.3191198 -0.35405317 -0.09683151 0.13344428
000150 30 c9 c5 3e 5f 1a ad be 16 3c cf be 5e 4f 03 3e
       0.38630056 -0.33809182 -0.4047553 0.12823245
000160 5e c8 6a 3e 69 fd a4 3e 57 c9 66 be ad 7a aa be
       0.22927997 0.32224587 -0.22537743 -0.3329672
000170 77 7f 21 3e da 31 b3 3e cb 7d 65 bd 57 03 a8 be
       0.1577128 0.3499897 -0.05602817 -0.32815048
000180 d4 ce 80 bc 39 8e 58 3e 2e 5d 0a 3e 0d e4 94 bd
       -0.015723623 0.21148004 0.13512108 -0.0727006
000190 c8 72 8c 3e af de d3 3d ac 38 c5 3d a2 2c 97 bd
       0.2743132 0.10345208 0.0962995 -0.0738156
0001a0 85 bc b7 be f8 ed 33 be 80 05 9f 3e 09 3d 89 3d
       -0.35886016 -0.17571247 0.31058884 0.06701095
0001b0 fa 5d 19 3d bf de e6 bd 99 6b d4 bc 7e 78 8d 3e
       0.03744314 -0.11272954 -0.025930213 0.2763099
0001c0 3c 99 b6 3e 26 a0 f3 bd 69 b9 52 ba 3f 98 42 3c
       0.35663784 -0.1189578 -0.00080384925 0.011877119
0001d0 0c 24 92 3e 07 f6 b1 3e ec 64 6f bc b2 c2 b7 bc
       0.28543127 0.34758016 -0.014611464 -0.022431705
0001e0 b1 91 67 be 77 f4 00 3e 66 12 c7 3e 11 1f 5a 3d
       -0.2261417 0.12593256 0.38881224 0.053252283
0001f0 c3 a9 62 3e 96 20 95 be d2 2e e1 be a6 82 52 be
       0.22135071 -0.29126424 -0.43981034 -0.20557651
000200 b2 4d 4a 3e 10 f9 c2 3e 78 4f 15 be 91 d3 2b 3e
       0.19756201 0.38080645 -0.14581096 0.16779925
000210 9b 79 cb 3e 0b 71 9c 3e c0 8c e7 3d 04 ab f9 3e
       0.39741215 0.30554995 0.11306143 0.48763287
000220 65 36 df 3e 94 98 14 3e 35 96 9c be ed 2a ca be
       0.43596187 0.14511329 -0.3058335 -0.39485875
000230 5a 9f 1d 3e 8f ec 37 bd 21 70 a9 be 50 5c 9b bd
       0.15392819 -0.044903334 -0.3309336 -0.075859666
000240 3f f4 60 3c 0f f7 93 bd fd 2a e3 bd b1 56 50 bd
       0.013730108 -0.07224857 -0.11092184 -0.050863925
000250 7a c8 0b 3e 28 9d 48 3e 1e 8a 92 be cf 1b 21 bd
       0.13650694 0.195912 -0.28621 -0.03933316
000260 91 d8 88 be 8b 47 65 be d4 83 a6 be 00 7d b8 be
       -0.26727727 -0.22390573 -0.32522452 -0.36032867
000270 9f 6a ae be 7e e2 b0 be 66 ba d3 bd 34 28 58 be
       -0.3406572 -0.345478 -0.10338287 -0.21109086
000280 f7 06 ad be 4d 2a 56 bd 9e e7 5c bd 35 eb 80 3c
       -0.33794376 -0.052286435 -0.053931825 0.015737155
000290 45 bb 34 be 2c a4 8b bc 94 8d 3a bd ce 83 8d 3c
       -0.17649563 -0.017046057 -0.045545176 0.017274763
0002a0 97 8b 8a bd 9c a2 c2 3a 76 12 e5 3d 47 6d 9e 3e
       -0.06764906 0.0014849487 0.11185162 0.30942747
0002b0 03 2a a6 3e 29 37 d0 3e e5 69 14 3f 3c dd e8 3e
       0.32453927 0.40667084 0.5797408 0.45481288
0002c0 68 b8 e6 3e 8d d5 42 3e 5a d9 48 be d9 86 ca bd
       0.45062566 0.19026776 -0.19614163 -0.098890014
0002d0 d7 16 08 3e 17 69 fc 3b 9a 98 be be fe c0 a6 be
       0.13289963 0.0077029574 -0.372258 -0.32569116
0002e0 88 1b d4 be 9b 65 11 3c 35 f3 08 bf 06 dc 08 bf
       -0.41427255 0.008874322 -0.53496104 -0.5346073
0002f0 dd 99 91 be 2c 33 44 be 1b 03 91 be c8 a2 e6 be
       -0.284377 -0.19160146 -0.28322682 -0.45046067
000300 3e 20 8a be e5 0d 9d 3d 46 f8 bd 3e cb 62 82 be
       -0.26977724 0.07668666 0.3710348 -0.25465998
000310 99 68 cd 3d 65 5d b6 3e a4 54 ec 3e 11 6f 2d 3d
       0.10029716 0.3561813 0.46158326 0.04234225
000320 0b 03 02 3e 22 24 b9 bd 3a 0a 37 3e da ab 3e be
       0.12696473 -0.09040095 0.17874995 -0.18620244
000330 3f 76 6f be 88 46 9d 3d 9d 1b 04 3d 63 3a 38 3e
       -0.23384951 0.076794684 0.032252897 0.17991023
000340 51 eb 8c 3e 81 64 9e 3c 19 54 af 3d 50 ff cb 3d
       0.27523282 0.019335033 0.08560962 0.09960806
000350 69 3b d8 3b b8 85 f9 3e 17 ae e5 3e 13 d4 0b 3e
       0.006598879 0.48734832 0.44859383 0.13655119
000360 55 cf 8f 3d 7d 98 82 be f2 20 79 bd 5f 42 f0 3e
       0.07021967 -0.25506964 -0.060822435 0.46925637
000370 b7 79 b0 be a6 82 34 bd 02 8a dc be e6 ab ce be
       -0.3446786 -0.04406991 -0.43074042 -0.40365523
000380 ae a7 2b 3e 9a 61 6a bb 66 eb 5b 3e d0 bf e7 3e
       0.16763183 -0.0035763741 0.21476516 0.4526353
000390 d9 58 cb 3e 1f 10 08 3f 6b b6 92 3c 66 71 0a 3e
       0.39716223 0.531496 0.01790925 0.1351982
0003a0 d5 69 10 3f 88 0a 92 3e 4b 13 ad 3e 48 7f 3e be
       0.56411487 0.2852366 0.33803782 -0.18603241
0003b0 18 e0 84 be e3 29 f9 3c 0c 17 88 3d 64 fe d0 bd
       -0.2595222 0.030415481 0.06645021 -0.10204771
0003c0 3a 43 16 bf e6 fc e4 be 0e 28 cd be fb 43 c7 be
       -0.5869633 -0.44724196 -0.40069622 -0.38919052
0003d0 07 94 a7 be 2f bd b4 be e6 ef 16 bf b4 cb 1c bf
       -0.32730123 -0.35300586 -0.58959806 -0.61248326
0003e0 c3 93 07 bf 69 7f db bd
       -0.5295984 -0.10717661

conv1.bias f4 [10]
000000 b1 8d 6a 3d e7 5c 80 be 1d e4 7f be a7 12 f0 3d
       0.057264034 -0.2507088 -0.24989362 0.11722308
000010 fe e6 f8 bd e9 9e a9 bd c3 f5 89 3e 21 32 91 3e
       -0.12153433 -0.08282263 0.26945314 0.28358558
000020 11 75 f0 bd bd 26 0f bc
       -0.11741079 -0.008737263

fc.weight f4 [10, 1440]
000000 57 f9 b6 3c 12 6c b2 3c ef e9 91 bc 20 df a2 3c
       0.022335691 0.021780048 -0.017811744 0.019881785
000010 e4 4b a0 ba 78 15 c8 bc 3b 0a 4d 3c ca 49 ab bc
       -0.0012229648 -0.0244243 0.012514646 -0.020909209
000020 e3 68 ba 3c 01 0d b7 bc d4 f6 7f 3b a4 c7 c9 3b
       0.022755092 -0.022345068 0.0039057033 0.006157832
000030 e5 ba 24 3a 95 e6 5c 3c e4 49 bc bc 8f ed 18 bd
       0.0006283953 0.013482709 -0.022984453 -0.03733593
000040 90 42 8b bd 1c ce 5a bd d3 10 16 bd 08 88 87 bb
       -0.06799805 -0.053419217 -0.03663714 -0.0041360892
000050 34 5f e7 bc cb 09 fa bc aa 00 b6 bb 92 68 85 bb
       -0.028243639 -0.030522248 -0.0055542784 -0.0040713036
000060 f8 7a 44 bc f8 83 9b bc c4 bf 01 bd 02 c0 ff 3b
       -0.011992209 -0.018983826 -0.031677023 0.0078048715
000070 0e 8c 23 bd f6 7d b8 bc 99 13 67 bc 6d ed b0 bc
       -0.03992849 -0.022521 -0.014103794 -0.021597588
000080 2d 24 d4 3c a8 e7 3e 3c e9 e8 40 3c 8d 87 06 bd
       0.025896156 0.011651911 0.01177428 -0.032844115
000090 1f 72 35 bc 3e e0 1a bc b0 4c d9 bc 3d c7 a3 bc
       -0.011074572 -0.009452878 -0.026525825 -0.019992465
0000a0 ef a4 b9 bb 22 8e cd bc 35 65 f4 bc 2d 90 e0 bc
       -0.0056654136 -0.025092188 -0.029833416 -0.027412498
0000b0 72 eb 52 bc 15 70 04 bc 7c c9 f2 bc 8b 89 a2 3c
       -0.012873517 -0.008083363 -0.02963709 0.019840976
0000c0 ba 68 0d 3c d8 14 9b 3c 3e 7e 94 bc 9f a6 30 bd
       0.008630926 0.018930838 -0.018126603 -0.043127652
0000d0 c9 0d 8b bd 66 6a 3b bd f8 cf a5 3a 1b dc 3f bd
       -0.06789739 -0.045755766 0.001265048 -0.04684077
0000e0 2c ee 21 bd e6 ea 1b bb 85 f6 15 bc 6a f0 1f 3b
       -0.03953378 -0.0023791133 -0.009153013 0.0024404773
0000f0 82 3e 35 bc 21 3e 88 bc 72 42 90 bd b9 d1 bb bd
       -0.011062266 -0.016631188 -0.070439234 -0.09170861
000100 e6 c6 4f bd 7c 34 b5 bd a5 85 b3 bd 26 0c 49 bd
       -0.050726794 -0.08847901 -0.08765725 -0.04908385
000110 36 b8 8a bd de c1 13 bd 3f 63 46 bb 20 fd 62 bb
       -0.06773417 -0.036073558 -0.0030271558 -0.0034635738
000120 fc 07 a4 3c 41 96 14 bd 36 31 91 bd 7c 1e cd bd
       0.020023338 -0.036276106 -0.07089464 -0.1001558
000130 97 12 a2 bd c6 35 5a bd be 65 a0 bd 2f 0e d4 bd
       -0.07913702 -0.05327394 -0.07831906 -0.10354268
000140 bc 92 92 bd ab 1d 2e bd 43 cc 03 bd 64 cd 0f 3d
       -0.071568936 -0.042508762 -0.03217722 0.035107985
000150 a0 5b 99 bc 0f b4 e3 bc ea 41 58 bd e2 9c a2 bd
       -0.018720448 -0.02779582 -0.052797236 -0.07940079
000160 46 72 88 bd 80 6b 95 bd 04 d3 1b bd bc a8 06 bd
       -0.06662421 -0.072958946 -0.038043037 -0.03287576
000170 8c cb b5 bc 1a 9e ba bc a4 45 3d 3c c8 9d ad 3c
       -0.022191785 -0.022780467 0.011552248 0.0211934
000180 c5 64 5a 3c 21 0e 9f bc 2a 41 de bc 7d c4 92 b6
       0.013329689 -0.019415917 -0.027130682 -4.3740133e-06
000190 b9 8f 58 bc 78 0b a6 bc fb 7c 69 bb f3 ef e1 bb
       -0.01321786 -0.02026914 -0.0035627473 -0.0068950593
0001a0 54 3a 2c 39 ed b7 af bc 79 0a 41 bd 5b b6 69 bc
       0.00016424927 -0.021450007 -0.047129128 -0.014264668
0001b0 37 1f 9f 3b e8 8c 05 bc 27 1c 42 bd 5b f8 da bc
       0.004856016 -0.00815127 -0.04739013 -0.026729753
0001c0 00 02 48 3c bf 77 21 3d 91 74 e8 bb b4 dc 01 bc
       0.012207508 0.03942084 -0.007093974 -0.007926155
0001d0 28 81 ec bc fa ef cc b9 d6 12 16 bc c4 15 8c bb
       -0.02887018 -0.0003908871 -0.009159764 -0.0042750556
0001e0 05 85 8c bc e2 48 56 bc 2c a5 89 3d a0 9a 69 3d
       -0.017153272 -0.0130789 0.06720957 0.057032228
0001f0 67 ad 5c 3d a2 c7 ef 3d 9b 54 a3 3d 42 07 a5 3c
       0.053876307 0.11707999 0.079751216 0.020145062
000200 56 30 80 bc 39 15 db bc 8d 18 a0 bc 23 59 27 3c
       -0.015648048 -0.026743518 -0.019542957 0.010214123
000210 c9 9d 12 3b 27 4a ea bc f4 c8 2e 3b b4 13 af bc
       0.002237188 -0.028599812 0.002667007 -0.0213717
000220 30 2c 8f 3c dc e8 db 3c 1e 3a 24 3d c0 46 8f 3c
       0.017477125 0.026844434 0.040094487 0.01748979
000230 5f 32 36 bd 45 25 b2 bc 7b 79 a1 bc 1f 52 e9 bc
       -0.04448163 -0.021746287 -0.019711247 -0.028481541
000240 2f 9a b4 bb 37 54 d0 bc e0 63 9d bc 8c 8f a5 bc
       -0.005511544 -0.025430782 -0.019212663 -0.02021005
000250 d6 d9 57 3c 8e c9 27 bc 4d 71 88 bc 03 bc a1 bc
       0.013174495 -0.0102409255 -0.016655589 -0.019742971
000260 5c bb 89 bc aa a3 07 bd d0 77 e8 bb 4e c6 ae 3b
       -0.016812973 -0.033115067 -0.007094361 0.0053336984
000270 97 ab ab bc 48 b8 94 3c 6a 53 fd bc 33 39 be bc
       -0.020955844 0.018154278 -0.030923564 -0.023220634
000280 77 9b e2 bc ad a8 74 3c be a7 6d bb 4f e2 3e bc
       -0.027662022 0.014932794 -0.0036263312 -0.011650636
000290 ca 12 37 bd 9e b7 c4 bc 83 ca 9f bc 88 91 22 bc
       -0.044695653 -0.024013337 -0.019505745 -0.009922393
0002a0 8b 90 85 3b c9 31 24 bc a2 32 d1 bc d4 3e 19 bd
       0.0040760688 -0.010021635 -0.025536839 -0.037413433
0002b0 87 48 0d bc af 16 98 3c f5 8f a7 3b 1e 98 92 bc
       -0.008623249 0.018565504 0.0051135966 -0.0178948
0002c0 67 25 8a 3c 83 88 0e bd 1c eb 2e 3d 8d be 14 3d
       0.016863538 -0.034798156 0.042704687 0.036314536
0002d0 a2 c4 ac bc 8f d2 6e 3c 67 b3 27 bd 4b 61 67 bc
       -0.021089856 0.014576568 -0.040942576 -0.014122318
0002e0 57 7b 03 3d 47 88 06 3d 39 d4 80 bc c0 92 94 3d
       0.032100048 0.032844808 -0.015726196 0.07254553
0002f0 12 10 5d 3d 43 65 f8 3c 0c b7 b1 3d 40 7a 6d 3d
       0.053970404 0.030321723 0.086774915 0.057977915
000300 50 42 d2 3c 91 b0 40 bc c1 15 b8 3c 08 a3 48 3d
       0.025666386 -0.011760847 0.02247131 0.048983604
000310 96 ce bf 3c d2 f3 e5 bb b6 e9 0a 3d ff 6f fd 3c
       0.023413938 -0.007017591 0.03391429 0.030937193
000320 e5 9c c5 3d c5 4e a8 3d 11 61 10 3e 40 3e b2 3d
       0.09649066 0.08218149 0.14099528 0.087032795
000330 40 dc 6a bb ef df ab 3b 10 d7 11 3d 81 42 92 3d
       -0.0035836846 0.005245201 0.03560549 0.07141591
000340 25 2b ac 3d fa 5d 8f 3d c7 27 87 3d 92 77 f9 bc
       0.08406667 0.070003465 0.06599384 -0.030452523
000350 34 f9 8c 3d 07 30 d1 3d 64 86 07 3e 28 70 f6 3d
       0.06883469 0.102142386 0.1323486 0.12033111
000360 26 66 d5 bc ab 9b 64 3c 4f e4 cd 3d 3d 7e d1 3d
       -0.026049685 0.01395313 0.10053312 0.10229156
000370 ab c3 d7 3d a7 c4 00 3e e5 e8 f5 3c d6 d1 26 bd
       0.105353676 0.12575017 0.03001828 -0.04072746
000380 55 21 92 3d 33 60 01 3d f0 bb 14 3d 94 f6 0b 3e
       0.07135264 0.031585883 0.036312044 0.13668281
000390 53 a4 1d 3c d1 19 e1 3c c5 fb a2 3d a4 6a eb 3d
       0.0096216975 0.02747813 0.079581775 0.114949495
0003a0 cd 38 01 3e 97 e7 dc 3d 37 2e 41 bd 71 00 7b 3c
       0.12619324 0.1078636 -0.047163215 0.015319929
0003b0 99 cb 52 3d d8 5f 14 3c e5 49 36 3c d9 2b be 3d
       0.051463697 0.009056054 0.011126016 0.09285707
0003c0 67 5e b0 bc d8 91 35 b9 77 d5 50 3d 11 b0 d8 3d
       -0.02152939 -0.00017315836 0.050984826 0.10580457
0003d0 60 85 cd 3d b9 1e 8c 3d fd e3 1e bd 60 68 2a bd
       0.10035205 0.068417974 -0.038791645 -0.041603446
0003e0 a7 2f d5 3c 21 e6 b1 bc 9e 03 5b ba 76 57 1b 3d
       0.026023699 -0.02171618 -0.0008354726 0.037925206
0003f0 92 58 a3 bc eb f8 99 3c 5a f2 62 3d c1 23 b7 3d
       -0.019939695 0.018795451 0.055406906 0.089423664

fc.bias f4 [10]
000000 43 6b d1 bc b3 86 66 3d bc 24 b0 3c 88 ba 94 bd
       -0.025563842 0.056280803 0.021501891 -0.072621405
000010 3c 19 33 38 f9 b5 c1 3d 5e 24 0e bd ed e6 6c 3d
       4.2700427e-05 0.09458537 -0.03470265 0.057837415
000020 71 7a bb bd fd 1f 27 bd
       -0.09154213 -0.04080199

qconv1.conv_module.weight f4 [10, 1, 5, 5]
000000 1d b6 ea 3d 6d 37 1a be 67 7a 99 be 61 bc a3 be
       0.114605166 -0.15060206 -0.29976198 -0.3197966
000010 25 12 dc be 0f a2 8e 3e 9e 31 a0 3e d4 b9 ba 3e
       -0.42982593 0.27858016 0.31287855 0.364699
000020 79 1b 6c 3e 8a 81 17 3e 3d ca 11 3d 44 2b b8 3e
       0.23057355 0.14795509 0.03559326 0.3597051
000030 37 78 05 3f 29 2a bf 3e ea 59 b3 3e 0a e5 c8 be
       0.5213656 0.37336853 0.35029536 -0.39237243
000040 cd a3 ce bd 3f 30 c8 bb 51 be 5f 3e 6d 3b 65 3e
       -0.10089836 -0.006109267 0.21849944 0.2238595
000050 96 a1 04 bf 93 2a 11 bf 5f 11 06 bf 4e 39 00 bf
       -0.5180906 -0.5670559 -0.52370256 -0.5008744
000060 fa e1 96 be ee 51 b5 3d 4e df e2 3e 89 4f 5e 3e
       -0.2946928 0.088535175 0.44310993 0.21710028
000070 db 5d 10 bf 18 17 c7 be 21 5a ee 3d 5b fa 1b 3f
       -0.5639321 -0.38884807 0.116382845 0.6092889
000080 9c 78 36 3e ab 8a 20 bf 65 3f 29 bf bb f7 8e 3d
       0.17819446 -0.6271159 -0.6611236 0.069808446
000090 bf dc 29 3f 48 15 cc bc 51 4e c1 be 5b ab 11 bf
       0.66352457 -0.024912491 -0.37755063 -0.5690209
0000a0 44 46 ad 3e 0c d3 74 3e bd fc fe 3d f1 4c ab be
       0.3384267 0.23908633 0.1245055 -0.3345714
0000b0 25 a3 d1 be c3 bd 99 3e 0d d8 f8 3d da 62 70 3d
       -0.40944782 0.3002759 0.121505834 0.058688022
0000c0 97 84 55 be f7 9e 02 be d6 d5 d8 be 68 55 b0 be
       -0.2085136 -0.12755953 -0.42350644 -0.3444016
0000d0 0d df f2 bd 99 2e df bb 26 9e d7 3e da 36 ed bd
       -0.1185895 -0.006810975 0.42112845 -0.11582728
0000e0 3a df fb bd 10 53 fa 3c 59 2d fa 3e 3d c2 62 3e
       -0.122984365 0.030557185 0.48862723 0.22144409
0000f0 7a a2 64 be fd 47 99 3e 58 46 05 3f cc e5 e5 3e
       -0.22327605 0.29937735 0.5206046 0.44901884
000100 f3 1f 84 be a9 4e 02 3e 4b 78 91 3e c4 35 6a 3e
       -0.25805625 0.12725319 0.2841209 0.22872072
000110 a8 aa 76 be 8a 8c de be a3 a9 a6 3e 19 39 2b 3d
       -0.24088538 -0.43466598 0.32551298 0.0418025
000120 b5 cb aa bd 2b 19 96 be 34 a6 6d be c1 ea 1c be
       -0.08339635 -0.29316077 -0.23207933 -0.15323927
000130 b0 ae 2e be 8f d9 8b bd 9d 7c 07 be a2 f5 9e 3e
       -0.17058825 -0.068286054 -0.1323113 0.31046778
000140 ac 63 a3 be 75 46 b5 be 99 4f c6 bd 9e a5 08 3e
       -0.3191198 -0.35405317 -0.09683151 0.13344428
000150 30 c9 c5 3e 5f 1a ad be 16 3c cf be 5e 4f 03 3e
       0.38630056 -0.33809182 -0.4047553 0.12823245
000160 5e c8 6a 3e 69 fd a4 3e 57 c9 66 be ad 7a aa be
       0.22927997 0.32224587 -0.22537743 -0.3329672
000170 77 7f 21 3e da 31 b3 3e cb 7d 65 bd 57 03 a8 be
       0.1577128 0.3499897 -0.05602817 -0.32815048
000180 d4 ce 80 bc 39 8e 58 3e 2e 5d 0a 3e 0d e4 94 bd
       -0.015723623 0.21148004 0.13512108 -0.0727006
000190 c8 72 8c 3e af de d3 3d ac 38 c5 3d a2 2c 97 bd
       0.2743132 0.10345208 0.0962995 -0.0738156
0001a0 85 bc b7 be f8 ed 33 be 80 05 9f 3e 09 3d 89 3d
       -0.35886016 -0.17571247 0.31058884 0.06701095
0001b0 fa 5d 19 3d bf de e6 bd 99 6b d4 bc 7e 78 8d 3e
       0.03744314 -0.11272954 -0.025930213 0.2763099
0001c0 3c 99 b6 3e 26 a0 f3 bd 69 b9 52 ba 3f 98 42 3c
       0.35663784 -0.1189578 -0.00080384925 0.011877119
0001d0 0c 24 92 3e 07 f6 b1 3e ec 64 6f bc b2 c2 b7 bc
       0.28543127 0.34758016 -0.014611464 -0.022431705
0001e0 b1 91 67 be 77 f4 00 3e 66 12 c7 3e 11 1f 5a 3d
       -0.2261417 0.12593256 0.38881224 0.053252283
0001f0 c3 a9 62 3e 96 20 95 be d2 2e e1 be a6 82 52 be
       0.22135071 -0.29126424 -0.43981034 -0.20557651
000200 b2 4d 4a 3e 10 f9 c2 3e 78 4f 15 be 91 d3 2b 3e
       0.19756201 0.38080645 -0.14581096 0.16779925
000210 9b 79 cb 3e 0b 71 9c 3e c0 8c e7 3d 04 ab f9 3e
       0.39741215 0.30554995 0.11306143 0.48763287
000220 65 36 df 3e 94 98 14 3e 35 96 9c be ed 2a ca be
       0.43596187 0.14511329 -0.3058335 -0.39485875
000230 5a 9f 1d 3e 8f ec 37 bd 21 70 a9 be 50 5c 9b bd
       0.15392819 -0.044903334 -0.3309336 -0.075859666
000240 3f f4 60 3c 0f f7 93 bd fd 2a e3 bd b1 56 50 bd
       0.013730108 -0.07224857 -0.11092184 -0.050863925
000250 7a c8 0b 3e 28 9d 48 3e 1e 8a 92 be cf 1b 21 bd
       0.13650694 0.195912 -0.28621 -0.03933316
000260 91 d8 88 be 8b 47 65 be d4 83 a6 be 00 7d b8 be
       -0.26727727 -0.22390573 -0.32522452 -0.36032867
000270 9f 6a ae be 7e e2 b0 be 66 ba d3 bd 34 28 58 be
       -0.3406572 -0.345478 -0.10338287 -0.21109086
000280 f7 06 ad be 4d 2a 56 bd 9e e7 5c bd 35 eb 80 3c
       -0.33794376 -0.052286435 -0.053931825 0.015737155
000290 45 bb 34 be 2c a4 8b bc 94 8d 3a bd ce 83 8d 3c
       -0.17649563 -0.017046057 -0.045545176 0.017274763
0002a0 97 8b 8a bd 9c a2 c2 3a 76 12 e5 3d 47 6d 9e 3e
       -0.06764906 0.0014849487 0.11185162 0.30942747
0002b0 03 2a a6 3e 29 37 d0 3e e5 69 14 3f 3c dd e8 3e
       0.32453927 0.40667084 0.5797408 0.45481288
0002c0 68 b8 e6 3e 8d d5 42 3e 5a d9 48 be d9 86 ca bd
       0.45062566 0.19026776 -0.19614163 -0.098890014
0002d0 d7 16 08 3e 17 69 fc 3b 9a 98 be be fe c0 a6 be
       0.13289963 0.0077029574 -0.372258 -0.32569116
0002e0 88 1b d4 be 9b 65 11 3c 35 f3 08 bf 06 dc 08 bf
       -0.41427255 0.008874322 -0.53496104 -0.5346073
0002f0 dd 99 91 be 2c 33 44 be 1b 03 91 be c8 a2 e6 be
       -0.284377 -0.19160146 -0.28322682 -0.45046067
000300 3e 20 8a be e5 0d 9d 3d 46 f8 bd 3e cb 62 82 be
       -0.26977724 0.07668666 0.3710348 -0.25465998
000310 99 68 cd 3d 65 5d b6 3e a4 54 ec 3e 11 6f 2d 3d
       0.10029716 0.3561813 0.46158326 0.04234225
000320 0b 03 02 3e 22 24 b9 bd 3a 0a 37 3e da ab 3e be
       0.12696473 -0.09040095 0.17874995 -0.18620244
000330 3f 76 6f be 88 46 9d 3d 9d 1b 04 3d 63 3a 38 3e
       -0.23384951 0.076794684 0.032252897 0.17991023
000340 51 eb 8c 3e 81 64 9e 3c 19 54 af 3d 50 ff cb 3d
       0.27523282 0.019335033 0.08560962 0.09960806
000350 69 3b d8 3b b8 85 f9 3e 17 ae e5 3e 13 d4 0b 3e
       0.006598879 0.48734832 0.44859383 0.13655119
000360 55 cf 8f 3d 7d 98 82 be f2 20 79 bd 5f 42 f0 3e
       0.07021967 -0.25506964 -0.060822435 0.46925637
000370 b7 79 b0 be a6 82 34 bd 02 8a dc be e6 ab ce be
       -0.3446786 -0.04406991 -0.43074042 -0.40365523
000380 ae a7 2b 3e 9a 61 6a bb 66 eb 5b 3e d0 bf e7 3e
       0.16763183 -0.0035763741 0.21476516 0.4526353
000390 d9 58 cb 3e 1f 10 08 3f 6b b6 92 3c 66 71 0a 3e
       0.39716223 0.531496 0.01790925 0.1351982
0003a0 d5 69 10 3f 88 0a 92 3e 4b 13 ad 3e 48 7f 3e be
       0.56411487 0.2852366 0.33803782 -0.18603241
0003b0 18 e0 84 be e3 29 f9 3c 0c 17 88 3d 64 fe d0 bd
       -0.2595222 0.030415481 0.06645021 -0.10204771
0003c0 3a 43 16 bf e6 fc e4 be 0e 28 cd be fb 43 c7 be
       -0.5869633 -0.44724196 -0.40069622 -0.38919052
0003d0 07 94 a7 be 2f bd b4 be e6 ef 16 bf b4 cb 1c bf
       -0.32730123 -0.35300586 -0.58959806 -0.61248326
0003e0 c3 93 07 bf 69 7f db bd
       -0.5295984 -0.10717661

qconv1.conv_module.bias f4 [10]
000000 b1 8d 6a 3d e7 5c 80 be 1d e4 7f be a7 12 f0 3d
       0.057264034 -0.2507088 -0.24989362 0.11722308
000010 fe e6 f8 bd e9 9e a9 bd c3 f5 89 3e 21 32 91 3e
       -0.12153433 -0.08282263 0.26945314 0.28358558
000020 11 75 f0 bd bd 26 0f bc
       -0.11741079 -0.008737263

qfc.fc_module.weight f4 [10, 1440]
000000 57 f9 b6 3c 12 6c b2 3c ef e9 91 bc 20 df a2 3c
       0.022335691 0.021780048 -0.017811744 0.019881785
000010 e4 4b a0 ba 78 15 c8 bc 3b 0a 4d 3c ca 49 ab bc
       -0.0012229648 -0.0244243 0.012514646 -0.020909209
000020 e3 68 ba 3c 01 0d b7 bc d4 f6 7f 3b a4 c7 c9 3b
       0.022755092 -0.022345068 0.0039057033 0.006157832
000030 e5 ba 24 3a 95 e6 5c 3c e4 49 bc bc 8f ed 18 bd
       0.0006283953 0.013482709 -0.022984453 -0.03733593
000040 90 42 8b bd 1c ce 5a bd d3 10 16 bd 08 88 87 bb
       -0.06799805 -0.053419217 -0.03663714 -0.0041360892
000050 34 5f e7 bc cb 09 fa bc aa 00 b6 bb 92 68 85 bb
       -0.028243639 -0.030522248 -0.0055542784 -0.0040713036
000060 f8 7a 44 bc f8 83 9b bc c4 bf 01 bd 02 c0 ff 3b
       -0.011992209 -0.018983826 -0.031677023 0.0078048715
000070 0e 8c 23 bd f6 7d b8 bc 99 13 67 bc 6d ed b0 bc
       -0.03992849 -0.022521 -0.014103794 -0.021597588
000080 2d 24 d4 3c a8 e7 3e 3c e9 e8 40 3c 8d 87 06 bd
       0.025896156 0.011651911 0.01177428 -0.032844115
000090 1f 72 35 bc 3e e0 1a bc b0 4c d9 bc 3d c7 a3 bc
       -0.011074572 -0.009452878 -0.026525825 -0.019992465
0000a0 ef a4 b9 bb 22 8e cd bc 35 65 f4 bc 2d 90 e0 bc
       -0.0056654136 -0.025092188 -0.029833416 -0.027412498
0000b0 72 eb 52 bc 15 70 04 bc 7c c9 f2 bc 8b 89 a2 3c
       -0.012873517 -0.008083363 -0.02963709 0.019840976
0000c0 ba 68 0d 3c d8 14 9b 3c 3e 7e 94 bc 9f a6 30 bd
       0.008630926 0.018930838 -0.018126603 -0.043127652
0000d0 c9 0d 8b bd 66 6a 3b bd f8 cf a5 3a 1b dc 3f bd
       -0.06789739 -0.045755766 0.001265048 -0.04684077
0000e0 2c ee 21 bd e6 ea 1b bb 85 f6 15 bc 6a f0 1f 3b
       -0.03953378 -0.0023791133 -0.009153013 0.0024404773
0000f0 82 3e 35 bc 21 3e 88 bc 72 42 90 bd b9 d1 bb bd
       -0.011062266 -0.016631188 -0.070439234 -0.09170861
000100 e6 c6 4f bd 7c 34 b5 bd a5 85 b3 bd 26 0c 49 bd
       -0.050726794 -0.08847901 -0.08765725 -0.04908385
000110 36 b8 8a bd de c1 13 bd 3f 63 46 bb 20 fd 62 bb
       -0.06773417 -0.036073558 -0.0030271558 -0.0034635738
000120 fc 07 a4 3c 41 96 14 bd 36 31 91 bd 7c 1e cd bd
       0.020023338 -0.036276106 -0.07089464 -0.1001558
000130 97 12 a2 bd c6 35 5a bd be 65 a0 bd 2f 0e d4 bd
       -0.07913702 -0.05327394 -0.07831906 -0.10354268
000140 bc 92 92 bd ab 1d 2e bd 43 cc 03 bd 64 cd 0f 3d
       -0.071568936 -0.042508762 -0.03217722 0.035107985
000150 a0 5b 99 bc 0f b4 e3 bc ea 41 58 bd e2 9c a2 bd
       -0.018720448 -0.02779582 -0.052797236 -0.07940079
000160 46 72 88 bd 80 6b 95 bd 04 d3 1b bd bc a8 06 bd
       -0.06662421 -0.072958946 -0.038043037 -0.03287576
000170 8c cb b5 bc 1a 9e ba bc a4 45 3d 3c c8 9d ad 3c
       -0.022191785 -0.022780467 0.011552248 0.0211934
000180 c5 64 5a 3c 21 0e 9f bc 2a 41 de bc 7d c4 92 b6
       0.013329689 -0.019415917 -0.027130682 -4.3740133e-06
000190 b9 8f 58 bc 78 0b a6 bc fb 7c 69 bb f3 ef e1 bb
       -0.01321786 -0.02026914 -0.0035627473 -0.0068950593
0001a0 54 3a 2c 39 ed b7 af bc 79 0a 41 bd 5b b6 69 bc
       0.00016424927 -0.021450007 -0.047129128 -0.014264668
0001b0 37 1f 9f 3b e8 8c 05 bc 27 1c 42 bd 5b f8 da bc
       0.004856016 -0.00815127 -0.04739013 -0.026729753
0001c0 00 02 48 3c bf 77 21 3d 91 74 e8 bb b4 dc 01 bc
       0.012207508 0.03942084 -0.007093974 -0.007926155
0001d0 28 81 ec bc fa ef cc b9 d6 12 16 bc c4 15 8c bb
       -0.02887018 -0.0003908871 -0.009159764 -0.0042750556
0001e0 05 85 8c bc e2 48 56 bc 2c a5 89 3d a0 9a 69 3d
       -0.017153272 -0.0130789 0.06720957 0.057032228
0001f0 67 ad 5c 3d a2 c7 ef 3d 9b 54 a3 3d 42 07 a5 3c
       0.053876307 0.11707999 0.079751216 0.020145062
000200 56 30 80 bc 39 15 db bc 8d 18 a0 bc 23 59 27 3c
       -0.015648048 -0.026743518 -0.019542957 0.010214123
000210 c9 9d 12 3b 27 4a ea bc f4 c8 2e 3b b4 13 af bc
       0.002237188 -0.028599812 0.002667007 -0.0213717
000220 30 2c 8f 3c dc e8 db 3c 1e 3a 24 3d c0 46 8f 3c
       0.017477125 0.026844434 0.040094487 0.01748979
000230 5f 32 36 bd 45 25 b2 bc 7b 79 a1 bc 1f 52 e9 bc
       -0.04448163 -0.021746287 -0.019711247 -0.028481541
000240 2f 9a b4 bb 37 54 d0 bc e0 63 9d bc 8c 8f a5 bc
       -0.005511544 -0.025430782 -0.019212663 -0.02021005
000250 d6 d9 57 3c 8e c9 27 bc 4d 71 88 bc 03 bc a1 bc
       0.013174495 -0.0102409255 -0.016655589 -0.019742971
000260 5c bb 89 bc aa a3 07 bd d0 77 e8 bb 4e c6 ae 3b
       -0.016812973 -0.033115067 -0.007094361 0.0053336984
000270 97 ab ab bc 48 b8 94 3c 6a 53 fd bc 33 39 be bc
       -0.020955844 0.018154278 -0.030923564 -0.023220634
000280 77 9b e2 bc ad a8 74 3c be a7 6d bb 4f e2 3e bc
       -0.027662022 0.014932794 -0.0036263312 -0.011650636
000290 ca 12 37 bd 9e b7 c4 bc 83 ca 9f bc 88 91 22 bc
       -0.044695653 -0.024013337 -0.019505745 -0.009922393
0002a0 8b 90 85 3b c9 31 24 bc a2 32 d1 bc d4 3e 19 bd
       0.0040760688 -0.010021635 -0.025536839 -0.037413433
0002b0 87 48 0d bc af 16 98 3c f5 8f a7 3b 1e 98 92 bc
       -0.008623249 0.018565504 0.0051135966 -0.0178948
0002c0 67 25 8a 3c 83 88 0e bd 1c eb 2e 3d 8d be 14 3d
       0.016863538 -0.034798156 0.042704687 0.036314536
0002d0 a2 c4 ac bc 8f d2 6e 3c 67 b3 27 bd 4b 61 67 bc
       -0.021089856 0.014576568 -0.040942576 -0.014122318
0002e0 57 7b 03 3d 47 88 06 3d 39 d4 80 bc c0 92 94 3d
       0.032100048 0.032844808 -0.015726196 0.07254553
0002f0 12 10 5d 3d 43 65 f8 3c 0c b7 b1 3d 40 7a 6d 3d
       0.053970404 0.030321723 0.086774915 0.057977915
000300 50 42 d2 3c 91 b0 40 bc c1 15 b8 3c 08 a3 48 3d
       0.025666386 -0.011760847 0.02247131 0.048983604
000310 96 ce bf 3c d2 f3 e5 bb b6 e9 0a 3d ff 6f fd 3c
       0.023413938 -0.007017591 0.03391429 0.030937193
000320 e5 9c c5 3d c5 4e a8 3d 11 61 10 3e 40 3e b2 3d
       0.09649066 0.08218149 0.14099528 0.087032795
000330 40 dc 6a bb ef df ab 3b 10 d7 11 3d 81 42 92 3d
       -0.0035836846 0.005245201 0.03560549 0.07141591
000340 25 2b ac 3d fa 5d 8f 3d c7 27 87 3d 92 77 f9 bc
       0.08406667 0.070003465 0.06599384 -0.030452523
000350 34 f9 8c 3d 07 30 d1 3d 64 86 07 3e 28 70 f6 3d
       0.06883469 0.102142386 0.1323486 0.12033111
000360 26 66 d5 bc ab 9b 64 3c 4f e4 cd 3d 3d 7e d1 3d
       -0.026049685 0.01395313 0.10053312 0.10229156
000370 ab c3 d7 3d a7 c4 00 3e e5 e8 f5 3c d6 d1 26 bd
       0.105353676 0.12575017 0.03001828 -0.04072746
000380 55 21 92 3d 33 60 01 3d f0 bb 14 3d 94 f6 0b 3e
       0.07135264 0.031585883 0.036312044 0.13668281
000390 53 a4 1d 3c d1 19 e1 3c c5 fb a2 3d a4 6a eb 3d
       0.0096216975 0.02747813 0.079581775 0.114949495
0003a0 cd 38 01 3e 97 e7 dc 3d 37 2e 41 bd 71 00 7b 3c
       0.12619324 0.1078636 -0.047163215 0.015319929
0003b0 99 cb 52 3d d8 5f 14 3c e5 49 36 3c d9 2b be 3d
       0.051463697 0.009056054 0.011126016 0.09285707
0003c0 67 5e b0 bc d8 91 35 b9 77 d5 50 3d 11 b0 d8 3d
       -0.02152939 -0.00017315836 0.050984826 0.10580457
0003d0 60 85 cd 3d b9 1e 8c 3d fd e3 1e bd 60 68 2a bd
       0.10035205 0.068417974 -0.038791645 -0.041603446
0003e0 a7 2f d5 3c 21 e6 b1 bc 9e 03 5b ba 76 57 1b 3d
       0.026023699 -0.02171618 -0.0008354726 0.037925206
0003f0 92 58 a3 bc eb f8 99 3c 5a f2 62 3d c1 23 b7 3d
       -0.019939695 0.018795451 0.055406906 0.089423664

qfc.fc_module.bias f4 [10]
000000 43 6b d1 bc b3 86 66 3d bc 24 b0 3c 88 ba 94 bd
       -0.025563842 0.056280803 0.021501891 -0.072621405
000010 3c 19 33 38 f9 b5 c1 3d 5e 24 0e bd ed e6 6c 3d
       4.2700427e-05 0.09458537 -0.03470265 0.057837415
000020 71 7a bb bd fd 1f 27 bd
       -0.09154213 -0.04080199
