ckpt/mnist_cnn_qat.pt (torch, 59600 bytes, 12 tensors)

conv1.weight f4 [40, 1, 3, 3]
0.17986517 -0.15257639 -0.067131504 0.14641978 -0.33285868 0.20557144 -0.08448671 0.15578479
0.05483564 -0.04382976 0.08901191 0.014133345 0.11903526 -0.13026382 -0.024234157 -0.028892802
0.049263623 -0.0025728743 0.29433405 0.12843525 -0.088193975 -0.23616208 -0.100475505 -0.18931577
-0.08156555 0.048423324 0.22515874 0.30772164 -0.16985041 0.32661593 0.27440035 0.50972545
0.33298692 -0.40831605 -0.44891566 -0.31236628 0.33578086 0.13348472 0.3231876 0.049491324
0.5129894 -0.15722814 0.5036043 0.032175705 -0.3447889 0.23400211 -0.19589768 0.06777658
-0.07747824 -0.055781137 -0.3289087 -0.17198409 0.14818415 -0.10983271 0.37504625 0.3195579
0.0047254893 -0.21335824 0.2524907 0.15123199 -0.23061788 0.25552642 0.2584065 0.29859805
-0.18421423 -0.052684154 0.00934947 0.07117455 -0.24881384 -0.22828457 0.20653959 -0.06235635
0.19003707 0.04724374 0.13837367 0.09566283 0.14719182 0.19201232 -0.31464386 0.16446936
-0.22872014 -0.24126478 0.027623594 -0.0550714 0.20220713 -0.19324295 -0.29968828 0.23936674
-0.059068304 0.17942122 0.31488347 -0.41150463 -0.13514668 0.449609 -0.3296823 -0.3682289
0.48980644 0.22187637 -0.18364757 0.01919869 0.3537935 -0.37210563 0.15843678 0.3063469
-0.38671765 -0.37750024 0.47281858 0.013199247 0.30945933 0.22308515 0.30031836 0.42422375
0.5699429 -0.034443386 0.25352612 0.49240917 0.42334464 0.23095603 -0.22716573 -0.22707486
-0.18327051 0.04883132 0.3023056 -0.20986918 0.15093362 -0.22778772 -0.32174328 -0.07657915
0.19087087 0.34437197 -0.17750987 0.08412916 0.35139093 0.27450275 0.22117953 0.30517703
0.26623756 0.120886855 -0.19678453 -0.2758705 -0.16394918 -0.032830887 -0.20978934 0.10191216
0.12505949 0.017057864 0.2488788 0.19008556 0.35206062 0.39854094 -0.061275665 0.440803
0.07288846 -0.02664977 -0.33389494 -0.2314154 -0.21337731 -0.15709789 0.2531038 -0.12762995
-0.2487601 0.16893876 0.18438904 0.4678604 0.35078442 -0.13494009 0.09937197 0.3614122
-0.6621965 -0.4362581 -0.31907463 0.44278005 0.2700041 0.32238054 0.6115319 0.67816114
0.6372814 -0.04915457 -0.11038709 0.51027364 -0.09135131 -0.031835407 -0.30288872 -0.06854543
-0.21551788 0.2872772 -0.2892018 -0.2666392 -0.042705946 -0.1825353 0.15245056 -0.069431454
-0.19623119 0.03128383 0.3076039 -0.24841908 0.20998038 0.28856254 0.41990232 -0.18253039
-0.022682907 -0.13539882 0.39217064 -0.18603982 0.26194885 0.13741648 -0.0033142606 0.14043008
0.13498811 0.112148255 0.2304551 0.24129294 -0.3073192 0.39638424 0.46090496 0.32577547
0.24840023 -0.23600712 -0.1182961 0.29694632 -0.24578178 0.31480655 -0.2654365 -0.23566607
0.16614735 -0.23349987 -0.061676532 0.26579297 0.29113942 0.35866717 -0.029955512 -0.23844741
0.3522993 -0.056847747 0.0035841595 0.0902654 -0.34375966 0.31766286 0.33368874 -0.25329962
-0.2973376 0.09113518 0.29943594 -0.023571549 -0.1802282 -0.013481957 -0.3313589 -0.26429617
-0.24732742 0.2993671 0.2878032 -0.13368817 -0.35590452 0.015585756 0.40616795 -0.5703497
00000000: 932e 383e fc3c 1cbe 3e7c 89bd 11ef 153e
00000010: 746c aabe 5281 523e 5e07 adbd 0c86 1f3e
00000020: 569b 603d d686 33bd e04b b63d 8c8f 673c
00000030: c2c8 f33d e163 05be b686 c6bc 99b0 ecbc
00000040: a7c8 493d ab9d 28bb f4b2 963e 8884 033e
00000050: 0b9f b4bd 79d4 71be 1ac6 cdbd fedb 41be
00000060: d70b a7bd 8957 463d 0390 663e b18d 9d3e
00000070: 44ed 2dbe 343a a73e 347e 8c3e 5e7d 023f
00000080: 437d aa3e cd0e d1be 46d8 e5be 79ee 9fbe
00000090: 78eb ab3e 38b0 083e d878 a53e 6ab7 4a3d
000000a0: 4653 033f 6a00 21be 36ec 003f acca 033d
000000b0: 2c88 b0be 409e 6f3e 6799 48be 73ce 8a3d
000000c0: e9ac 9ebd c37a 64bd b966 a8be 991c 30be
000000d0: 96bd 173e f9ef e0bd 1006 c03e 189d a33e
000000e0: 47d8 9a3b 957a 5abe 7646 813e 8fdc 1a3e
000000f0: 1827 6cbe 5cd4 823e db4d 843e d8e1 983e
00000100: a8a2 3cbe 57cb 57bd 852e 193c f6c3 913d
00000110: 0ec9 7ebe 6ec3 69be 1d7f 533e 5f69 7fbd
00000120: 1499 423e a782 413d d4b1 0d3e e0ea c33d
00000130: 74b9 163e e19e 443e 0019 a1be a86a 283e
00000140: 9d35 6abe 1d0e 77be e04a e23c 8c92 61bd
00000150: 630f 4f3e 7be1 45be be70 99be 8e1c 753e
00000160: 9bf1 71bd 32ba 373e 6838 a13e bcb0 d2be
00000170: e463 0abe 2733 e63e 1ecc a8be 8088 bcbe
00000180: e9c7 fa3e 8f33 633e 1c0e 3cbe 9246 9d3c
00000190: 6c24 b53e a184 bebe 403d 223e 80d9 9c3e
000001a0: dbff c5be b647 c1be 4715 f23e a841 583c
000001b0: 7471 9e3e 6f70 643e 54c3 993e db33 d93e
000001c0: c7e7 113f 8214 0dbd 2dce 813e 0e1d fc3e
000001d0: a1c0 d83e bd7f 6c3e 229e 68be 5086 68be
000001e0: 44ab 3bbe 5a03 483d cdc7 9a3e f2e7 56be
000001f0: 588e 1a3e 2f41 69be 89bb a4be 88d5 9cbd
00000200: a773 433e 8651 b03e 26c5 35be e94b ac3d
00000210: 83e9 b33e a08b 8c3e e37c 623e 2a40 9c3e
00000220: 4a50 883e 8793 f73d e281 49be e63e 8dbe
00000230: 4be2 27be ae79 06bd 04d3 56be 53b7 d03d
00000240: 980f 003e efbc 8b3c 16da 7e3e caa5 423e
00000250: 4a41 b43e 8f0d cc3e 31fc 7abd eeb0 e13e
00000260: 8b46 953d 9e50 dabc 47f4 aabe 29f8 6cbe
00000270: 957f 5abe 45de 20be d296 813e 6db1 02be
00000280: f8ba 7ebe 48fe 2c3e 7bd0 3c3e 668b ef3e
00000290: 049a b33e bc2d 0abe 8883 cb3d 050b b93e
000002a0: b685 29bf 395d dfbe c05d a3be 11b4 e23e
000002b0: fa3d 8a3e 100f a53e 5b8d 1c3f f89b 2d3f
000002c0: e024 233f 4d56 49bd a012 e2bd 4ba1 023f
000002d0: 6516 bbbd d865 02bd 3b14 9bbe 8c61 8cbd
000002e0: b8b0 5cbe ff15 933e 4212 94be ef84 88be
000002f0: 6eec 2ebd 89ea 3abe 001c 1c3e 1432 8ebd
00000300: d4f0 48be 7923 003d 427e 9d3e 9261 7ebe
00000310: 1905 573e 78be 933e 70fd d63e 3fe9 3abe
00000320: 81d1 b9bc fda5 0abe 97ca c83e 3981 3ebe
00000330: 291e 863e e8b6 0c3e 1134 59bb e7cc 0f3e
00000340: 533a 0a3e fcad e53d 6cfc 6b3e 7f15 773e
00000350: f158 9dbe e0f2 ca3e bcfb eb3e 0bcc a63e
00000360: a15c 7e3e daab 71be 3a45 f2bd 5909 983e
00000370: 38ae 7bbe 532e a13e 4be7 87be 7252 71be
00000380: 8822 2a3e 971a 6fbe 88a0 7cbd 0416 883e
00000390: 3a10 953e 39a3 b73e 4365 f5bc 8f2b 74be
000003a0: 9360 b43e 2fd9 68bd 38e4 6a3b 11dd b83d
000003b0: 4401 b0be b5a4 a23e 40d9 aa3e 7db0 81be
000003c0: a23c 98be 15a5 ba3d ab4f 993e 1f19 c1bc
000003d0: be8d 38be 6de3 5cbc e0a7 a9be d451 87be
000003e0: 6643 7dbe a546 993e f15a 933e 8de5 08be
000003f0: 1e39 b6be 665b 7f3c 3ff5 cf3e 7002 12bf

conv1.bias f4 [40]
-0.17947423 -0.32786196 0.1757777 -0.03477423 0.16803145 0.033954166 -0.29593393 -0.16424373
0.1054045 -0.07518039 -0.23533216 0.062955834 0.018829789 -0.121785924 0.14947437 0.08016914
-0.07687719 0.34071827 -0.03437751 0.16566727 -0.061569754 -0.25346363 0.238179 -0.0206838
-0.21209137 0.21100834 0.11908802 0.101233475 0.018970141 -0.036200523 0.11239838 0.22426853
0.0519782 -0.15252109 0.32308218 0.0074830186 0.28768426 0.103386804 0.30857632 0.23498127
00000000: 18c8 37be 86dd a7be 12ff 333e 6c6f 0ebd
00000010: 7010 2c3e 8613 0b3d a784 97be 822f 28be
00000020: 51de d73d 2df8 99bd eafa 70be fdee 803d
00000030: ee40 9a3c e66a f9bd cf0f 193e b82f a43d
00000040: ca71 9dbd a072 ae3e 6fcf 0cbd aea4 293e
00000050: 9130 7cbd fcc5 81be 32e5 733e 1371 a9bc
00000060: 7b2e 59be 9212 583e 6be4 f33d 7f53 cf3d
00000070: 4567 9b3c 0047 14bd 1f31 e63d a6a6 653e
00000080: 18e7 543d 7d2e 1cbe 076b a53e 1c34 f53b
00000090: 5a4b 933e 76bc d33d b7fd 9d3e ee9e 703e

conv2.weight f4 [40, 2, 3, 3]
-0.120043494 0.16836147 -0.00023438854 -0.19910067 -0.058174215 -0.21428996 -0.13433631 -0.17132068
0.14082251 -0.04951265 -0.0406908 0.112858936 0.095800035 -0.15573451 0.086573 0.09991693
-0.18772364 0.20470108 -0.14510968 -0.0980567 -0.19519292 0.21353057 0.047348935 0.2027723
0.019666826 0.13398632 -0.07360118 -0.18800198 0.037608963 -0.021147585 -0.024098534 -0.115731485
0.0048289285 0.06764274 0.08509272 -0.18975134 0.08680816 0.04148883 0.19247954 0.19825464
-0.13794726 0.21593468 -0.18514569 0.17776726 0.08212436 0.069677904 -0.1621982 0.054385588
-0.15149575 -0.26820135 0.07969758 0.44654638 0.54318607 0.24327376 0.26346216 0.20070124
-0.083370894 -0.1707879 0.13941711 -0.12627299 0.115766145 -0.20601593 0.16458319 0.17633078
0.05995642 0.1675567 -0.17904179 -0.0611565 -0.0073037744 -0.13615315 -0.068519875 -0.10399089
0.41771856 0.3023196 0.15277193 0.46153316 -0.28574857 -0.103007294 0.13931815 -0.34246242
-0.10767895 -0.1419928 0.060494654 0.09303001 0.2335098 -0.06544617 -0.17742257 0.28599054
0.13156225 0.113581665 0.11516004 -0.05729487 0.20613337 -0.16950504 0.13101682 0.18355006
0.25281122 -0.026725097 -0.1385487 0.08695134 -0.18658572 -0.19626632 -0.21403474 -0.11821229
-0.03377542 -0.13886088 -0.08374522 -0.19094777 0.20903875 -0.04210432 -0.1515742 0.12817766
-0.17804168 0.15601015 0.19896302 -0.22809426 -0.1837165 -0.15528238 -0.12507519 0.034436848
-0.23057812 -0.17270787 0.104759775 -0.078439966 -0.08903574 -0.19580336 0.21596181 0.13458258
-0.11193655 -0.101874284 0.17657104 0.117926486 0.11586534 0.13712326 0.046156593 -0.18029433
0.16390802 0.0055740895 -0.16132894 0.20281427 0.14356503 -0.18614468 -0.1176651 -0.07788551
-0.13101299 0.12264177 -0.15467384 0.236735 -0.070182875 0.16198815 0.028812194 -0.07330955
0.18716128 -0.1764822 -0.12263218 0.033509836 0.1891612 -0.10243654 -0.14016148 -0.15381724
-0.10884068 -0.08537508 -0.06308542 -0.1386967 0.06275271 -0.0033438879 -0.15434322 -0.14419949
0.08226615 0.044793483 0.21505356 -0.03329528 -0.18600811 -0.17064665 -0.060150422 -0.032598127
0.059984438 -0.053932752 0.08520084 -0.073611364 0.28679794 0.07294253 -0.10128839 0.36502334
0.22678679 -0.1678737 -0.030024294 0.37842512 0.1336865 0.29178035 -0.045449346 0.17848787
0.2952419 0.06281322 -0.08953245 0.38392317 0.11974952 -0.09417641 0.13181588 0.42035747
0.1815956 0.031426743 0.4228877 0.25012597 -0.14383332 -0.16399415 0.3218988 0.39367816
-0.07171491 0.0569987 0.12240076 0.1010992 -0.029991623 0.015866837 0.15700395 0.30053875
0.028399851 0.12291614 0.17484887 0.1321136 0.22389534 -0.11029057 0.15596701 0.1714454
0.099455364 0.2287494 -0.04376412 0.17552997 -0.07167247 0.18034625 0.15204173 -0.10079406
-0.028702503 -0.14462161 -0.1690628 -0.08043184 -0.28286314 -0.26348707 -0.3308914 -0.3189503
-0.028409643 0.22458872 0.741329 0.1912848 0.14874627 0.092206195 -0.18155074 0.2216058
-0.19054124 -0.06482309 -0.12585348 0.13185333 -0.19624487 -0.11623181 -0.14976048 -0.14502048
00000000: 5dd9 f5bd f366 2c3e 32c6 75b9 0ce1 4bbe
00000010: 1648 6ebd d46e 5bbe 758f 09be b06e 2fbe
00000020: c733 103e c7cd 4abd 65ab 26bd 9622 e73d
00000030: cf32 c43d de78 1fbe 2f4d b13d 3fa1 cc3d
00000040: a03a 40be 299d 513e a297 14be f3d1 c8bd
00000050: a7e0 47be c2a7 5a3e f5f0 413d 8ba3 4f3e
00000060: 531c a13c b633 093e 37bc 96bd 9783 40be
00000070: db0b 1a3d b33d adbc 4a6a c5bc a104 edbd
00000080: fd3b 9e3b 4788 8a3d 1845 ae3d 2d4e 42be
00000090: 7ac8 b13d 31f0 293d 5b19 453e 4403 4b3e
000000a0: 0c42 0dbe fb1d 5d3e d596 3dbe 9f08 363e
000000b0: d130 a83d 4ab3 8e3d 4917 26be 6cc3 5e3d
000000c0: b421 1bbe b051 89be 7c38 a33d baa1 e43e
000000d0: 3e0e 0b3f c21c 793e 83e4 863e a084 4d3e
000000e0: 5cbe aabd 06e3 2ebe 5cc3 0e3e b54d 01be
000000f0: cd16 ed3d d7f5 52be 7f88 283e 0e90 343e
00000100: dd94 753d fc93 2b3e bb56 37be 3d7f 7abd
00000110: 8054 efbb bb6b 0bbe 2654 8cbd 2df9 d4bd
00000120: 35df d53e a2c9 9a3e 3f70 1c3e 134e ec3e
00000130: a34d 92be 7df5 d2bd 6ba9 0e3e 3c57 afbe
00000140: c886 dcbd 9066 11be 3ec9 773d 8586 be3d
00000150: 311d 6f3e a408 86bd 43ae 35be 5a6d 923e
00000160: 41b8 063e 819d e83d 07d9 eb3d 07ae 6abd
00000170: a014 533e bb92 2dbe 4629 063e 8cf4 3b3e
00000180: 7970 813e 97ee dabc b6df 0dbe 8b13 b23d
00000190: 5410 3fbe 0afa 48be ec2b 5bbe 4919 f2bd
000001a0: 1858 0abd 8c31 0ebe 9d82 abbd d087 43be
000001b0: 410e 563e 9475 2cbd 4436 1bbe 0141 033e
000001c0: 8f50 36be 20c1 1f3e f6bc 4b3e 8b91 69be
000001d0: 2e20 3cbe 5802 1fbe b613 00be a70d 0d3d
000001e0: ac1c 6cbe 55da 30be 4b8c d63d 22a5 a0bd
000001f0: 5f58 b6bd ad80 48be 1825 5d3e 04d0 093e
00000200: fd3e e5bd 77a3 d0bd 0acf 343e 7183 f13d
00000210: cf4a ed3d 0a6a 0c3e b20e 3d3d 149f 38be
00000220: 81d7 273e daa6 b63b 6a33 25be 8bae 4f3e
00000230: b602 133e b69c 3ebe 66fa f0bd 7082 9fbd
00000240: 4528 06be 9c2b fb3d d262 1ebe a96a 723e
00000250: 0abc 8fbd 39e0 253e 8d07 ec3c 5123 96bd
00000260: 35a7 3f3e c0b7 34be 9526 fbbd 9c41 093d
00000270: 79b3 413e 40ca d1bd 7e86 0fbe 4482 1dbe
00000280: dde7 debd 21d9 aebd ee32 81bd 8206 0ebe
00000290: 7e84 803d 2125 5bbb 260c 1ebe 08a9 13be
000002a0: 287b a83d 5f79 373d 0037 5c3e a260 08bd
000002b0: e978 3ebe ffbd 2ebe 4a60 76bd 9d85 05bd
000002c0: 3eb2 753d 97e8 5cbd c77d ae3d 8ec1 96bd
000002d0: 2ed7 923e e562 953d 4a70 cfbd 57e4 ba3e
000002e0: cc3a 683e 15e7 2bbe 82f5 f5bc f0c0 c13e
000002f0: 1de5 083e 3c64 953e 1829 3abd 86c5 363e
00000300: f229 973e 38a4 803d ca5c b7bd 9491 c43e
00000310: 3d3f f53d 90df c0bd befa 063e 1839 d73e
00000320: 32f4 393e 54b9 003d bd84 d83e 8310 803e
00000330: 0b49 13be 15ee 27be ebcf a43e 2f90 c93e
00000340: 44df 92bd 7877 693d 40ad fa3d 190d cf3d
00000350: feb0 f5bc 2bfb 813c a5c5 203e 37e0 993e
00000360: cea6 e83c 75bb fb3d 950b 333e ca48 073e
00000370: d244 653e 06e0 e1bd d1b5 1f3e 628f 2f3e
00000380: 41af cb3d 483d 6a3e 0242 33bd 21be 333e
00000390: 04c9 92bd b0ac 383e d4b0 1b3e 1e6d cebd
000003a0: 8321 ebbc b017 14be cc1e 2dbe 73b9 a4bd
000003b0: 70d3 90be c7e7 86be 996a a9be 744d a3be
000003c0: 57bb e8bc 96fa 653e bdc7 3d3f 2ae0 433e
000003d0: f150 183e 9ad6 bc3d 70e8 39be a1ec 623e
000003e0: 3e1d 43be f8c1 84bd bcdf 00be 8f04 073e
000003f0: 6af4 48be f10a eebd d05a 19be 4080 14be

conv2.bias f4 [40]
0.18252389 0.19811222 0.119109355 0.10080881 -0.079277396 -0.033554852 -0.10361447 0.040492598
-0.15315755 0.09974384 0.09115103 0.1173516 -0.35752016 0.33512118 -0.15004365 0.02949562
0.31478038 0.15723051 -0.014842623 -0.0976068 -0.2113859 0.20357879 0.21405464 -0.048964884
0.06378473 -0.038592845 -0.13232282 -0.08434946 -0.08089667 -0.2704634 -0.2318297 0.070009306
-0.13616607 -0.11649751 0.021759095 -0.11111321 0.22414047 -0.031225521 -0.069086246 -0.075199604
00000000: 8be7 3a3e eedd 4a3e 9bef f33d d974 ce3d
00000010: 305c a2bd d070 09bd d333 d4bd 91db 253d
00000020: 55d5 1cbe 8046 cc3d 64ad ba3d 0956 f03d
00000030: e20c b7be 0195 ab3e 0ba5 19be cca0 f13c
00000040: e52a a13e 0901 213e 792e 73bc 13e6 c7bd
00000050: 8c75 58be f576 503e 2431 5b3e 678f 48bd
00000060: 92a1 823d 8813 1ebd a27f 07be 69bf acbd
00000070: 27ad a5bd 2e7a 8abe c464 6dbe 0a61 8f3d
00000080: 1e6f 0bbe 3f96 eebd 2140 b23c 538f e3bd
00000090: 1485 653e aacc ffbc 177d 8dbd 4002 9abd

fc.weight f4 [10, 1000]
-0.025634352 0.016224854 0.026332235 -0.021709803 -0.013114199 0.0303232 -0.024942733 0.0031269288
-0.026934877 -0.028328823 5.6597135e-05 -0.028798051 0.0144961 -0.0054069073 0.005309828 -0.01938018
0.011385095 0.027956305 -0.0034645838 -0.018945016 -0.031341642 0.02963786 0.013010555 0.011337953
0.0060068937 0.014341663 0.009936906 0.01601888 0.021637851 0.006483338 0.028648976 0.021804692
-0.0033641872 -0.020383602 0.004336712 0.028819244 0.021676926 -0.023478907 -0.01633016 0.010677661
0.0076793097 0.025996506 0.019779116 0.014066235 0.008027665 -0.032387182 -0.010098931 0.008664559
-0.020880278 -0.031412758 0.009438648 0.00847963 -0.07534473 -0.01913245 -3.7965357e-05 0.013296191
0.0051404787 -0.05359865 -0.03315734 -0.05804349 -0.004036941 -0.0475168 -0.06492817 -0.07289049
0.01679825 -0.028474534 -0.022060094 -0.021215597 -0.01870602 -0.01845024 0.007342194 -0.011024882
0.046203874 -0.031497706 0.0043442547 -0.009940084 -0.006347527 -0.0061463155 0.003087267 -0.009658688
0.0050062747 -0.02145431 0.0071387244 -0.034750715 -0.019959275 -0.025862178 0.024577554 0.015626961
-0.039594207 -0.036873464 0.024516514 -0.012498974 0.0020948118 -0.042689335 -0.010853705 0.023229137
-0.0034828433 0.0050670635 0.038689617 0.024923798 0.006226059 -0.01794594 -0.06260208 -0.07360749
-0.069178835 -0.012258611 0.020457963 -0.026012007 -0.0027105643 -0.031822097 -0.008158566 0.078602955
0.12284123 0.04813361 -0.023915684 -0.006007452 0.05889931 0.023962354 -0.101166986 0.013713846
-0.0052442667 -0.022389531 0.009581442 -0.0015140891 0.07375855 0.004183903 0.020773934 0.022204496
-0.007528098 0.0021570825 0.021792319 0.016738921 0.014680888 0.0005093982 -0.0030113137 0.021886628
-0.018074498 0.020208409 0.011191395 -0.012140891 -0.0028718563 0.018022822 -0.005443135 0.019639717
0.017959263 0.0019665682 -0.020971732 0.03909153 -0.012106473 0.019297386 -0.0097611565 -0.02893268
0.0011023931 0.017751051 0.004233379 -0.0008863964 -0.00323625 0.02100002 -0.004257188 -0.0140585685
-0.022541512 0.008453037 0.024907354 0.027635386 0.004150128 0.02430786 -0.01438341 -0.0071098446
-0.012637724 -0.033047915 -0.009382431 0.0063394154 -0.032585964 0.0025172986 -0.03739744 0.021823283
0.01168017 0.0051852833 -0.02460845 0.021625636 -0.015244491 0.018239547 -0.029157028 0.031557076
0.043088026 -0.008859906 -0.01834455 -0.014921358 0.022585234 0.03864514 0.036040723 0.006981094
-0.02777659 -0.054472934 -0.008738145 0.0050391075 0.008722408 0.020207766 -0.044273846 -0.025567152
0.004768451 0.02048533 -0.017354203 0.021692563 0.02867878 -0.010396482 0.02056993 0.024213286
0.04064547 -0.0024956681 -0.020077437 -0.016069219 -0.030237818 -0.0002483433 0.030183764 0.03002691
0.017785443 -0.004651841 -0.0064616157 0.021006731 0.018956792 0.010844371 -0.0049423035 0.009447584
-0.0017077955 -0.025321519 -0.020386068 0.019512873 0.022516483 -0.012789952 -0.0082842875 -0.01633999
-0.016250981 0.0228577 -0.032263122 0.01751377 -0.03242827 -0.03194444 -0.007868496 0.0019488798
-0.010235273 -0.021026086 -0.007867059 -0.0008579987 -0.018674944 -0.022449635 0.022886982 -0.017238932
-0.027356204 0.021302978 0.0043941624 -0.008004042 -0.03095175 -0.00023847575 0.005035037 -0.028642215
00000000: 22ff d1bc fce9 843c b3b6 d73c c2d8 b1bc
00000010: f0dc 56bc 5c68 f83c b454 ccbc 29ed 4c3b
00000020: 88a6 dcbc d911 e8bc b662 6d38 e4e9 ebbc
00000030: 0d81 6d3c 6d2c b1bb 11fe ad3b 2fc3 9ebc
00000040: 8d88 3a3c 9f04 e53c 120e 63bb 9432 9bbc
00000050: 1860 00bd 19cb f23c 392a 553c d2c2 393c
00000060: 7ad5 c43b 4bf9 6a3c 68ce 223c 073a 833c
00000070: dd41 b13c 2e72 d43b 42b1 ea3c c19f b23c
00000080: b279 5cbb 83fb a6bc fa1a 8e3b 5616 ec3c
00000090: cf93 b13c d656 c0bc d4c6 85bc 5bf1 2e3c
000000a0: b8a2 fb3b a0f6 d43c d007 a23c 1176 663c
000000b0: 7886 033c 6ca8 04bd fd75 25bc cbf5 0d3c
000000c0: 1e0d abbc aaaa 00bd 8fa4 1a3c 25ee 0a3c
000000d0: 564e 9abd a8bb 9cbc fe3c 1fb8 44d8 593c
000000e0: 7671 a83b 428a 5bbd fecf 07bd 03bf 6dbd
000000f0: 5148 84bb faa0 42bd 0ff9 84bd 9c47 95bd
00000100: 7c9c 893c 6d43 e9bc 5fb7 b4bc 55cc adbc
00000110: 5e3d 99bc f524 97bc ca96 f03b b5a1 34bc
00000120: 4640 3d3d bd03 01bd 405a 8e3b bcdb 22bc
00000130: eafe cfbb 0867 c9bb bf53 4a3b 793f 1ebc
00000140: ad0b a43b f3c0 afbc f6eb e93b c456 0ebd
00000150: a281 a3bc ebdc d3bc de56 c93c 1d04 803c
00000160: 892d 22bd a108 17bd dbd6 c83c 7fc8 4cbc
00000170: 1c49 093b 03db 2ebd bdd3 31bc 084b be3c
00000180: 6a40 64bb 9c09 a63b 0179 1e3d fe2c cc3c
00000190: f803 cc3b 5d03 93bc 8535 80bd 86bf 96bd
000001a0: a2ad 8dbd 57d8 48bc 7597 a73c 2217 d5bc
000001b0: b9a3 31bb e357 02bd 82ab 05bc 96fa a03d
000001c0: 2f94 fb3d c027 453d d3ea c3bc 29da c4bb
000001d0: 6740 713d b34c c43c a330 cfbd 0ab0 603c
000001e0: 19d8 abbb 406a b7bc 7bfb 1c3c 6674 c6ba
000001f0: b90e 973d 1f19 893b 192e aa3c 34e6 b53c
00000200: 43ae f6bb d75d 0d3b ce85 b23c 1020 893c
00000210: 1b88 703c 2289 053a 7659 45bb 964b b33c
00000220: f810 94bc 1b8c a53c 1d5c 373c 96ea 46bc
00000230: c135 3cbb 99a4 933c 535c b2bb 79e3 a03c
00000240: 4e1f 933c 8ae1 003b e9cc abbc 711e 203d
00000250: 3a5a 46bc 8d15 9e3c 42ed 1fbc 3a04 edbc
00000260: 2d7e 903a a76a 913c 28b8 8a3b 0e5d 68ba
00000270: 4417 54bb 3c08 ac3c e27f 8bbb e955 66bc
00000280: faa8 b8bc 9b7e 0a3c 820a cc3c 9b63 e23c
00000290: ccfd 873b 4721 c73c 65a8 6bbc b3f9 e8bb
000002a0: 750e 4fbc 405d 07bd c5b8 19bc dfba cf3b
000002b0: dc78 05bd 43f9 243b 0f2e 19bd bec6 b23c
000002c0: 2f5e 3f3c 4fe9 a93b a997 c9bc 3f28 b13c
000002d0: 08c4 79bc 1a6b 953c b8da eebc fe41 013d
000002e0: 127d 303d 2429 11bc 4f47 96bc b678 74bc
000002f0: ab04 b93c 5e4a 1e3d 709f 133d a9c1 e43b
00000300: bb8b e3bc 031f 5fbd 702a 0fbc 191f a53b
00000310: 6ee8 0e3c c28a a53c 7e58 35bd 3472 d1bc
00000320: ab40 9c3b dad0 a73c 672a 8ebc 9ab4 b13c
00000330: c3ef ea3c 0256 2abc 4582 a83c f15a c63c
00000340: dd7b 263d 5d8e 23bb 7079 a4bc 98a3 83bc
00000350: 4db5 f7bc 1334 82b9 f143 f73c fffa f53c
00000360: c7b2 913c 786e 98bb f6bb d3bb 4f16 ac3c
00000370: 464b 9b3c 97ac 313c 0cf3 a1bb 0aca 1a3c
00000380: 1cd8 dfba 136f cfbc af00 a7bc 76d9 9f3c
00000390: 7d74 b83c f28c 51bc d2ba 07bc 71db 85bc
000003a0: c720 85bc 1240 bb3c 5626 04bd 0a79 8f3c
000003b0: 81d3 04bd 2cd8 02bd ddea 00bc 8e71 ff3a
000003c0: d9b1 27bc e63e acbc d6e4 00bc 51eb 60ba
000003d0: 32fc 98bc 4ce8 b7bc 7b7d bb3c a938 8dbc
000003e0: 1e1a e0bc 9583 ae3c e8fc 8f3b 6323 03bc
000003f0: 868e fdbc 590f 7ab9 f4fc a43b 14a3 eabc

fc.bias f4 [10]
0.016197408 0.045708198 0.04064761 -0.06470359 -0.029827831 0.023672447 0.019203931 0.03943441
-0.081666276 -0.011214135
00000000: 6db0 843c 8538 3b3d 1c7e 263d 5183 84bd
00000010: 7f59 f4bc b8ec c13c 9051 9d3c fa85 213d
00000020: a640 a7bd 7ebb 37bc

qconv1.conv_module.weight f4 [40, 1, 3, 3]
0.17986517 -0.15257639 -0.067131504 0.14641978 -0.33285868 0.20557144 -0.08448671 0.15578479
0.05483564 -0.04382976 0.08901191 0.014133345 0.11903526 -0.13026382 -0.024234157 -0.028892802
0.049263623 -0.0025728743 0.29433405 0.12843525 -0.088193975 -0.23616208 -0.100475505 -0.18931577
-0.08156555 0.048423324 0.22515874 0.30772164 -0.16985041 0.32661593 0.27440035 0.50972545
0.33298692 -0.40831605 -0.44891566 -0.31236628 0.33578086 0.13348472 0.3231876 0.049491324
0.5129894 -0.15722814 0.5036043 0.032175705 -0.3447889 0.23400211 -0.19589768 0.06777658
-0.07747824 -0.055781137 -0.3289087 -0.17198409 0.14818415 -0.10983271 0.37504625 0.3195579
0.0047254893 -0.21335824 0.2524907 0.15123199 -0.23061788 0.25552642 0.2584065 0.29859805
-0.18421423 -0.052684154 0.00934947 0.07117455 -0.24881384 -0.22828457 0.20653959 -0.06235635
0.19003707 0.04724374 0.13837367 0.09566283 0.14719182 0.19201232 -0.31464386 0.16446936
-0.22872014 -0.24126478 0.027623594 -0.0550714 0.20220713 -0.19324295 -0.29968828 0.23936674
-0.059068304 0.17942122 0.31488347 -0.41150463 -0.13514668 0.449609 -0.3296823 -0.3682289
0.48980644 0.22187637 -0.18364757 0.01919869 0.3537935 -0.37210563 0.15843678 0.3063469
-0.38671765 -0.37750024 0.47281858 0.013199247 0.30945933 0.22308515 0.30031836 0.42422375
0.5699429 -0.034443386 0.25352612 0.49240917 0.42334464 0.23095603 -0.22716573 -0.22707486
-0.18327051 0.04883132 0.3023056 -0.20986918 0.15093362 -0.22778772 -0.32174328 -0.07657915
0.19087087 0.34437197 -0.17750987 0.08412916 0.35139093 0.27450275 0.22117953 0.30517703
0.26623756 0.120886855 -0.19678453 -0.2758705 -0.16394918 -0.032830887 -0.20978934 0.10191216
0.12505949 0.017057864 0.2488788 0.19008556 0.35206062 0.39854094 -0.061275665 0.440803
0.07288846 -0.02664977 -0.33389494 -0.2314154 -0.21337731 -0.15709789 0.2531038 -0.12762995
-0.2487601 0.16893876 0.18438904 0.4678604 0.35078442 -0.13494009 0.09937197 0.3614122
-0.6621965 -0.4362581 -0.31907463 0.44278005 0.2700041 0.32238054 0.6115319 0.67816114
0.6372814 -0.04915457 -0.11038709 0.51027364 -0.09135131 -0.031835407 -0.30288872 -0.06854543
-0.21551788 0.2872772 -0.2892018 -0.2666392 -0.042705946 -0.1825353 0.15245056 -0.069431454
-0.19623119 0.03128383 0.3076039 -0.24841908 0.20998038 0.28856254 0.41990232 -0.18253039
-0.022682907 -0.13539882 0.39217064 -0.18603982 0.26194885 0.13741648 -0.0033142606 0.14043008
0.13498811 0.112148255 0.2304551 0.24129294 -0.3073192 0.39638424 0.46090496 0.32577547
0.24840023 -0.23600712 -0.1182961 0.29694632 -0.24578178 0.31480655 -0.2654365 -0.23566607
0.16614735 -0.23349987 -0.061676532 0.26579297 0.29113942 0.35866717 -0.029955512 -0.23844741
0.3522993 -0.056847747 0.0035841595 0.0902654 -0.34375966 0.31766286 0.33368874 -0.25329962
-0.2973376 0.09113518 0.29943594 -0.023571549 -0.1802282 -0.013481957 -0.3313589 -0.26429617
-0.24732742 0.2993671 0.2878032 -0.13368817 -0.35590452 0.015585756 0.40616795 -0.5703497
00000000: 932e 383e fc3c 1cbe 3e7c 89bd 11ef 153e
00000010: 746c aabe 5281 523e 5e07 adbd 0c86 1f3e
00000020: 569b 603d d686 33bd e04b b63d 8c8f 673c
00000030: c2c8 f33d e163 05be b686 c6bc 99b0 ecbc
00000040: a7c8 493d ab9d 28bb f4b2 963e 8884 033e
00000050: 0b9f b4bd 79d4 71be 1ac6 cdbd fedb 41be
00000060: d70b a7bd 8957 463d 0390 663e b18d 9d3e
00000070: 44ed 2dbe 343a a73e 347e 8c3e 5e7d 023f
00000080: 437d aa3e cd0e d1be 46d8 e5be 79ee 9fbe
00000090: 78eb ab3e 38b0 083e d878 a53e 6ab7 4a3d
000000a0: 4653 033f 6a00 21be 36ec 003f acca 033d
000000b0: 2c88 b0be 409e 6f3e 6799 48be 73ce 8a3d
000000c0: e9ac 9ebd c37a 64bd b966 a8be 991c 30be
000000d0: 96bd 173e f9ef e0bd 1006 c03e 189d a33e
000000e0: 47d8 9a3b 957a 5abe 7646 813e 8fdc 1a3e
000000f0: 1827 6cbe 5cd4 823e db4d 843e d8e1 983e
00000100: a8a2 3cbe 57cb 57bd 852e 193c f6c3 913d
00000110: 0ec9 7ebe 6ec3 69be 1d7f 533e 5f69 7fbd
00000120: 1499 423e a782 413d d4b1 0d3e e0ea c33d
00000130: 74b9 163e e19e 443e 0019 a1be a86a 283e
00000140: 9d35 6abe 1d0e 77be e04a e23c 8c92 61bd
00000150: 630f 4f3e 7be1 45be be70 99be 8e1c 753e
00000160: 9bf1 71bd 32ba 373e 6838 a13e bcb0 d2be
00000170: e463 0abe 2733 e63e 1ecc a8be 8088 bcbe
00000180: e9c7 fa3e 8f33 633e 1c0e 3cbe 9246 9d3c
00000190: 6c24 b53e a184 bebe 403d 223e 80d9 9c3e
000001a0: dbff c5be b647 c1be 4715 f23e a841 583c
000001b0: 7471 9e3e 6f70 643e 54c3 993e db33 d93e
000001c0: c7e7 113f 8214 0dbd 2dce 813e 0e1d fc3e
000001d0: a1c0 d83e bd7f 6c3e 229e 68be 5086 68be
000001e0: 44ab 3bbe 5a03 483d cdc7 9a3e f2e7 56be
000001f0: 588e 1a3e 2f41 69be 89bb a4be 88d5 9cbd
00000200: a773 433e 8651 b03e 26c5 35be e94b ac3d
00000210: 83e9 b33e a08b 8c3e e37c 623e 2a40 9c3e
00000220: 4a50 883e 8793 f73d e281 49be e63e 8dbe
00000230: 4be2 27be ae79 06bd 04d3 56be 53b7 d03d
00000240: 980f 003e efbc 8b3c 16da 7e3e caa5 423e
00000250: 4a41 b43e 8f0d cc3e 31fc 7abd eeb0 e13e
00000260: 8b46 953d 9e50 dabc 47f4 aabe 29f8 6cbe
00000270: 957f 5abe 45de 20be d296 813e 6db1 02be
00000280: f8ba 7ebe 48fe 2c3e 7bd0 3c3e 668b ef3e
00000290: 049a b33e bc2d 0abe 8883 cb3d 050b b93e
000002a0: b685 29bf 395d dfbe c05d a3be 11b4 e23e
000002b0: fa3d 8a3e 100f a53e 5b8d 1c3f f89b 2d3f
000002c0: e024 233f 4d56 49bd a012 e2bd 4ba1 023f
000002d0: 6516 bbbd d865 02bd 3b14 9bbe 8c61 8cbd
000002e0: b8b0 5cbe ff15 933e 4212 94be ef84 88be
000002f0: 6eec 2ebd 89ea 3abe 001c 1c3e 1432 8ebd
00000300: d4f0 48be 7923 003d 427e 9d3e 9261 7ebe
00000310: 1905 573e 78be 933e 70fd d63e 3fe9 3abe
00000320: 81d1 b9bc fda5 0abe 97ca c83e 3981 3ebe
00000330: 291e 863e e8b6 0c3e 1134 59bb e7cc 0f3e
00000340: 533a 0a3e fcad e53d 6cfc 6b3e 7f15 773e
00000350: f158 9dbe e0f2 ca3e bcfb eb3e 0bcc a63e
00000360: a15c 7e3e daab 71be 3a45 f2bd 5909 983e
00000370: 38ae 7bbe 532e a13e 4be7 87be 7252 71be
00000380: 8822 2a3e 971a 6fbe 88a0 7cbd 0416 883e
00000390: 3a10 953e 39a3 b73e 4365 f5bc 8f2b 74be
000003a0: 9360 b43e 2fd9 68bd 38e4 6a3b 11dd b83d
000003b0: 4401 b0be b5a4 a23e 40d9 aa3e 7db0 81be
000003c0: a23c 98be 15a5 ba3d ab4f 993e 1f19 c1bc
000003d0: be8d 38be 6de3 5cbc e0a7 a9be d451 87be
000003e0: 6643 7dbe a546 993e f15a 933e 8de5 08be
000003f0: 1e39 b6be 665b 7f3c 3ff5 cf3e 7002 12bf

qconv1.conv_module.bias f4 [40]
-0.17947423 -0.32786196 0.1757777 -0.03477423 0.16803145 0.033954166 -0.29593393 -0.16424373
0.1054045 -0.07518039 -0.23533216 0.062955834 0.018829789 -0.121785924 0.14947437 0.08016914
-0.07687719 0.34071827 -0.03437751 0.16566727 -0.061569754 -0.25346363 0.238179 -0.0206838
-0.21209137 0.21100834 0.11908802 0.101233475 0.018970141 -0.036200523 0.11239838 0.22426853
0.0519782 -0.15252109 0.32308218 0.0074830186 0.28768426 0.103386804 0.30857632 0.23498127
00000000: 18c8 37be 86dd a7be 12ff 333e 6c6f 0ebd
00000010: 7010 2c3e 8613 0b3d a784 97be 822f 28be
00000020: 51de d73d 2df8 99bd eafa 70be fdee 803d
00000030: ee40 9a3c e66a f9bd cf0f 193e b82f a43d
00000040: ca71 9dbd a072 ae3e 6fcf 0cbd aea4 293e
00000050: 9130 7cbd fcc5 81be 32e5 733e 1371 a9bc
00000060: 7b2e 59be 9212 583e 6be4 f33d 7f53 cf3d
00000070: 4567 9b3c 0047 14bd 1f31 e63d a6a6 653e
00000080: 18e7 543d 7d2e 1cbe 076b a53e 1c34 f53b
00000090: 5a4b 933e 76bc d33d b7fd 9d3e ee9e 703e

qconv2.conv_module.weight f4 [40, 2, 3, 3]
-0.120043494 0.16836147 -0.00023438854 -0.19910067 -0.058174215 -0.21428996 -0.13433631 -0.17132068
0.14082251 -0.04951265 -0.0406908 0.112858936 0.095800035 -0.15573451 0.086573 0.09991693
-0.18772364 0.20470108 -0.14510968 -0.0980567 -0.19519292 0.21353057 0.047348935 0.2027723
0.019666826 0.13398632 -0.07360118 -0.18800198 0.037608963 -0.021147585 -0.024098534 -0.115731485
0.0048289285 0.06764274 0.08509272 -0.18975134 0.08680816 0.04148883 0.19247954 0.19825464
-0.13794726 0.21593468 -0.18514569 0.17776726 0.08212436 0.069677904 -0.1621982 0.054385588
-0.15149575 -0.26820135 0.07969758 0.44654638 0.54318607 0.24327376 0.26346216 0.20070124
-0.083370894 -0.1707879 0.13941711 -0.12627299 0.115766145 -0.20601593 0.16458319 0.17633078
0.05995642 0.1675567 -0.17904179 -0.0611565 -0.0073037744 -0.13615315 -0.068519875 -0.10399089
0.41771856 0.3023196 0.15277193 0.46153316 -0.28574857 -0.103007294 0.13931815 -0.34246242
-0.10767895 -0.1419928 0.060494654 0.09303001 0.2335098 -0.06544617 -0.17742257 0.28599054
0.13156225 0.113581665 0.11516004 -0.05729487 0.20613337 -0.16950504 0.13101682 0.18355006
0.25281122 -0.026725097 -0.1385487 0.08695134 -0.18658572 -0.19626632 -0.21403474 -0.11821229
-0.03377542 -0.13886088 -0.08374522 -0.19094777 0.20903875 -0.04210432 -0.1515742 0.12817766
-0.17804168 0.15601015 0.19896302 -0.22809426 -0.1837165 -0.15528238 -0.12507519 0.034436848
-0.23057812 -0.17270787 0.104759775 -0.078439966 -0.08903574 -0.19580336 0.21596181 0.13458258
-0.11193655 -0.101874284 0.17657104 0.117926486 0.11586534 0.13712326 0.046156593 -0.18029433
0.16390802 0.0055740895 -0.16132894 0.20281427 0.14356503 -0.18614468 -0.1176651 -0.07788551
-0.13101299 0.12264177 -0.15467384 0.236735 -0.070182875 0.16198815 0.028812194 -0.07330955
0.18716128 -0.1764822 -0.12263218 0.033509836 0.1891612 -0.10243654 -0.14016148 -0.15381724
-0.10884068 -0.08537508 -0.06308542 -0.1386967 0.06275271 -0.0033438879 -0.15434322 -0.14419949
0.08226615 0.044793483 0.21505356 -0.03329528 -0.18600811 -0.17064665 -0.060150422 -0.032598127
0.059984438 -0.053932752 0.08520084 -0.073611364 0.28679794 0.07294253 -0.10128839 0.36502334
0.22678679 -0.1678737 -0.030024294 0.37842512 0.1336865 0.29178035 -0.045449346 0.17848787
0.2952419 0.06281322 -0.08953245 0.38392317 0.11974952 -0.09417641 0.13181588 0.42035747
0.1815956 0.031426743 0.4228877 0.25012597 -0.14383332 -0.16399415 0.3218988 0.39367816
-0.07171491 0.0569987 0.12240076 0.1010992 -0.029991623 0.015866837 0.15700395 0.30053875
0.028399851 0.12291614 0.17484887 0.1321136 0.22389534 -0.11029057 0.15596701 0.1714454
0.099455364 0.2287494 -0.04376412 0.17552997 -0.07167247 0.18034625 0.15204173 -0.10079406
-0.028702503 -0.14462161 -0.1690628 -0.08043184 -0.28286314 -0.26348707 -0.3308914 -0.3189503
-0.028409643 0.22458872 0.741329 0.1912848 0.14874627 0.092206195 -0.18155074 0.2216058
-0.19054124 -0.06482309 -0.12585348 0.13185333 -0.19624487 -0.11623181 -0.14976048 -0.14502048
00000000: 5dd9 f5bd f366 2c3e 32c6 75b9 0ce1 4bbe
00000010: 1648 6ebd d46e 5bbe 758f 09be b06e 2fbe
00000020: c733 103e c7cd 4abd 65ab 26bd 9622 e73d
00000030: cf32 c43d de78 1fbe 2f4d b13d 3fa1 cc3d
00000040: a03a 40be 299d 513e a297 14be f3d1 c8bd
00000050: a7e0 47be c2a7 5a3e f5f0 413d 8ba3 4f3e
00000060: 531c a13c b633 093e 37bc 96bd 9783 40be
00000070: db0b 1a3d b33d adbc 4a6a c5bc a104 edbd
00000080: fd3b 9e3b 4788 8a3d 1845 ae3d 2d4e 42be
00000090: 7ac8 b13d 31f0 293d 5b19 453e 4403 4b3e
000000a0: 0c42 0dbe fb1d 5d3e d596 3dbe 9f08 363e
000000b0: d130 a83d 4ab3 8e3d 4917 26be 6cc3 5e3d
000000c0: b421 1bbe b051 89be 7c38 a33d baa1 e43e
000000d0: 3e0e 0b3f c21c 793e 83e4 863e a084 4d3e
000000e0: 5cbe aabd 06e3 2ebe 5cc3 0e3e b54d 01be
000000f0: cd16 ed3d d7f5 52be 7f88 283e 0e90 343e
00000100: dd94 753d fc93 2b3e bb56 37be 3d7f 7abd
00000110: 8054 efbb bb6b 0bbe 2654 8cbd 2df9 d4bd
00000120: 35df d53e a2c9 9a3e 3f70 1c3e 134e ec3e
00000130: a34d 92be 7df5 d2bd 6ba9 0e3e 3c57 afbe
00000140: c886 dcbd 9066 11be 3ec9 773d 8586 be3d
00000150: 311d 6f3e a408 86bd 43ae 35be 5a6d 923e
00000160: 41b8 063e 819d e83d 07d9 eb3d 07ae 6abd
00000170: a014 533e bb92 2dbe 4629 063e 8cf4 3b3e
00000180: 7970 813e 97ee dabc b6df 0dbe 8b13 b23d
00000190: 5410 3fbe 0afa 48be ec2b 5bbe 4919 f2bd
000001a0: 1858 0abd 8c31 0ebe 9d82 abbd d087 43be
000001b0: 410e 563e 9475 2cbd 4436 1bbe 0141 033e
000001c0: 8f50 36be 20c1 1f3e f6bc 4b3e 8b91 69be
000001d0: 2e20 3cbe 5802 1fbe b613 00be a70d 0d3d
000001e0: ac1c 6cbe 55da 30be 4b8c d63d 22a5 a0bd
000001f0: 5f58 b6bd ad80 48be 1825 5d3e 04d0 093e
00000200: fd3e e5bd 77a3 d0bd 0acf 343e 7183 f13d
00000210: cf4a ed3d 0a6a 0c3e b20e 3d3d 149f 38be
00000220: 81d7 273e daa6 b63b 6a33 25be 8bae 4f3e
00000230: b602 133e b69c 3ebe 66fa f0bd 7082 9fbd
00000240: 4528 06be 9c2b fb3d d262 1ebe a96a 723e
00000250: 0abc 8fbd 39e0 253e 8d07 ec3c 5123 96bd
00000260: 35a7 3f3e c0b7 34be 9526 fbbd 9c41 093d
00000270: 79b3 413e 40ca d1bd 7e86 0fbe 4482 1dbe
00000280: dde7 debd 21d9 aebd ee32 81bd 8206 0ebe
00000290: 7e84 803d 2125 5bbb 260c 1ebe 08a9 13be
000002a0: 287b a83d 5f79 373d 0037 5c3e a260 08bd
000002b0: e978 3ebe ffbd 2ebe 4a60 76bd 9d85 05bd
000002c0: 3eb2 753d 97e8 5cbd c77d ae3d 8ec1 96bd
000002d0: 2ed7 923e e562 953d 4a70 cfbd 57e4 ba3e
000002e0: cc3a 683e 15e7 2bbe 82f5 f5bc f0c0 c13e
000002f0: 1de5 083e 3c64 953e 1829 3abd 86c5 363e
00000300: f229 973e 38a4 803d ca5c b7bd 9491 c43e
00000310: 3d3f f53d 90df c0bd befa 063e 1839 d73e
00000320: 32f4 393e 54b9 003d bd84 d83e 8310 803e
00000330: 0b49 13be 15ee 27be ebcf a43e 2f90 c93e
00000340: 44df 92bd 7877 693d 40ad fa3d 190d cf3d
00000350: feb0 f5bc 2bfb 813c a5c5 203e 37e0 993e
00000360: cea6 e83c 75bb fb3d 950b 333e ca48 073e
00000370: d244 653e 06e0 e1bd d1b5 1f3e 628f 2f3e
00000380: 41af cb3d 483d 6a3e 0242 33bd 21be 333e
00000390: 04c9 92bd b0ac 383e d4b0 1b3e 1e6d cebd
000003a0: 8321 ebbc b017 14be cc1e 2dbe 73b9 a4bd
000003b0: 70d3 90be c7e7 86be 996a a9be 744d a3be
000003c0: 57bb e8bc 96fa 653e bdc7 3d3f 2ae0 433e
000003d0: f150 183e 9ad6 bc3d 70e8 39be a1ec 623e
000003e0: 3e1d 43be f8c1 84bd bcdf 00be 8f04 073e
000003f0: 6af4 48be f10a eebd d05a 19be 4080 14be

qconv2.conv_module.bias f4 [40]
0.18252389 0.19811222 0.119109355 0.10080881 -0.079277396 -0.033554852 -0.10361447 0.040492598
-0.15315755 0.09974384 0.09115103 0.1173516 -0.35752016 0.33512118 -0.15004365 0.02949562
0.31478038 0.15723051 -0.014842623 -0.0976068 -0.2113859 0.20357879 0.21405464 -0.048964884
0.06378473 -0.038592845 -0.13232282 -0.08434946 -0.08089667 -0.2704634 -0.2318297 0.070009306
-0.13616607 -0.11649751 0.021759095 -0.11111321 0.22414047 -0.031225521 -0.069086246 -0.075199604
00000000: 8be7 3a3e eedd 4a3e 9bef f33d d974 ce3d
00000010: 305c a2bd d070 09bd d333 d4bd 91db 253d
00000020: 55d5 1cbe 8046 cc3d 64ad ba3d 0956 f03d
00000030: e20c b7be 0195 ab3e 0ba5 19be cca0 f13c
00000040: e52a a13e 0901 213e 792e 73bc 13e6 c7bd
00000050: 8c75 58be f576 503e 2431 5b3e 678f 48bd
00000060: 92a1 823d 8813 1ebd a27f 07be 69bf acbd
00000070: 27ad a5bd 2e7a 8abe c464 6dbe 0a61 8f3d
00000080: 1e6f 0bbe 3f96 eebd 2140 b23c 538f e3bd
00000090: 1485 653e aacc ffbc 177d 8dbd 4002 9abd

qfc.fc_module.weight f4 [10, 1000]
-0.025634352 0.016224854 0.026332235 -0.021709803 -0.013114199 0.0303232 -0.024942733 0.0031269288
-0.026934877 -0.028328823 5.6597135e-05 -0.028798051 0.0144961 -0.0054069073 0.005309828 -0.01938018
0.011385095 0.027956305 -0.0034645838 -0.018945016 -0.031341642 0.02963786 0.013010555 0.011337953
0.0060068937 0.014341663 0.009936906 0.01601888 0.021637851 0.006483338 0.028648976 0.021804692
-0.0033641872 -0.020383602 0.004336712 0.028819244 0.021676926 -0.023478907 -0.01633016 0.010677661
0.0076793097 0.025996506 0.019779116 0.014066235 0.008027665 -0.032387182 -0.010098931 0.008664559
-0.020880278 -0.031412758 0.009438648 0.00847963 -0.07534473 -0.01913245 -3.7965357e-05 0.013296191
0.0051404787 -0.05359865 -0.03315734 -0.05804349 -0.004036941 -0.0475168 -0.06492817 -0.07289049
0.01679825 -0.028474534 -0.022060094 -0.021215597 -0.01870602 -0.01845024 0.007342194 -0.011024882
0.046203874 -0.031497706 0.0043442547 -0.009940084 -0.006347527 -0.0061463155 0.003087267 -0.009658688
0.0050062747 -0.02145431 0.0071387244 -0.034750715 -0.019959275 -0.025862178 0.024577554 0.015626961
-0.039594207 -0.036873464 0.024516514 -0.012498974 0.0020948118 -0.042689335 -0.010853705 0.023229137
-0.0034828433 0.0050670635 0.038689617 0.024923798 0.006226059 -0.01794594 -0.06260208 -0.07360749
-0.069178835 -0.012258611 0.020457963 -0.026012007 -0.0027105643 -0.031822097 -0.008158566 0.078602955
0.12284123 0.04813361 -0.023915684 -0.006007452 0.05889931 0.023962354 -0.101166986 0.013713846
-0.0052442667 -0.022389531 0.009581442 -0.0015140891 0.07375855 0.004183903 0.020773934 0.022204496
-0.007528098 0.0021570825 0.021792319 0.016738921 0.014680888 0.0005093982 -0.0030113137 0.021886628
-0.018074498 0.020208409 0.011191395 -0.012140891 -0.0028718563 0.018022822 -0.005443135 0.019639717
0.017959263 0.0019665682 -0.020971732 0.03909153 -0.012106473 0.019297386 -0.0097611565 -0.02893268
0.0011023931 0.017751051 0.004233379 -0.0008863964 -0.00323625 0.02100002 -0.004257188 -0.0140585685
-0.022541512 0.008453037 0.024907354 0.027635386 0.004150128 0.02430786 -0.01438341 -0.0071098446
-0.012637724 -0.033047915 -0.009382431 0.0063394154 -0.032585964 0.0025172986 -0.03739744 0.021823283
0.01168017 0.0051852833 -0.02460845 0.021625636 -0.015244491 0.018239547 -0.029157028 0.031557076
0.043088026 -0.008859906 -0.01834455 -0.014921358 0.022585234 0.03864514 0.036040723 0.006981094
-0.02777659 -0.054472934 -0.008738145 0.0050391075 0.008722408 0.020207766 -0.044273846 -0.025567152
0.004768451 0.02048533 -0.017354203 0.021692563 0.02867878 -0.010396482 0.02056993 0.024213286
0.04064547 -0.0024956681 -0.020077437 -0.016069219 -0.030237818 -0.0002483433 0.030183764 0.03002691
0.017785443 -0.004651841 -0.0064616157 0.021006731 0.018956792 0.010844371 -0.0049423035 0.009447584
-0.0017077955 -0.025321519 -0.020386068 0.019512873 0.022516483 -0.012789952 -0.0082842875 -0.01633999
-0.016250981 0.0228577 -0.032263122 0.01751377 -0.03242827 -0.03194444 -0.007868496 0.0019488798
-0.010235273 -0.021026086 -0.007867059 -0.0008579987 -0.018674944 -0.022449635 0.022886982 -0.017238932
-0.027356204 0.021302978 0.0043941624 -0.008004042 -0.03095175 -0.00023847575 0.005035037 -0.028642215
00000000: 22ff d1bc fce9 843c b3b6 d73c c2d8 b1bc
00000010: f0dc 56bc 5c68 f83c b454 ccbc 29ed 4c3b
00000020: 88a6 dcbc d911 e8bc b662 6d38 e4e9 ebbc
00000030: 0d81 6d3c 6d2c b1bb 11fe ad3b 2fc3 9ebc
00000040: 8d88 3a3c 9f04 e53c 120e 63bb 9432 9bbc
00000050: 1860 00bd 19cb f23c 392a 553c d2c2 393c
00000060: 7ad5 c43b 4bf9 6a3c 68ce 223c 073a 833c
00000070: dd41 b13c 2e72 d43b 42b1 ea3c c19f b23c
00000080: b279 5cbb 83fb a6bc fa1a 8e3b 5616 ec3c
00000090: cf93 b13c d656 c0bc d4c6 85bc 5bf1 2e3c
000000a0: b8a2 fb3b a0f6 d43c d007 a23c 1176 663c
000000b0: 7886 033c 6ca8 04bd fd75 25bc cbf5 0d3c
000000c0: 1e0d abbc aaaa 00bd 8fa4 1a3c 25ee 0a3c
000000d0: 564e 9abd a8bb 9cbc fe3c 1fb8 44d8 593c
000000e0: 7671 a83b 428a 5bbd fecf 07bd 03bf 6dbd
000000f0: 5148 84bb faa0 42bd 0ff9 84bd 9c47 95bd
00000100: 7c9c 893c 6d43 e9bc 5fb7 b4bc 55cc adbc
00000110: 5e3d 99bc f524 97bc ca96 f03b b5a1 34bc
00000120: 4640 3d3d bd03 01bd 405a 8e3b bcdb 22bc
00000130: eafe cfbb 0867 c9bb bf53 4a3b 793f 1ebc
00000140: ad0b a43b f3c0 afbc f6eb e93b c456 0ebd
00000150: a281 a3bc ebdc d3bc de56 c93c 1d04 803c
00000160: 892d 22bd a108 17bd dbd6 c83c 7fc8 4cbc
00000170: 1c49 093b 03db 2ebd bdd3 31bc 084b be3c
00000180: 6a40 64bb 9c09 a63b 0179 1e3d fe2c cc3c
00000190: f803 cc3b 5d03 93bc 8535 80bd 86bf 96bd
000001a0: a2ad 8dbd 57d8 48bc 7597 a73c 2217 d5bc
000001b0: b9a3 31bb e357 02bd 82ab 05bc 96fa a03d
000001c0: 2f94 fb3d c027 453d d3ea c3bc 29da c4bb
000001d0: 6740 713d b34c c43c a330 cfbd 0ab0 603c
000001e0: 19d8 abbb 406a b7bc 7bfb 1c3c 6674 c6ba
000001f0: b90e 973d 1f19 893b 192e aa3c 34e6 b53c
00000200: 43ae f6bb d75d 0d3b ce85 b23c 1020 893c
00000210: 1b88 703c 2289 053a 7659 45bb 964b b33c
00000220: f810 94bc 1b8c a53c 1d5c 373c 96ea 46bc
00000230: c135 3cbb 99a4 933c 535c b2bb 79e3 a03c
00000240: 4e1f 933c 8ae1 003b e9cc abbc 711e 203d
00000250: 3a5a 46bc 8d15 9e3c 42ed 1fbc 3a04 edbc
00000260: 2d7e 903a a76a 913c 28b8 8a3b 0e5d 68ba
00000270: 4417 54bb 3c08 ac3c e27f 8bbb e955 66bc
00000280: faa8 b8bc 9b7e 0a3c 820a cc3c 9b63 e23c
00000290: ccfd 873b 4721 c73c 65a8 6bbc b3f9 e8bb
000002a0: 750e 4fbc 405d 07bd c5b8 19bc dfba cf3b
000002b0: dc78 05bd 43f9 243b 0f2e 19bd bec6 b23c
000002c0: 2f5e 3f3c 4fe9 a93b a997 c9bc 3f28 b13c
000002d0: 08c4 79bc 1a6b 953c b8da eebc fe41 013d
000002e0: 127d 303d 2429 11bc 4f47 96bc b678 74bc
000002f0: ab04 b93c 5e4a 1e3d 709f 133d a9c1 e43b
00000300: bb8b e3bc 031f 5fbd 702a 0fbc 191f a53b
00000310: 6ee8 0e3c c28a a53c 7e58 35bd 3472 d1bc
00000320: ab40 9c3b dad0 a73c 672a 8ebc 9ab4 b13c
00000330: c3ef ea3c 0256 2abc 4582 a83c f15a c63c
00000340: dd7b 263d 5d8e 23bb 7079 a4bc 98a3 83bc
00000350: 4db5 f7bc 1334 82b9 f143 f73c fffa f53c
00000360: c7b2 913c 786e 98bb f6bb d3bb 4f16 ac3c
00000370: 464b 9b3c 97ac 313c 0cf3 a1bb 0aca 1a3c
00000380: 1cd8 dfba 136f cfbc af00 a7bc 76d9 9f3c
00000390: 7d74 b83c f28c 51bc d2ba 07bc 71db 85bc
000003a0: c720 85bc 1240 bb3c 5626 04bd 0a79 8f3c
000003b0: 81d3 04bd 2cd8 02bd ddea 00bc 8e71 ff3a
000003c0: d9b1 27bc e63e acbc d6e4 00bc 51eb 60ba
000003d0: 32fc 98bc 4ce8 b7bc 7b7d bb3c a938 8dbc
000003e0: 1e1a e0bc 9583 ae3c e8fc 8f3b 6323 03bc
000003f0: 868e fdbc 590f 7ab9 f4fc a43b 14a3 eabc

qfc.fc_module.bias f4 [10]
0.016197408 0.045708198 0.04064761 -0.06470359 -0.029827831 0.023672447 0.019203931 0.03943441
-0.081666276 -0.011214135
00000000: 6db0 843c 8538 3b3d 1c7e 263d 5183 84bd
00000010: 7f59 f4bc b8ec c13c 9051 9d3c fa85 213d
00000020: a640 a7bd 7ebb 37bc
