ckpt/mnist_cnn.pt (torch, 46759 bytes, 6 tensors)

conv1.weight f4 [40, 1, 3, 3]
0.17986546 -0.15257645 -0.067131616 0.14642031 -0.33285838 0.20557201 -0.0844861 0.15578558
0.054836515 -0.04382976 0.08901191 0.014133345 0.11903526 -0.13026382 -0.024234157 -0.028892802
0.049263623 -0.0025728743 0.31536403 0.14796095 -0.08018549 -0.2125607 -0.073819295 -0.15300232
-0.08642666 0.04649245 0.23267181 0.27003735 -0.18675421 0.32227743 0.20717865 0.4489053
0.28239325 -0.3514821 -0.38281494 -0.25802153 0.34052637 0.06771671 0.23482968 -0.027538702
0.42581326 -0.16824903 0.38272867 0.012721132 -0.27018857 0.20207022 -0.18857172 0.08522945
-0.08823845 -0.045540918 -0.32232973 -0.16623074 0.15999237 -0.10164002 0.35374516 0.29572758
-0.00074788235 -0.2182815 0.22760907 0.12669884 -0.22268376 0.23841736 0.2294177 0.29583386
-0.18537761 -0.051943637 0.0033009525 0.06312276 -0.24971908 -0.23434089 0.19557115 -0.066753305
0.18921715 0.046349384 0.13747677 0.09479863 0.14625807 0.19111834 -0.31470457 0.16440892
-0.22874887 -0.2412137 0.027645757 -0.055049695 0.20229144 -0.19319558 -0.29967466 0.23933357
-0.05915905 0.17932393 0.23621093 -0.32467547 -0.02155364 0.29253936 -0.25457957 -0.23510152
0.35836443 0.17328772 -0.13882846 -0.024411095 0.36425146 -0.21597221 0.17348918 0.2549576
-0.28513613 -0.33455828 0.41439328 0.033697017 0.3463432 0.24230002 0.21378963 0.40522677
0.5109412 -0.17424063 0.1652722 0.3922191 0.30737057 0.23463371 -0.23034209 -0.22790578
-0.18591484 0.043481544 0.30100796 -0.21004952 0.15031618 -0.22898696 -0.3203845 -0.0738707
0.186123 0.32988855 -0.18917248 0.07460098 0.32734936 0.24740534 0.20474774 0.28315336
0.24828161 0.11089095 -0.20965572 -0.27780595 -0.16334777 -0.03761277 -0.20581092 0.1040017
0.14845784 0.0037009607 0.21231997 0.17715304 0.3031837 0.32826966 -0.08374489 0.38531268
0.017504089 -0.022461202 -0.32416958 -0.22648321 -0.2036495 -0.14671205 0.24768357 -0.113614336
-0.2415307 0.1558074 0.274133 0.4688192 0.30320603 -0.0046846997 0.030603286 0.21266319
-0.5294514 -0.33913186 -0.21764767 0.40546954 0.23092431 0.25154617 0.5792592 0.61758155
0.5631969 -0.08905679 -0.20089379 0.4432272 -0.0913037 -0.031813245 -0.30284235 -0.06852194
-0.2155738 0.28717104 -0.2891693 -0.266304 -0.042306643 -0.18824142 0.1412667 -0.08232343
-0.19327109 0.023292843 0.28763556 -0.24458982 0.19848914 0.26692078 0.39732897 -0.18531062
0.024907129 -0.16416883 0.36919245 -0.14917944 0.26015958 0.10909508 0.013252921 0.09416473
0.12028287 0.13499524 0.17722115 0.19360161 -0.30931583 0.3480354 0.39155737 0.29706997
0.24826024 -0.23602341 -0.118391804 0.2969491 -0.24571748 0.3145172 -0.2653441 -0.23551662
0.1659727 -0.23348975 -0.0617825 0.2656026 0.29099014 0.35835302 -0.03020158 -0.23845059
0.35211617 -0.0570256 -0.07150489 0.0776181 -0.28053528 0.26489317 0.28552753 -0.2364948
-0.274935 0.056340467 0.23935184 -0.027472772 -0.17873041 -0.010346136 -0.33599234 -0.2592262
-0.2388148 0.2806287 0.28427184 -0.12567881 -0.28012925 0.13906378 0.37912592 -0.4475314
00000000: a72e 383e 003d 1cbe 4d7c 89bd 35ef 153e
00000010: 6a6c aabe 7881 523e 0c07 adbd 4186 1f3e
00000020: 419c 603d d686 33bd e04b b63d 8c8f 673c
00000030: c2c8 f33d e163 05be b686 c6bc 99b0 ecbc
00000040: a7c8 493d ab9d 28bb 6577 a13e 1383 173e
00000050: 4a38 a4bd 83a9 59be 922e 97bd a4ac 1cbe
00000060: 7600 b1bd de6e 3e3d 8541 6e3e 5642 8a3e
00000070: 7f3c 3fbe 8c01 a53e a426 543e ead6 e53e
00000080: d995 903e 76f5 b3be 5200 c4be 661b 84be
00000090: 7959 ae3e 0faf 8a3d 3177 703e d898 e1bc
000000a0: 3204 da3e 7949 2cbe 03f5 c33e 4b6c 503c
000000b0: 2856 8abe 7feb 4e3e f218 41be c78c ae3d
000000c0: 5cb6 b4bd 1d89 3abd 6708 a5be 6438 2abe
000000d0: 0ad5 233e a528 d0bd 161e b53e 9b69 973e
000000e0: 890d 44ba 2f85 5fbe 5a12 693e 57bd 013e
000000f0: 3607 64be ae23 743e 79ec 6a3e 8977 973e
00000100: a1d3 3dbe dac2 54bd cb54 583b 8146 813d
00000110: 5cb6 7fbe 0ff7 6fbe ce43 483e f5b5 88bd
00000120: 24c2 413e dad8 3d3d b6c6 0c3e c925 c23d
00000130: adc4 153e 87b4 433e f520 a1be d05a 283e
00000140: 253d 6abe b900 77be 5b79 e23c ca7b 61bd
00000150: 7d25 4f3e 10d5 45be f56e 99be dc13 753e
00000160: c350 72bd b1a0 373e 47e1 713e dd3b a6be
00000170: 4291 b0bc b8c7 953e 4158 82be 74be 70be
00000180: 8b7b b73e 5672 313e 0c29 0ebe c7f9 c7bc
00000190: 2b7f ba3e d227 5dbe 26a7 313e cd89 823e
000001a0: 5dfd 91be 394b abbe 5b2b d43e e205 0a3d
000001b0: e553 b13e 7f1d 783e abeb 5a3e e279 cf3e
000001c0: 0bcd 023f 236c 32be 1e3d 293e f1d0 c83e
000001d0: ad5f 9d3e d243 703e ccde 6bbe 2260 69be
000001e0: 7660 3ebe b419 323d b71d 9a3e 3917 57be
000001f0: 7cec 193e 8f7b 6abe 7009 a4be 8649 97bd
00000200: 0797 3e3e 27e7 a83e 6eb6 41be 66c8 983d
00000210: 569a a73e d357 7d3e 64a9 513e 7af9 903e
00000220: 893d 7e3e cb1a e33d fdaf 56be 953c 8ebe
00000230: a344 27be d90f 1abd 19c0 52be d8fe d43d
00000240: 5505 183e d18b 723b 686a 593e 9b67 353e
00000250: e53a 9b3e f612 a83e 7182 abbd b447 c53e
00000260: bc64 8f3c 8e00 b8bc 8ef9 a5be 37eb 67be
00000270: 7f89 50be af3b 16be c3a0 7d3e a2ae e8bd
00000280: d353 77be fa8b 1f3e 295b 8c3e 1209 f03e
00000290: d23d 9b3e 1c82 99bb beb3 fa3c 61c4 593e
000002a0: 208a 07bf b1a2 adbe 08df 5ebe b499 cf3e
000002b0: 6c77 6c3e a9ca 803e 554a 143f d319 1e3f
000002c0: ac2d 103f 6863 b6bd 1ab7 4dbe adee e23e
000002d0: 6ffd babd 9b4e 02bd 270e 9bbe 3b55 8cbd
000002e0: 61bf 5cbe 1508 933e 000e 94be ff58 88be
000002f0: bb49 2dbd 5cc2 40be 38a8 103e 3099 a8bd
00000300: dbe8 45be a2d0 be3c f844 933e c175 7abe
00000310: bd40 4b3e d7a9 883e b46e cb3e 11c2 3dbe
00000320: 090a cc3c e01b 28be cb06 bd3e 7fc2 18be
00000330: a333 853e 3e6d df3d c822 593c 70d9 c03d
00000340: de56 f63d 313c 0a3e 7679 353e 803f 463e
00000350: a55e 9ebe b231 b23e 357a c83e 8e19 983e
00000360: ef37 7e3e 1fb0 71be 6777 f2bd b609 983e
00000370: 5d9d 7bbe 6608 a13e 2fdb 87be 452b 71be
00000380: bff4 293e f017 6fbe a60f 7dbd 10fd 873e
00000390: a9fc 943e 0c7a b73e 4e69 f7bc 642c 74be
000003a0: 9248 b43e ad93 69bd 2871 92bd 3df6 9e3d
000003b0: 52a2 8fbe 14a0 873e aa30 923e b12b 72be
000003c0: 48c4 8cbe 43c5 663d a618 753e 940e e1bc
000003d0: 1b05 37be d782 29bc 3007 acbe 4cb9 84be
000003e0: de8b 74be 91ae 8f3e 148c 913e f2b1 00be
000003f0: 1a6d 8fbe bc66 0e3e cb1c c23e d622 e5be

conv1.bias f4 [40]
-0.17947392 -0.32786196 0.18303506 -0.03274957 0.15052034 0.019536082 -0.30483848 -0.16530102
0.105068356 -0.07521516 -0.25413075 0.09494789 0.010546227 -0.1181918 0.1396439 0.07040924
-0.092079125 0.3149191 0.049396593 0.123211145 -0.061610468 -0.26188242 0.24692619 -0.041351117
-0.21226685 0.21089932 0.10355496 0.092984706 0.008962952 -0.03598453 0.088565126 0.2443655
0.0519782 -0.15252109 0.3230725 0.0076602385 0.26038858 0.09799615 0.29768968 0.22267072
00000000: 03c8 37be 86dd a7be 8b6d 3b3e 6a24 06bd
00000010: 0122 1a3e 220a a03c ca13 9cbe ac44 29be
00000020: 142e d73d 680a 9abd 6d1d 82be 0a74 c23d
00000030: 15ca 2c3c 8b0e f2bd cffe 0e3e b832 903d
00000040: fb93 bcbd 143d a13e 1554 4a3d 2056 fc3d
00000050: 425b 7cbd 7415 86be 38da 7c3e ca5f 29bd
00000060: 7b5c 59be fef5 573e 9f14 d43d c46e be3d
00000070: 58d9 123c 8464 13bd a261 b53d f33a 7a3e
00000080: 18e7 543d 7d2e 1cbe c269 a53e bd02 fb3b
00000090: a751 853e 35b2 c83d c86a 983e cb03 643e

conv2.weight f4 [40, 2, 3, 3]
-0.120043494 0.16836147 -0.00023438854 -0.19910067 -0.058174215 -0.21428996 -0.13433631 -0.17132068
0.14082251 -0.04951265 -0.0406908 0.112858936 0.095800035 -0.15573451 0.086573 0.09991693
-0.18772364 0.20470108 -0.14510968 -0.0980567 -0.19519292 0.21353099 0.04734935 0.20277272
0.019666826 0.13398716 -0.07360118 -0.18800198 0.037608963 -0.021147585 -0.024098534 -0.115731485
0.0048289285 0.06764274 0.08509272 -0.18975134 0.10703613 0.053063467 0.19581883 0.20825323
-0.15129079 0.21642366 -0.19542715 0.17130665 0.072405435 0.13649218 -0.1026755 0.13604926
-0.10646977 -0.20184225 0.123847306 0.34573174 0.4686919 0.15324023 0.25211334 0.18424772
-0.09938555 -0.17356019 0.13513805 -0.12951563 0.112009525 -0.20757969 0.16605763 0.12302597
0.0033987996 0.124768004 -0.1770982 -0.06144611 -0.007952021 -0.1377573 -0.06894354 -0.105433
0.37648755 0.27631313 0.20571047 0.3405916 -0.25440904 0.023809016 0.09617683 -0.25615066
0.0053601945 -0.14463466 0.04623462 0.082032844 0.21172857 -0.102469414 -0.18448292 0.23624063
0.10699359 0.11755617 0.09165175 -0.08214603 0.15754618 -0.19128634 0.07276261 0.12276044
0.19209859 -0.08665734 -0.15991603 0.086736225 -0.1864341 -0.1957047 -0.21468961 -0.118107624
-0.040728744 -0.14000018 -0.094722494 -0.20363589 0.18758209 -0.044513483 -0.15221447 0.10551723
-0.17839715 0.15591297 0.17646419 -0.22865053 -0.18385981 -0.15572672 -0.12568407 0.03385521
-0.23117732 -0.17272902 0.104912035 -0.079562694 -0.08971776 -0.19580108 0.14856468 0.08373563
-0.105020285 -0.13376328 0.10859726 0.081156895 0.11443983 0.09273672 -0.012017516 -0.18212946
0.15612864 0.00017519352 -0.16245428 0.20112544 0.14184394 -0.18548132 -0.11458537 -0.079204224
-0.13098907 0.122657254 -0.15466863 0.23676603 -0.07015695 0.16200979 0.028809287 -0.073295325
0.18719724 -0.17648259 -0.12263221 0.03352052 0.18916126 -0.10243654 -0.14016148 -0.15381724
-0.10884068 -0.08537508 -0.06301795 -0.13873939 0.06280497 -0.0030955204 -0.15428127 -0.14415056
0.080771044 0.04263943 0.21252808 -0.03351965 -0.18602774 -0.1706455 -0.06045873 -0.033317912
0.059060793 -0.054003444 0.08521671 -0.07367054 0.24829105 0.09472372 -0.07680917 0.3007516
0.15781064 -0.15155904 -0.0759146 0.24989738 0.13506004 0.26894057 -0.027972678 0.16841604
0.23850012 0.06318958 -0.08573356 0.3169837 0.082303725 -0.08346104 0.06945478 0.33563817
0.18479958 0.011914047 0.34101546 0.18273088 -0.1265115 -0.17513321 0.20968124 0.33847073
-0.10563042 0.06475701 0.097669415 0.049975958 -0.046335846 0.0580856 0.13383955 0.22025572
0.1356874 0.24153616 0.22179723 0.18146761 0.2491248 -0.12059483 0.21823016 0.19910662
0.19734757 0.22758323 -0.05277197 0.17563462 -0.065863155 0.18918754 0.17248648 -0.09800515
-0.016648257 -0.1324387 -0.11614657 -0.08652279 -0.15236577 -0.1595888 -0.27385384 -0.19697352
-0.00532555 0.12262951 0.51749045 0.19007689 0.14752135 0.096843235 -0.18372962 0.22197387
-0.1931532 -0.06837296 -0.13921592 0.11457443 -0.19624487 -0.11623181 -0.14976048 -0.14502048
00000000: 5dd9 f5bd f366 2c3e 32c6 75b9 0ce1 4bbe
00000010: 1648 6ebd d46e 5bbe 758f 09be b06e 2fbe
00000020: c733 103e c7cd 4abd 65ab 26bd 9622 e73d
00000030: cf32 c43d de78 1fbe 2f4d b13d 3fa1 cc3d
00000040: a03a 40be 299d 513e a297 14be f3d1 c8bd
00000050: a7e0 47be dea7 5a3e 64f1 413d a7a3 4f3e
00000060: 531c a13c ee33 093e 37bc 96bd 9783 40be
00000070: db0b 1a3d b33d adbc 4a6a c5bc a104 edbd
00000080: fd3b 9e3b 4788 8a3d 1845 ae3d 2d4e 42be
00000090: c235 db3d 1459 593d bb84 483e 5640 553e
000000a0: f9eb 1abe 2a9e 5d3e 0e1e 48be 036b 2f3e
000000b0: 4d49 943d 9bc4 0b3e 8847 d2bd 7f50 0b3e
000000c0: d30c dabd bcaf 4ebe a8a3 fd3d c003 b13e
000000d0: 62f8 ef3e 02eb 1c3e 0015 813e 6fab 3c3e
000000e0: a78a cbbd c3b9 31be a161 0a3e bf9f 04be
000000f0: 4065 e53d c58f 54be 030b 2a3e 0af5 fb3d
00000100: 65be 5e3b 5e86 ff3d 3b59 35be ebae 7bbd
00000110: 3249 02bc 4010 0dbe 4532 8dbd 42ed d7bd
00000120: fac2 c03e ea78 8d3e c4a5 523e 0662 ae3e
00000130: e741 82be 200b c33c 5cf8 c43d 2e26 83be
00000140: 92a4 af3b 1c1b 14be 8360 3d3d d600 a83d
00000150: 60cf 583e 7cdb d1bd 17e9 3cbe 10e9 713e
00000160: 751f db3d 4ac1 f03d eab3 bb3d 2e3c a8bd
00000170: c953 213e 91e0 43be 9004 953d d369 fb3d
00000180: 7eb5 443e 6779 b1bd 07c1 23be c3a2 b13d
00000190: 95e8 3ebe d066 48be 98d7 5bbe 69e2 f1bd
000001a0: 2fd3 26bd 355c 0fbe defd c1bd ed85 50be
000001b0: 8515 403e c553 36bd 1cde 1bbe 6b19 d83d
000001c0: bead 36be a6a7 1f3e 07b3 343e 5d23 6abe
000001d0: bf45 3cbe d376 1fbe 53b3 00be c3ab 0a3d
000001e0: bfb9 6cbe e0df 30be 1fdc d63d c4f1 a2bd
000001f0: f2bd b7bd 1480 48be 5721 183e 967d ab3d
00000200: e014 d7bd 3ef9 08be 3e68 de3d 9635 a63d
00000210: 6e5f ea3d c0ec bd3d 1ee5 44bc 2580 3abe
00000220: 30e0 1f3e 27b4 3739 6a5a 26be d4f3 4d3e
00000230: 8a3f 113e d1ee 3dbe bcab eabd d335 a2bd
00000240: 0022 06be ba33 fb3d 7461 1ebe cb72 723e
00000250: 72ae 8fbd e5e5 253e 7401 ec3c dc1b 96bd
00000260: a2b0 3f3e dab7 34be 9926 fbbd d04c 093d
00000270: 7db3 413e 40ca d1bd 7e86 0fbe 4482 1dbe
00000280: dde7 debd 21d9 aebd 8e0f 81bd b311 0ebe
00000290: e49f 803d 37de 4abb e9fb 1dbe 349c 13be
000002a0: 4a6b a53d afa6 2e3d f6a0 593e e74b 09bd
000002b0: 0e7e 3ebe b2bd 2ebe 93a3 77bd 5d78 08bd
000002c0: bbe9 713d b732 5dbd 1986 ae3d 94e0 96bd
000002d0: 0240 7e3e 82fe c13d 204e 9dbd 1dfc 993e
000002e0: 1d99 213e 4b32 1bbe 1d79 9bbd 19e5 7f3e
000002f0: 2e4d 0a3e 94b2 893e f526 e5bc 4175 2c3e
00000300: 6039 743e 8a69 813d 1495 afbd b04b a23e
00000310: db8e a83d 9fed aabd 4f3e 8e3d c4d8 ab3e
00000320: 1a3c 3d3e 2333 433c 9499 ae3e ce1d 3b3e
00000330: 3b8c 01be 1f56 33be aeb6 563e 094c ad3e
00000340: c354 d8bd 539f 843d e706 c83d 97b3 4c3d
00000350: a8ca 3dbd 2beb 6d3d 3c0d 093e b78a 613e
00000360: a3f1 0a3e 4155 773e d01e 633e a5d2 393e
00000370: 921a 7f3e 6cfa f6bd ba77 5f3e 9be2 4b3e
00000380: 7b15 4a3e 940b 693e 6c27 58bd 90d9 333e
00000390: 43e3 86bd 61ba 413e 4ca0 303e edb6 c8bd
000003a0: ed61 88bc 039e 07be 41de edbd dc32 b1bd
000003b0: c605 1cbe 3f6b 23be 9236 8cbe 6db3 49be
000003c0: f481 aebb 2e25 fb3d 417a 043f 84a3 423e
000003d0: d60f 173e bf55 c63d 9e23 3cbe 1e4d 633e
000003e0: f4c9 45be 1f07 8cbd 9e8e 0ebe 00a6 ea3d
000003f0: 6af4 48be f10a eebd d05a 19be 4080 14be

conv2.bias f4 [40]
0.18252389 0.19811267 0.14661022 0.085501395 -0.07960182 -0.047856987 -0.1107637 0.028168106
-0.15314673 0.098843426 0.122753374 0.15492745 -0.29984438 0.2714163 -0.15004365 0.0068255216
0.28225923 0.14330323 -0.034487072 0.014973598 -0.21130364 0.1897734 0.21916261 -0.040593095
0.06327051 -0.038604427 -0.13229649 -0.10933528 -0.041790683 -0.24028757 -0.2030359 0.027672261
-0.13616607 -0.11649751 0.021692127 -0.110918485 0.20343764 -0.06714892 -0.095688775 -0.07930648
00000000: 8be7 3a3e 0cde 4a3e fd20 163e 5b1b af3d
00000010: 4706 a3bd b005 44bd 14d8 e2bd cdc0 e63c
00000020: 7fd2 1cbe 6c6e ca3d 1f66 fb3d 4da5 1e3e
00000030: 3485 99be 14f7 8a3e 0ba5 19be a0a8 df3b
00000040: 4884 903e 15be 123e 5142 0dbd d253 753c
00000050: fb5f 58be f553 423e 2a6c 603e f244 26bd
00000060: f893 813d ad1f 1ebd bb78 07be 2deb dfbd
00000070: b52c 2bbd f20d 76be a5e8 4fbe f0b0 e23c
00000080: 1e6f 0bbe 3f96 eebd b0b3 b13c 3b29 e3bd
00000090: f551 503e 5f85 89bd 7af8 c3bd 706b a2bd

fc.weight f4 [10, 1000]
-0.025634352 0.016224854 0.026332235 -0.021709803 -0.013114199 0.0303232 -0.024942733 0.0031269288
-0.026934877 -0.028328823 5.6597135e-05 -0.028798051 0.0144961 -0.0054069073 0.005309828 -0.01938018
0.011385095 0.027956305 -0.0034645838 -0.018945016 -0.031341642 0.02963786 0.013010555 0.011337953
0.0060068937 0.014341663 0.009936906 0.01601888 0.021637851 0.006483338 0.028648976 0.021804692
-0.0033641872 -0.020383578 0.004336712 0.028819244 0.021676926 -0.023478545 -0.01633016 0.010677661
0.0076793097 0.025996506 0.019779116 0.014066235 0.008027665 -0.032387182 -0.010098931 0.008664582
-0.020880278 -0.031412758 0.015489461 -0.0061830645 -0.050876815 -0.026422454 0.0012001166 0.011218633
0.0033922144 -0.043528333 -0.012300426 -0.052297197 -0.0027200242 -0.04194515 -0.049503315 -0.04703578
0.008071399 -0.02104446 -0.027868625 -0.04421445 -0.027756494 -0.0034234112 0.018428596 0.010094429
0.045708016 -0.017811403 0.01071945 -0.009940084 -0.0062831417 -0.005750794 0.0023583416 -0.009674674
0.0043072468 -0.018369913 0.0113161905 -0.034267962 -0.015486461 -0.02558457 0.020243354 0.021445977
-0.025266996 -0.020848924 0.023376573 0.002993216 0.014657181 -0.028500987 -0.002107967 0.017931582
-0.021044701 -0.012824471 0.025930183 0.017019443 0.0062269587 -0.006261515 -0.033527233 -0.050238967
-0.006946794 -0.011462063 0.019620808 -0.012595945 0.010696939 -0.0061891126 -0.006867774 0.028650466
0.07075106 0.038252257 -0.019990519 0.00088203757 0.03430506 -0.011486814 -0.10685263 0.0009696544
0.005038743 -0.003119228 -0.014542958 0.0040493645 0.07837688 0.0041999905 0.021900967 0.006001506
-0.0036189933 0.0040741926 0.020008987 0.0037031895 0.018333249 -0.0049699913 -0.0033527666 0.026171219
-0.03349979 0.0044747274 0.020474631 -0.015535587 -0.0029452757 0.0023464644 0.0014131978 0.013960329
0.011698662 0.009347966 -0.012517115 0.019759346 -0.0052828602 0.019632583 -0.00946258 -0.028098576
0.0015061019 0.017253011 0.0048852772 9.798196e-05 -0.0011197621 0.02059401 -0.0013476965 -0.017777074
-0.022541512 0.008337147 0.013375404 0.027641352 0.005345921 0.024307735 -0.015367185 -0.014597528
-0.012019159 -0.02620391 -0.009382431 0.0059488295 -0.03079103 0.00675824 -0.033499382 0.022709908
0.008023289 -0.0037495827 -0.021025287 0.011956526 -0.016171148 0.025635289 -0.02543563 0.008289169
0.016410636 -0.01166246 -0.010859619 -0.012273587 -0.00492068 0.033623286 0.023997199 0.0024313736
-0.019755099 -0.029285599 0.022945197 0.0022167582 0.001410244 0.036422346 -0.011135052 -0.010093809
0.004768451 0.02048533 -0.017354203 0.021692563 0.02867878 -0.010396482 0.02056993 0.024154607
0.040643595 -0.0024956681 -0.020077437 -0.016069219 -0.030237818 -9.384341e-05 0.030183764 0.03002691
0.017785452 -0.004651837 -0.006461118 0.021006731 0.018956792 0.010844444 -0.0049412134 0.009447691
-0.0017077955 -0.025820265 -0.020882618 0.021319661 0.023022797 -0.013745667 -0.008284158 -0.016968789
-0.01499427 0.02177797 -0.03222026 0.017513778 -0.03209795 -0.03135855 -0.0075362055 0.0023159808
-0.01019572 -0.02100328 -0.010217922 -0.006119068 -0.018638836 -0.022425422 0.02387327 -0.014828025
-0.027533272 0.021302992 0.009173158 0.009176978 -0.035119668 -0.010980702 0.0073387856 -0.021752844
00000000: 22ff d1bc fce9 843c b3b6 d73c c2d8 b1bc
00000010: f0dc 56bc 5c68 f83c b454 ccbc 29ed 4c3b
00000020: 88a6 dcbc d911 e8bc b662 6d38 e4e9 ebbc
00000030: 0d81 6d3c 6d2c b1bb 11fe ad3b 2fc3 9ebc
00000040: 8d88 3a3c 9f04 e53c 120e 63bb 9432 9bbc
00000050: 1860 00bd 19cb f23c 392a 553c d2c2 393c
00000060: 7ad5 c43b 4bf9 6a3c 68ce 223c 073a 833c
00000070: dd41 b13c 2e72 d43b 42b1 ea3c c19f b23c
00000080: b279 5cbb 76fb a6bc fa1a 8e3b 5616 ec3c
00000090: cf93 b13c 1456 c0bc d4c6 85bc 5bf1 2e3c
000000a0: b8a2 fb3b a0f6 d43c d007 a23c 1176 663c
000000b0: 7886 033c 6ca8 04bd fd75 25bc e4f5 0d3c
000000c0: 1e0d abbc aaaa 00bd 82c7 7d3c 4e9b cabb
000000d0: 3564 50bd e773 d8bc 3b4d 9d3a 5bce 373c
000000e0: ea4f 5e3b c44a 32bd ba87 49bc 9635 56bd
000000f0: 6f42 32bb adce 2bbd fdc3 4abd 97a8 40bd
00000100: e73d 043c 6e65 acbc be4c e4bc 361a 35bd
00000110: 9661 e3bc 4f5b 60bb 91f7 963c 1b63 253c
00000120: 5438 3b3d 38e9 91bc a2a0 2f3c bcdb 22bc
00000130: d0e2 cdbb 2871 bcbb 688e 1a3b 8682 1ebc
00000140: ce23 8d3b 807c 96bc 8b67 393c 905c 0cbd
00000150: edba 7dbc bb96 d1bc 64d5 a53c 79af af3c
00000160: bbfc cebc 5dcb aabc 3a80 bf3c d529 443b
00000170: ac24 703c e77a e9bc d125 0abb 41e5 923c
00000180: f065 acbc bb1d 52bc 896b d43c 5c6c 8b3c
00000190: 840b cc3b 652d cdbb da53 09bd 60c7 4dbd
000001a0: efa1 e3bb 60cb 3bbc d1bb a03c 395f 4ebc
000001b0: 3742 2f3c 0ace cabb 100b e1bb 62b4 ea3c
000001c0: efe5 903d 66ae 1c3d 28c3 a3bc 8a38 673a
000001d0: 7683 0c3d 3133 3cbc 8dd5 dabd 6830 7e3a
000001e0: 0a1c a53b f66b 4cbb 9645 6ebc 88b0 843b
000001f0: 0f84 a03d 13a0 893b a869 b33c 48a8 c43b
00000200: a22c 6dbb ce80 853b e3e9 a33c 36b1 723b
00000210: 9c2f 963c 4fdb a2bb 17ba 5bbb 0665 d63c
00000220: 1337 09bd bca0 923b 6aba a73c fa88 7ebc
00000230: 8705 41bb 24c7 193b 0d3b b93a ddb9 643c
00000240: bfab 3f3c 3628 193c 9614 4dbc 5ade a13c
00000250: d81b adbb 83d4 a03c f008 1bbc fc2e e6bc
00000260: 6568 c53a 3056 8d3c ad14 a03b aa7b cd38
00000270: fbc4 92ba c5b4 a83c 31a5 b0ba 3aa1 91bc
00000280: faa8 b8bc 8798 083c 8324 5b3c 1e70 e23c
00000290: d62c af3b 0421 c73c a5c6 7bbc 782a 6fbc
000002a0: 02ec 44bc 95a9 d6bc c5b8 19bc 66ee c23b
000002b0: 783d fcbc 3a74 dd3b a636 09bd 210a ba3c
000002c0: 1d74 033c 8fbb 75bb 393d acbc 4ee5 433c
000002d0: 5b79 84bc 1901 d23c 625e d0bc 4bcf 073c
000002e0: 996f 863c e713 3fbc 8bec 31bc 2817 49bc
000002f0: a83d a1bb 92b8 093d c695 c43c ae57 1f3b
00000300: 72d5 a1bc 5ae8 efbc 91f7 bb3c 0847 113b
00000310: f0d7 b83a 992f 153d cb6f 36bc 8160 25bc
00000320: ab40 9c3b dad0 a73c 672a 8ebc 9ab4 b13c
00000330: c3ef ea3c 0256 2abc 4582 a83c e2df c53c
00000340: e679 263d 5d8e 23bb 7079 a4bc 98a3 83bc
00000350: 4db5 f7bc cccd c4b8 f143 f73c fffa f53c
00000360: ccb2 913c 706e 98bb c9b7 d3bb 4f16 ac3c
00000370: 464b 9b3c e5ac 313c e7e9 a1bb 7dca 1a3c
00000380: 1cd8 dfba 0585 d3bc 0612 abbc 92a6 ae3c
00000390: 4e9a bc3c 8235 61bc 47ba 07bc 2102 8bbc
000003a0: 87aa 75bc b767 b23c 64f9 03bd 0e79 8f3c
000003b0: 2479 03bd d371 00bd 46f2 f6bb b6c7 173b
000003c0: f30b 27bc 120f acbc 1269 27bc 7682 c8bb
000003d0: 79b0 98bc 85b5 b7bc e091 c33c 3ff1 72bc
000003e0: 758d e1bc 9d83 ae3c 034b 163c 095b 163c
000003f0: a4d9 0fbd 67e8 33bc 327a f03b 0533 b2bc

fc.bias f4 [10]
0.010568957 0.023366315 0.03230913 -0.053924784 -0.02216033 0.010763555 0.021379054 0.028609602
-0.047944542 -0.0055141817
00000000: 6b29 2d3c b76a bf3c 9456 043d 3ce0 5cbd
00000010: 9589 b5bc 9f59 303c 2023 af3c af5e ea3c
00000020: 7f61 44bd 4fb0 b4bb
