ckpt/mnist_cnnbn_qat.pt (torch, 119408 bytes, 28 tensors)

conv1.weight f4 [40, 1, 3, 3]
000000 77 de 85 3e 4c d9 6a be 14 23 3e bd 19 5f 0d 3e
       0.2614629 -0.22934455 -0.04642017 0.13805808
000010 12 1c f5 be 87 55 7c 3e 63 7c fb bd fe 08 b0 3d
       -0.47872978 0.24642001 -0.12279584 0.08595465
000020 56 25 0e 3e 68 de 52 3d fc 1a c8 3d cc 33 0b be
       0.1388143 0.051481634 0.09770772 -0.13593978
000030 ec 75 98 3e ac 71 04 be a9 e2 84 be 07 1c 63 3e
       0.29777467 -0.12933987 -0.25954178 0.2217866
000040 e8 f7 05 3e 59 10 12 be c8 17 9e 3e ea 0c d1 3d
       0.1308285 -0.14264049 0.3087752 0.10207541
000050 0b 30 00 be 42 8e 8e be c7 bc 5c be 47 94 62 be
       -0.12518327 -0.2784291 -0.21556388 -0.22126876
000060 93 67 1a be 8c f1 ee 3c 42 be 8c 3e 59 fc 86 3e
       -0.15078573 0.029167913 0.27488905 0.263644
000070 39 dd 38 be 75 1e 93 3e 04 83 e5 3d 9c 82 bc 3e
       -0.1805314 0.28734174 0.1120663 0.36818397
000080 c0 e1 63 3e a6 e2 c6 be ab 60 cc be a4 bd 92 be
       0.22254086 -0.38844794 -0.39917502 -0.2866031
000090 09 ba 94 3e 10 fd 35 3c 6a 8f 34 3e e4 ea 77 bd
       0.29048184 0.011107698 0.17632833 -0.060526744
0000a0 2d 6b c1 3e f3 f3 41 be 10 73 a8 3e b5 cc c5 3b
       0.3777708 -0.18940715 0.32900286 0.006036366
0000b0 b1 1e 85 be 33 8b 5f 3e e2 3a 28 be f6 51 d2 3d
       -0.25999978 0.21830444 -0.16428712 0.10269539
0000c0 a9 51 ec bd 13 d0 81 bd 87 7b a5 be 3d 4c 40 be
       -0.11539013 -0.06338515 -0.32320806 -0.18779083
0000d0 51 15 20 3e bd 7c 7a bd c9 35 b6 3e 6a 73 99 3e
       0.15633132 -0.061154116 0.3558791 0.29970866
0000e0 c6 60 67 bb 17 dc 73 be e5 53 7c 3e 40 7c 04 3e
       -0.0035305484 -0.23814426 0.24641378 0.12938023
0000f0 af ec 82 be bd bc 61 3e 80 04 77 3e 14 99 ab 3e
       -0.255712 0.22044654 0.2412281 0.33515227
000100 cc be 35 be 00 d7 af bd cb 38 84 3c 08 ff 88 3d
       -0.17748564 -0.0858593 0.016140362 0.06689268
000110 46 2c 85 be 32 4a 78 be cf 10 3a 3e 71 54 be bd
       -0.2601034 -0.24247053 0.18170474 -0.0929345
000120 c5 56 4a 3e 37 ca 53 3d 6e 75 21 3e db e2 a1 3d
       0.19759662 0.05170652 0.15767452 0.07904597
000130 c1 f3 23 3e b6 cb 4c 3e 4b 93 af be 19 6e 18 3e
       0.16010953 0.19999585 -0.34292063 0.14885749
000140 24 18 55 be cb 86 ae be 7d 63 9e bd 9a aa f1 bd
       -0.2080999 -0.34087214 -0.0773382 -0.11800118
000150 ae f0 5f 3e d7 77 39 be 09 b9 a0 be bb 9f ae 3e
       0.21869156 -0.18112122 -0.3139117 0.3410624
000160 31 76 af 3d 61 97 63 3e 61 58 bb 3d 9a 40 8c be
       0.08567465 0.22225715 0.09147716 -0.27393037
000170 ff d9 cb 3d dd a2 37 3e b5 62 5f be 35 9b 37 be
       0.09953689 0.17933221 -0.21814997 -0.179303
000180 ee f0 81 3e 38 e2 e2 3d 72 75 3f be ba f6 72 bd
       0.25379127 0.11078304 -0.18697146 -0.059317328
000190 bd f5 9d 3e a6 39 35 be 7f e0 7a 3e e5 22 75 3e
       0.30851546 -0.17697772 0.24499701 0.23939092
0001a0 4f 95 b2 be 57 95 70 be 40 9d d0 3e 58 d2 32 bc
       -0.34879538 -0.23494469 0.40744972 -0.010914408
0001b0 0e 9f 8b 3e c5 71 a9 3d 17 ab ce 3d d7 21 8e 3e
       0.27269787 0.08273653 0.100912265 0.27760193
0001c0 d3 de a9 3e f6 f6 59 be bf 03 84 3d 5a 25 8b 3e
       0.33177814 -0.21285614 0.06446027 0.27176934
0001d0 46 1d 87 3e 60 df 37 3e 25 c4 96 be 55 ee 84 be
       0.2638952 0.17956305 -0.2944652 -0.25963083
0001e0 93 23 97 be 1d 99 21 bd b1 8d b2 3e ad 26 3f be
       -0.29519328 -0.03945266 0.34873727 -0.18667097
0001f0 dc 5e 81 3e 3d 59 df bd fd 23 c9 be 62 5a fc bd
       0.25267684 -0.10905693 -0.3928527 -0.12321927
000200 80 4c 05 3e dd 5d 87 3e ec 8b 38 be 12 cc b3 3d
       0.13017464 0.264388 -0.18022126 0.08779158
000210 9e d3 a4 3e 9f d0 92 3e d2 cd 87 3e 87 c2 b2 3e
       0.321927 0.2867479 0.26524216 0.34914038
000220 1e 78 b2 3e 0b 80 17 3e 06 60 69 be a1 92 7c be
       0.34857267 0.14794938 -0.22790536 -0.2466531
000230 e4 02 67 be 8b 99 c6 bd 88 47 4e be f5 49 1b 3d
       -0.22559696 -0.09697255 -0.20144475 0.037912328
000240 a5 33 dd 3d c7 eb 41 bd a3 c0 18 3e 08 bf f0 3d
       0.10800866 -0.047343995 0.14917235 0.11755186
000250 19 26 60 3e 57 0e 75 3e 0e 4d dc bd 85 35 a4 3e
       0.21889533 0.23931251 -0.107568845 0.32072082
000260 0d 11 07 bd 85 8c 7e bc 10 d6 a8 be 43 f0 50 be
       -0.032975245 -0.015536432 -0.32975817 -0.20404153
000270 97 d8 54 be 0d 70 0f be 7f 82 98 3e 3c 90 07 be
       -0.20785747 -0.14007588 0.2978706 -0.13238615
000280 c2 51 66 be 8f 79 60 3e c9 68 55 3e d7 38 86 3e
       -0.22492126 0.21921371 0.20840754 0.2621524
000290 ce f6 35 be c6 b1 0e 3e 65 ef 0b be 27 69 20 be
       -0.1776993 0.13935003 -0.1366554 -0.15665112
0002a0 04 63 89 be 06 c9 41 be cb dd 18 be 90 65 1a 3e
       -0.26833355 -0.1892434 -0.14928357 0.15077806
0002b0 12 38 aa 3d 34 83 c7 3d 9c 17 ab 3e ed af ae 3e
       0.08311476 0.09741822 0.3341645 0.34118596
0002c0 8c 2a 7f 3e c9 05 0e bc 69 8a 5a be 37 93 93 3e
       0.24918574 -0.0086683715 -0.21341862 0.28823254
0002d0 f7 b8 b3 bd e6 c9 17 bd c6 fa 95 be d9 73 8d bd
       -0.087755136 -0.03705778 -0.29292887 -0.06906862
0002e0 cf 9e 5e be aa 42 a4 3e 2f da 92 be ce 8b 81 be
       -0.21740268 0.3208211 -0.28682086 -0.25301975
0002f0 03 55 a3 3c bb ae 8a be f4 31 95 3d 57 b2 93 bd
       0.019937998 -0.27086434 0.072849184 -0.0721175
000300 6a b0 89 be 51 6f 22 bd 6b 59 98 3e 37 a5 95 be
       -0.26892406 -0.03965694 0.2975572 -0.2922761
000310 78 66 20 3e eb 58 9e 3e ab 4e c3 3e fc b5 61 be
       0.15664089 0.30927214 0.38145956 -0.22042078
000320 a4 2a 9e bc b5 a5 04 be 13 f6 a4 3e 84 76 3f be
       -0.019307442 -0.12953837 0.3221899 -0.18697554
000330 2d 64 82 3e a1 6c a3 3d 49 9c a9 bc 55 28 c5 3c
       0.25467053 0.07979704 -0.020704405 0.024067083
000340 eb b9 9f 3d 7b 08 3d 3e fb d6 bf 3d fa 2b 0e 3e
       0.07799133 0.18460266 0.09367176 0.13883963
000350 6b 60 84 be 25 7a 8f 3e 9d 69 aa 3e 89 0d 9d 3e
       -0.2585481 0.28022876 0.33283702 0.3067439
000360 de 56 8d 3e 20 29 93 be f0 f0 2b be 45 a9 91 3e
       0.27605337 -0.28742313 -0.16791129 0.28449455
000370 6f 6b c8 be 83 db 74 3e eb ea 81 be 0e c6 9f be
       -0.39144465 0.23911862 -0.2537454 -0.3120579
000380 40 7a 20 3e cd 50 8d be 62 1a 8c bd d5 f4 98 3e
       0.15671635 -0.2760071 -0.068409696 0.29874292
000390 61 72 85 3e ec 89 b5 3e 40 e1 2b bc 80 0e 57 be
       0.26063827 0.3545679 -0.0104907155 -0.21001625
0003a0 7d 2c bc 3e 38 5f 97 bd 7d 1d 1c be a8 03 3c 3d
       0.36752692 -0.073912084 -0.15245624 0.045901924
0003b0 70 e9 89 be b1 44 74 3e a9 44 8f 3e 99 1a 81 be
       -0.2693591 0.23854329 0.2798207 -0.25215605
0003c0 b5 54 8a be 46 61 05 3d f6 87 17 3e b6 59 19 bd
       -0.2701775 0.03256347 0.14797959 -0.03743907
0003d0 ad c9 21 be cd 53 cb 3c 3a a5 98 be 31 bc 88 be
       -0.1579959 0.024820233 -0.29813558 -0.2670608
0003e0 a8 eb 8a be 90 78 c0 3e 82 21 b5 3e e5 f8 ad bd
       -0.27132916 0.37591982 0.35377127 -0.084947385
0003f0 e0 84 b1 bc b2 9f 2e 3e cd 0f 5d 3d c5 b4 8f be
       -0.021669805 0.17053106 0.053970147 -0.28067604

conv1.bias f4 [40]
000000 15 66 13 be a3 44 92 be 01 48 81 3e f3 ab 72 bd
       -0.1439441 -0.2856799 0.25250247 -0.059246015
000010 1f e0 14 3e 64 ab f1 3c 71 ee 9d be a7 1c 32 be
       0.1453862 0.02950067 -0.3084598 -0.17393743
000020 a0 56 b7 3d 51 53 1f bd 60 ab 96 be 89 18 ff 3d
       0.08952069 -0.038897816 -0.29427624 0.124558516
000030 33 7f 75 3c 5f af c1 bd c6 1c 08 3e 4f 76 be 3d
       0.01498394 -0.094572775 0.13292226 0.09299909
000040 a2 d2 01 be 74 93 aa 3e ba d9 43 3e 22 af 28 3d
       -0.12678006 0.33315623 0.19126025 0.041182645
000050 4f ef 76 bd 67 d3 8a be ad 93 78 3e c3 93 93 bd
       -0.060286816 -0.27114412 0.24275084 -0.07205918
000060 ff e3 2f be cc 74 64 3e 05 58 15 3e ea f1 cc 3d
       -0.17176817 0.2231018 0.14584358 0.10007079
000070 94 8a 8a bd e3 d5 c1 bd e1 e4 9b 3d 1f c2 87 3e
       -0.06764713 -0.09464624 0.076120146 0.2651529
000080 98 44 e9 3b 98 ef 19 be 3d d0 b1 3e 67 c7 a2 3c
       0.0071187727 -0.15032804 0.34729186 0.019870473
000090 12 36 8c 3e a9 f7 c4 3d e0 96 a3 3e 91 24 46 3e
       0.27385002 0.0961755 0.31951046 0.19349886

bn1.weight f4 [40]
000000 ac 0f 8b 3f 38 66 8d 3f 52 7a 8d 3f 03 ed 8e 3f
       1.0864158 1.104682 1.1052954 1.116608
000010 92 e3 86 3f 73 bd 81 3f 35 e6 84 3f 9f 89 81 3f
       1.0538199 1.013594 1.0382754 1.0120124
000020 a9 ff 80 3f 41 b9 8a 3f d3 6d 88 3f 36 3f 88 3f
       1.0078021 1.0837785 1.0658516 1.064429
000030 92 b0 82 3f 31 3b 86 3f af ce 84 3f 98 98 8a 3f
       1.0210135 1.0486814 1.0375575 1.0827818
000040 4a 76 7e 3f 95 14 86 3f 24 0c 8a 3f 54 9f 80 3f
       0.99399245 1.0475031 1.0784955 1.0048623
000050 42 f3 80 3f 9f 83 8b 3f d7 27 80 3f a3 d6 81 3f
       1.0074236 1.0899543 1.0012158 1.0143627
000060 d6 7b 8b 3f 11 ea 81 3f ee c6 82 3f 7f 0a 8a 3f
       1.0897167 1.0149556 1.0216959 1.0784453
000070 50 ba 83 3f 22 b9 83 3f 2a 7b 8b 3f 9c 14 83 3f
       1.0291233 1.0290873 1.0896962 1.0240664
000080 ab a5 8d 3f 0b 1e 80 3f 8d 46 86 3f 45 1d 90 3f
       1.1066183 1.0009168 1.049028 1.1258932
000090 c7 4b 95 3f 52 31 81 3f 09 bd 82 3f 91 df 80 3f
       1.166375 1.0093176 1.0213939 1.0068227

bn1.bias f4 [40]
000000 7c 3f 87 3b 33 96 1b 3a d2 81 4b 3c 74 be aa bc
       0.004127441 0.0005935162 0.012421088 -0.020842768
000010 62 68 b5 bb c1 6e 97 3b 62 a2 60 bc 52 fb 20 bc
       -0.005536125 0.004621357 -0.01371059 -0.009825544
000020 f1 bd e4 bb 2e 6c 32 3c ea 20 26 3c 51 ec 8b bc
       -0.0069806506 0.01089005 0.010139683 -0.017080458
000030 c2 7d 8c bb 05 92 a9 3a db b7 9b bc 9b e6 19 3c
       -0.0042874524 0.0012937194 -0.019008568 0.00939336
000040 05 24 17 bc 7a 56 de 3c 30 ea c1 3b 3a 50 68 bc
       -0.009224896 0.027140845 0.00591781 -0.014179284
000050 d3 f9 0c 3a 5d fa 91 bb 7a 0b 9f bc be 99 f5 3b
       0.0005377803 -0.0044548945 -0.019414652 0.007495134
000060 30 60 95 3c 96 6c c2 bb dc a7 b9 3b 76 ca 09 3c
       0.018234342 -0.0059333546 0.0056657623 0.008410087
000070 4d ae 06 bc d9 ef 80 3a 8e 13 4e 3a 09 75 60 bc
       -0.0082202675 0.0009837105 0.000786119 -0.013699778
000080 26 2b 8f bc b6 48 95 39 9e c8 2a 3b 0a b9 a2 bb
       -0.01747663 0.00028473668 0.0026059519 -0.004965906
000090 30 40 b5 bc 6f 58 94 3c 0b ab 6a 3c 89 ee b2 bb
       -0.022125334 0.018108575 0.014323006 -0.0054605645

bn1.running_mean f4 [40]
000000 d4 5f 11 be 68 83 8d be cd 60 6e 3e d8 65 77 bd
       -0.14196712 -0.27639318 0.23279114 -0.06039986
000010 7b b3 42 3e 30 76 34 39 be a6 79 be d8 bd 42 be
       0.19013779 0.00017210166 -0.24380013 -0.19017732
000020 b2 c3 f0 3d d5 e5 4c bd d6 c1 9a be 4c 42 1a 3e
       0.11756076 -0.050023872 -0.3022601 0.15064353
000030 8d 5c df 3d cd 34 f7 bd b2 8d 34 3e 46 c8 ad 3d
       0.109063245 -0.12070618 0.17632177 0.08485465
000040 af 78 83 bd 0a 1e 92 3e 7e a1 23 3e 58 d7 01 3e
       -0.06419503 0.28538543 0.15979573 0.12679803
000050 4d b2 f3 bd 2b f5 8d be 4e db 8b 3e e9 03 9c 3b
       -0.118992426 -0.2772611 0.27315754 0.0047612083
000060 d8 ea 4d be 59 22 88 3e 96 d7 08 3e bb d8 9a 3d
       -0.20109117 0.26588705 0.1336349 0.07560869
000070 d5 de 23 bd ec 87 c0 bd 94 06 83 3d 59 1b 95 3e
       -0.04000743 -0.09400925 0.06397739 0.29122427
000080 f2 14 04 bc 3a b5 4b be 0d c7 b3 3e 23 dc e4 3c
       -0.008061634 -0.19893351 0.351128 0.027937
000090 c0 5f 91 3e 13 cf fe 3c cc cd 89 3e fc 68 84 3e
       0.28393364 0.0311046 0.26914823 0.25861347

bn1.running_var f4 [40]
000000 33 46 f0 3d ec 2d 92 3e 1f b1 67 3e 71 fe e4 3e
       0.117321394 0.2855066 0.2262616 0.44725373
000010 ee e9 1e 3f ac 0d 61 3e db 1e 66 3f af 5b 2c 3e
       0.620757 0.21977872 0.8989083 0.1683185
000020 79 0d a1 3e 7d ec a3 3e b6 e2 37 3e 35 7a 9a 3e
       0.3145559 0.32016364 0.17957577 0.30171362
000030 fe 5b d6 3f b8 37 86 3e 7b af 34 3f b0 56 b5 3e
       1.6746824 0.26214385 0.7058026 0.354177
000040 a7 3b 4f 3f 02 5b 33 3f ca 52 f9 3e 95 55 b4 3f
       0.809504 0.7006074 0.48695976 1.4088618
000050 c2 97 3d 3f a3 21 02 3f 61 0b 8a 3e 03 29 91 3f
       0.7405969 0.50832576 0.26961806 1.1340641
000060 11 bf d6 3e db a5 11 3f d5 9d b7 3d 5b 06 b2 3e
       0.41942647 0.568937 0.08965651 0.34770474
000070 26 c5 bb 3e c0 47 76 3e 50 79 de 3e f6 6f 4a 3e
       0.3667385 0.24050808 0.4345193 0.19769272
000080 ed 10 81 3e bb 25 e1 3e 68 84 83 3e f5 5c 52 3e
       0.25208226 0.439741 0.25686955 0.20543273
000090 a3 4b ef 3e 19 9f 40 3f eb 11 13 3f db d2 69 3f
       0.46737394 0.75242764 0.57449216 0.91337365

conv2.weight f4 [40, 40, 3, 3]
000000 8c e9 8d bc 4e ce 85 3d 1d 29 08 3d 97 91 4a bd
       -0.017323278 0.0653349 0.033242334 -0.04945525
000010 d8 cd 71 3d 02 9d 16 bd b5 20 8c 3c 97 1d 07 3d
       0.0590342 -0.036770828 0.01710544 0.032987203
000020 e8 55 67 3d 6c 06 65 3c 02 f0 59 bb d6 3c 34 3d
       0.05647841 0.013978582 -0.0033254628 0.04400333
000030 e2 d5 d2 3c 10 95 01 bd cb b0 fc 3c 78 aa 28 3a
       0.025736753 -0.031636298 0.03084602 0.0006434093
000040 7e 75 90 bc b6 4a 7a 3d c3 14 24 bd 7c 59 e8 bc
       -0.01763415 0.061106406 -0.040058862 -0.028362982
000050 2a a3 30 bd fa 2a 69 3c 4e 22 41 3c 04 7c fd 3c
       -0.043124355 0.014231438 0.011787964 0.030942924
000060 b3 ff 8c 3c 24 8d 26 3d be ec c8 bb f6 fc 34 bd
       0.01721177 0.040661946 -0.0061317375 -0.044186555
000070 e7 81 5a bb 0a 0c be bc 5c d2 89 bc b7 3c 60 bd
       -0.0033341588 -0.0231991 -0.01682394 -0.054745402
000080 f6 c2 01 bd fa 42 e3 3b af 04 a5 ba d8 72 57 bd
       -0.03168007 0.0069354745 -0.0012589897 -0.052599758
000090 61 43 c7 3c bf 4d ae bb af 70 1f 3d 3a 66 17 3d
       0.024324121 -0.0053193267 0.038925823 0.036962725
0000a0 c7 cd e1 bc dd dd 8c 3d 2b 57 1a bd fe ff 8d 3d
       -0.027563943 0.068782546 -0.037680786 0.06933592
0000b0 06 35 f4 3c 94 2c bf 3c ba 47 ef bc 1c f9 f8 3c
       0.02981044 0.023336686 -0.029209007 0.030392222
0000c0 59 24 0f bd 27 da 7f bd 0e 40 b1 3b 57 47 94 3c
       -0.034946773 -0.062463906 0.0054092472 0.018100424
0000d0 54 90 4f 3d 8f 53 56 3c f8 40 8d 3d 5c e9 05 3d
       0.05067475 0.013081445 0.068971574 0.032693252
0000e0 45 ea 37 3b 5c b1 1f bd b1 98 f0 3c a0 21 98 bc
       0.002806322 -0.038987502 0.029369684 -0.018570721
0000f0 ea e9 08 3d a0 f3 6d bd f6 cf 92 3c 25 23 93 3c
       0.033426203 -0.058093667 0.01792143 0.017961094
000100 d9 fe 87 bc 94 91 b2 3c 1c 80 56 bd e1 b0 db bc
       -0.016601013 0.021797933 -0.05236827 -0.02681774
000110 9b 5b e4 bb 6b f5 18 bd 94 f6 1c 3c 4b 2d b3 3b
       -0.006968928 -0.037343424 0.009580273 0.005468046
000120 d5 2f 65 3d ae 37 f6 3c c8 83 3e 3d 4f 7e 23 3d
       0.05595382 0.030055847 0.046512395 0.03991538
000130 1d 08 86 bd c3 2d 06 3c 5e 84 03 3d 76 b8 12 bd
       -0.06544516 0.008189621 0.032108657 -0.035820447
000140 fd 92 85 3c 6c e1 45 bc 70 eb 90 3c 2c 28 16 3d
       0.016305441 -0.012077671 0.01769039 0.036659405
000150 26 57 8b 3d 93 ae b1 bc 0d 2a 8a bd 50 1a 3a 3d
       0.068037316 -0.021689689 -0.06746302 0.04543525
000160 d1 ac 1d bb b9 e6 15 bc 5f 38 38 3d 04 95 d6 ba
       -0.0024059305 -0.009149247 0.044975635 -0.0016371314
000170 82 d2 67 3d b0 4c 00 bd 02 3f 2a 3c 9c d6 bc 3b
       0.05659724 -0.031323135 0.010390999 0.005762888
000180 51 a6 b1 3c 39 68 29 bd dd 6c 23 bd 81 33 17 3d
       0.021685751 -0.04135916 -0.039898742 0.036914352
000190 90 6b e5 bc 2b ff 8c ba 7e 01 08 bd f3 ed 22 bd
       -0.028005391 -0.0010757198 -0.033204548 -0.039777707
0001a0 3e 8d e2 3b 19 ad cf bc 60 f7 a8 bc 21 d3 1b bd
       0.00691381 -0.025351094 -0.02062577 -0.038043145
0001b0 f6 04 0d 3d a3 26 a5 bc 0c 42 07 bd 26 81 8a 3c
       0.03442856 -0.020160025 -0.03302197 0.016907286
0001c0 d3 61 43 bd 17 93 00 3d df 4f 1b 3d bd 61 5c bd
       -0.047700714 0.031390276 0.037917968 -0.053804148
0001d0 af 17 44 bd 7a 78 28 bd 27 79 08 bd 59 0c 1b 3c
       -0.04787415 -0.04113052 -0.033318665 0.009463393
0001e0 ec 43 af bd 29 a7 03 bd 1d 99 ea 3c c4 f4 e7 ba
       -0.08557877 -0.03214184 0.028637463 -0.0017696847
0001f0 85 4c f0 3c aa 51 da bc ee 59 46 3b bf 78 76 bc
       0.029333362 -0.026650269 0.0030266005 -0.015043437
000200 65 88 f0 bc f0 ef 18 bd a5 bc ce 3c ba 7e a1 3c
       -0.029361913 -0.037338197 0.025236437 0.019713748
000210 13 82 2d 3d fb 18 16 3d 53 35 9e bc ba 97 33 bd
       0.042360377 0.036644917 -0.019312536 -0.04384587
000220 a1 e1 02 3d f0 08 93 bb 77 19 85 bd 64 15 39 3d
       0.031953458 -0.0044871494 -0.06498998 0.045186415
000230 c0 a7 21 3c dc 62 1b bd 89 63 c0 bc cf 6b 67 bc
       0.009866655 -0.037936077 -0.023484962 -0.014124825
000240 dd 9f e4 bc 17 52 d5 3b a5 3b dc bc 96 14 50 3d
       -0.02790826 0.00651003 -0.02688391 0.050800882
000250 11 96 8a bc 4c 44 08 3d a5 7a ad 3c e4 45 20 bc
       -0.01691726 0.033268258 0.021176646 -0.009782288
000260 78 e0 0a 3d bb 61 2d bd ce d5 0a bd 7f 48 fb 3b
       0.033905476 -0.04232953 -0.033895306 0.0076685543
000270 a6 da ee 3c 8a 76 96 bc d9 5d ea bc 3d db f8 bc
       0.029156994 -0.01836707 -0.028609203 -0.030377978
000280 5f 82 3e bc f2 4b 49 bc 42 53 d7 bc 38 74 4e bd
       -0.011627763 -0.012286173 -0.026284818 -0.050403804
000290 e7 73 e3 ba 81 09 cb bc c0 a5 27 bd a0 78 ed bc
       -0.0017353267 -0.024784805 -0.040929556 -0.028988183
0002a0 34 56 49 3c c2 6f bc 3c 03 28 93 3d c7 45 a5 bb
       0.012288619 0.023002509 0.07185366 -0.0050437185
0002b0 c9 07 57 bd af 92 46 bd e9 da ab bc 60 71 e1 bc
       -0.05249766 -0.048479732 -0.020978408 -0.027519882
0002c0 ef 99 0b bc 2e 8f 1b 3a a0 25 9a 3c 4b 91 9e bc
       -0.008520587 0.0005934116 0.01881677 -0.01935639
0002d0 d4 0d 23 3d bf 0b 1f 3c e5 76 88 bc 6a 5f 19 3d
       0.03980811 0.00970739 -0.016658256 0.03744451
0002e0 fa 45 66 3c 27 19 0c bd 2c e2 ec bc 81 76 14 3d
       0.01405477 -0.034203675 -0.02891644 0.036245827
0002f0 13 7d d9 3c 07 0b f7 3c 82 7a 53 bc c8 04 67 3d
       0.026548898 0.030156625 -0.012907626 0.056401044
000300 3f 8c 59 3c 72 3f ea 3c ea 98 ca 3c 0b 89 77 3d
       0.013278066 0.028594706 0.024731118 0.06043343
000310 66 d4 ef 3c 2f a1 77 3a 4a 4b d8 3b 36 43 43 3d
       0.029276084 0.00094463205 0.006600772 0.04767152
000320 f5 e5 40 3d 40 cb 24 3b 8a 09 7c 3d f1 d2 bc 3c
       0.047094304 0.002514556 0.061532535 0.023049803
000330 88 7a 5b bc b0 00 00 bd a3 ac df 3c 7b e5 40 3d
       -0.013395913 -0.031250656 0.027304 0.04709385
000340 78 e1 3f bd 15 5a cb 3c 54 8a 1e 3c e8 a4 a6 bb
       -0.046845883 0.024823228 0.009676535 -0.0050855763
000350 77 3a 64 bb 50 a0 bb 3c ab 14 8c 3c 70 1f e8 3c
       -0.0034824887 0.022903591 0.017099699 0.028335303
000360 f2 bb c6 3c fe b3 70 3c 12 92 40 3d 3b a8 80 3a
       0.024259541 0.014691351 0.047014304 0.0009815762
000370 56 19 e8 3c 44 2a 47 3b 3b 7a 24 3d a5 cf 18 3d
       0.028332394 0.0030390183 0.04015563 0.0373074
000380 9b 7f 93 3d d5 45 45 3d ab a0 ff bc 8f 53 72 3d
       0.07202073 0.0481623 -0.031204542 0.05916172
000390 5e b0 75 bc bb 6d 4b 3d 0b 33 6d 3d ff 7e bd b9
       -0.0149956625 0.049665194 0.057910006 -0.0003614351
0003a0 f5 c3 05 3d 98 3c 06 bc 11 62 8d bc d9 9d 7d bc
       0.032657582 -0.008193158 -0.017258676 -0.015479528
0003b0 78 49 c6 3c 7b 23 88 bc 6a c1 0c bd 93 ae 05 bd
       0.024204955 -0.01661848 -0.03436414 -0.03263719
0003c0 8c 84 06 3c 1e 1f 9f bc a5 ff 07 3d 29 ac 5a 3d
       0.008210313 -0.019424018 0.033202786 0.05338684
0003d0 55 75 59 3d 52 83 37 3d ef 4a 24 bd 01 cd 1c 3d
       0.053090412 0.04480297 -0.040110525 0.038281444
0003e0 27 5b aa bd 9b a7 2c bd bd 6f 92 bd 08 89 5d bc
       -0.08318167 -0.04215203 -0.07150219 -0.01352144
0003f0 56 e4 1f bd 90 30 c7 bc 5c 9a 66 bb 89 48 07 bd
       -0.039036117 -0.024315149 -0.003518722 -0.03302816

conv2.bias f4 [40]
000000 d9 48 25 bc dd 8d 1d 3c 60 37 b0 3c 98 af ee 3c
       -0.010088169 0.009616342 0.02151078 0.029136464
000010 72 bb a7 bc 68 56 40 3c 85 1a f6 3b cd 6e ed bc
       -0.020475123 0.011739351 0.0075104856 -0.028983498
000020 ad 0d b7 bc fe 4c 83 3c 25 6f 9b bc a2 87 27 bd
       -0.022345388 0.016027924 -0.018973896 -0.040900834
000030 28 0e 36 3d 48 a1 36 3d 10 dc 5c bc 6b d7 36 bc
       0.044447094 0.044587404 -0.013480201 -0.011159758
000040 6f 55 45 bd 7f e1 1d bd 40 82 c7 bc b8 29 0b bd
       -0.04817718 -0.038545128 -0.0243541 -0.033975333
000050 7c 3d 29 3d df c4 55 3d d4 4d ff 3c 90 6e 2a 3c
       0.0413184 0.052189704 0.031165041 0.010402337
000060 74 dd 7e 3d aa d2 d3 bb 5a d5 e8 3c da 49 4f 3d
       0.062222913 -0.006464322 0.028422046 0.05060754
000070 73 66 77 bd 16 44 60 3c 78 fd d5 bc f2 94 b2 bc
       -0.060400438 0.013688108 -0.02612184 -0.021799538
000080 9c 4f 1b 3b 64 0f 2a 3d 0b be 93 3b f2 87 38 3d
       0.0023698574 0.041518584 0.004508739 0.045051523
000090 04 a3 09 3d 6b b1 7e 3a 89 33 38 bc 77 90 6a 3c
       0.03360273 0.00097157684 -0.011242756 0.01431667

bn2.weight f4 [40]
000000 24 29 8c 3f 23 f7 96 3f 46 fe 92 3f 9f 7a 8a 3f
       1.0950055 1.179417 1.1483848 1.0818671
000010 f4 d2 8c 3f 41 19 8d 3f b9 b7 8e 3f 8a 57 90 3f
       1.1001878 1.1023332 1.1149818 1.1276715
000020 a7 19 8a 3f 26 68 8b 3f 7c 81 98 3f 06 77 90 3f
       1.0789078 1.0891159 1.1914515 1.1286323
000030 c0 01 94 3f 0f 55 9c 3f 7f 91 8d 3f 1e ef 92 3f
       1.1563034 1.2213458 1.1060027 1.1479223
000040 83 83 95 3f b7 89 94 3f 7a 0c 99 3f 35 c5 93 3f
       1.1680759 1.1604527 1.1956933 1.1544558
000050 67 31 8b 3f 47 85 96 3f 38 58 8e 3f ce 40 8b 3f
       1.0874451 1.1759423 1.1120672 1.0879152
000060 e9 8d 8f 3f bc 98 8f 3f 2f 18 8f 3f f4 ec 8b 3f
       1.1215183 1.1218486 1.1179255 1.0931687
000070 f6 b6 8f 3f c1 6d 89 3f 10 f6 89 3f 80 1a 91 3f
       1.122771 1.0736619 1.0778217 1.1336212
000080 55 9d 93 3f 04 fd 8f 3f 2b 88 8c 3f 6a 4b 8d 3f
       1.1532389 1.1249089 1.0979055 1.103864
000090 4d 2a 8c 3f 63 ff 8e 3f e7 c0 8f 3f 38 f3 99 3f
       1.0950409 1.1171688 1.1230744 1.202735

bn2.bias f4 [40]
000000 0d 90 99 3a 8c d4 b0 3c 10 83 17 bc b3 6c bc bb
       0.0011715904 0.021585725 -0.009247556 -0.0057502626
000010 7d e6 7b 3c f2 15 d9 3c c9 4a 48 3b 75 c2 1c 3d
       0.015374777 0.026499722 0.0030562154 0.038271386
000020 27 2c 40 3d 8f cc ec 3c c8 71 a6 3c 3f 4e 4f ba
       0.046917107 0.028906135 0.020317927 -0.0007908083
000030 59 0e 9e 3a 38 de 2d 3d 52 a1 b8 3b 6d e4 30 bc
       0.0012058719 0.042448252 0.0056344653 -0.010796648
000040 f6 bc 42 3b 43 99 b2 3c 55 88 cb 3c ba a5 ba 3c
       0.002971468 0.021801597 0.024845282 0.022784103
000050 ec 58 4b 3d e6 63 f8 3c 66 79 04 bb 3a e5 5c ba
       0.04964535 0.030321073 -0.002021396 -0.00084264914
000060 1d dc b2 3c 56 0d 1d bc 4a c3 dc 3c c0 da f9 3c
       0.021833474 -0.009585699 0.02694859 0.030499816
000070 88 bb 71 bc 57 51 c7 3c 2c 8b da b8 43 f2 8f 3c
       -0.014754184 0.024330778 -0.00010420973 0.017571574
000080 4a 90 a7 3b f4 fa 92 3c da c8 21 3c eb 1b b0 3c
       0.005113636 0.01794193 0.009874547 0.021497687
000090 3d e1 18 3c ea 3f eb bb cc f8 c1 bb 32 2c fc bb
       0.009331045 -0.00717925 -0.0059195515 -0.007695698

bn2.running_mean f4 [40]
000000 3f 39 33 3f 54 f4 da 3f d3 0a 1d 3e 08 fa 61 bf
       0.70009226 1.7105813 0.1533616 -0.8827214
000010 b0 6a d3 3e c2 1c fc 3b 56 a6 0e 3c 2e 4f 91 3f
       0.41292334 0.007693858 0.00870665 1.1352289
000020 57 9c 21 be 66 6a 38 bf 95 42 a3 3e 4e 4b cb be
       -0.15782295 -0.7203735 0.31886736 -0.3970589
000030 f9 4d c5 be 70 db cd 3f 21 d1 0d 3f 6e 09 a4 3e
       -0.3853605 1.6082592 0.5539723 0.32038444
000040 17 5d 28 3f 9b b3 4d 3f 86 79 69 be 4a e2 c2 3e
       0.65767044 0.8035218 -0.22800264 0.3806327
000050 36 1e 78 bf 9d 80 f3 3e 49 24 ac be 20 96 34 bf
       -0.969211 0.47559062 -0.33621433 -0.7054157
000060 e5 87 02 40 82 25 bd 3f a9 6f 75 3f c6 03 68 3f
       2.0395443 1.4777071 0.95873505 0.9063076
000070 50 1d 72 ba f3 24 40 be a5 62 d1 3e 64 6b ff 3e
       -0.0009235935 -0.18764095 0.40895572 0.4988662
000080 f4 e0 0e be d2 83 13 40 e5 7d 04 3f 3e 9c 27 3f
       -0.13953 2.3049207 0.517546 0.6547278
000090 d4 c6 4c 3f 24 59 08 3f 2e 4e 66 3f ef 87 91 3f
       0.7999089 0.5326102 0.8996304 1.1369609

bn2.running_var f4 [40]
000000 7b 06 9a 3f 2e 55 8f 40 77 53 b5 3f ac 2e 6f 3f
       1.2033228 4.479148 1.4166096 0.9343059
000010 52 48 d8 3f 4f 8f de 3f ec ea 25 40 01 3a bf 3f
       1.689707 1.7387484 2.5924635 1.4939576
000020 87 57 d2 3f 80 47 16 40 67 6f e1 3f 4e 19 c3 3f
       1.6432961 2.348114 1.7612122 1.5242097
000030 b9 26 a9 3f d4 51 82 40 2a 85 ec 3f e9 e2 b7 3f
       1.3214942 4.072489 1.8478138 1.4366122
000040 60 95 d8 3f e1 b5 61 40 a2 91 3b 40 5a 53 86 3f
       1.6920586 3.526726 2.9307637 1.0494187
000050 77 4b 09 40 8e 54 22 40 7f 7b c1 3f 60 a9 21 40
       2.145231 2.5364108 1.5115813 2.5259628
000060 64 01 4a 40 33 4d 08 40 09 b4 4b 40 20 14 1c 40
       3.1563349 2.1297119 3.1828635 2.4387283
000070 c5 95 b3 3f f5 6b f1 3f 03 76 94 3f c2 dc 87 3f
       1.4030081 1.8861071 1.1598514 1.0614245
000080 98 49 9d 3f aa bb 81 40 b8 fd d5 3f f0 5e 0d 40
       1.2288084 4.054158 1.6718054 2.2089195
000090 50 ce 3a 40 23 fe b9 3f 5e eb f6 3f b2 06 09 40
       2.9188423 1.4530681 1.9290578 2.1410336

fc.weight f4 [10, 1000]
000000 8e a4 00 bd dd ba 37 3a c1 61 b2 bc 2f 2d cb bb
       -0.03140693 0.0007008741 -0.021775128 -0.0062004547
000010 1d 72 03 bd df 4f d1 3c 1d fa 4d 3c 02 56 4b bc
       -0.03209125 0.02555078 0.012571839 -0.012410643
000020 57 af 4a bd 6a b3 e9 3c 5e e0 9e 3c 59 a0 1d 3d
       -0.049483623 0.028527934 0.019394096 0.038482998
000030 0d ad 99 3b 63 ba af 3c c1 ec c3 3c 2b 3b 18 3d
       0.0046898187 0.02145118 0.023916604 0.037165802
000040 33 76 be 3b da 86 c9 3b a1 5a 46 bd 1f cb 86 3c
       0.0058124303 0.0061501088 -0.048426274 0.016454278
000050 8f b7 cf 3c 5a 8b 8d bc fa a7 89 bc 11 51 25 bd
       0.025356082 -0.017278362 -0.01680373 -0.040360514
000060 47 f2 1b bd 88 85 8b bc b4 78 3c bc 59 47 dd bc
       -0.03807285 -0.017031446 -0.011503387 -0.02701156
000070 ea 2b ca bc dc 63 55 bb ac b2 09 3d 56 72 c7 bc
       -0.024679143 -0.0032560742 0.03361766 -0.024346512
000080 c3 dc fe 3c 74 4a 30 3c de 28 48 bd 4b 29 70 3d
       0.031111127 0.0107599385 -0.0488671 0.05863313
000090 84 af e5 3d e4 c6 18 3d cf 59 ce bd 6c e7 30 3d
       0.112151176 0.037299052 -0.100757234 0.04318945
0000a0 5b 90 a0 3d bb 98 35 3d 85 dc 24 bd 29 8b a9 3c
       0.078400336 0.04433511 -0.040249366 0.02069624
0000b0 3e 8a 26 3d 8f 8d 0c 3d 13 8a 25 bc d1 a8 5a bc
       0.04065918 0.03431469 -0.01010372 -0.013345913
0000c0 91 4a 1d bb f0 d5 98 3c 70 cb 48 bc f2 6a 8d 3c
       -0.0024000744 0.0186567 -0.0122555345 0.01726291
0000d0 4c 2f fd bb a5 a9 3a 3d 22 fe 97 3d d6 8b cb ba
       -0.0077265855 0.045571942 0.07421519 -0.0015529345
0000e0 27 3b b4 bc 0c 66 3e bc fc b6 96 3d 71 21 ff 3d
       -0.022000862 -0.01162101 0.0735912 0.1245755
0000f0 52 1d 3f 3d 4e 47 75 3d b1 b8 8a 3c 6f f8 ac bc
       0.04665882 0.059882455 0.01693377 -0.021114556
000100 1c 37 00 3d 8f 4f cc 3c cf 55 9a 3d 81 5c af 3b
       0.031302556 0.02494028 0.07535898 0.0053516035
000110 cc 4a 51 bd 73 d9 07 bc bc 55 3f 3d d4 1b 75 3d
       -0.051096722 -0.00829159 0.046712622 0.059840992
000120 6a ec 3f 3d 40 4e 28 bd c4 28 7e bd 5d b3 6e 3c
       0.04685632 -0.04109025 -0.062050596 0.014569131
000130 12 35 ca bb 97 28 08 bd 43 40 23 3c 44 83 07 3d
       -0.0061708773 -0.033241834 0.009964052 0.03308417
000140 9d 6b 9b bb 3a 2c 3e bc 16 58 24 3c e7 72 64 3d
       -0.004743053 -0.011607224 0.010030767 0.055773642
000150 29 83 40 3d 07 4a 44 3c ae 8a a9 3c 3d 06 ee 3b
       0.047000084 0.01198054 0.02069601 0.0072639273
000160 f5 8e d2 bc 79 e3 ed 3c ed 5c 1b 3d 64 0b a1 3b
       -0.025702933 0.029039131 0.037930418 0.004914688
000170 1a 0d 69 bd e2 13 dd bc 82 4a ce 3b 1d 0f d2 bb
       -0.05689726 -0.02698702 0.006295503 -0.006410493
000180 86 b3 9e 3d 9a 23 a5 3b 7a 6f d8 bc fd 0b 40 bc
       0.07749085 0.0050396444 -0.026420344 -0.011721608
000190 95 16 e7 3c 55 96 98 3b dd 55 4a bd 28 14 92 bc
       0.02820901 0.004656593 -0.04939829 -0.017831877
0001a0 9e 45 03 3d ea 34 ae 3c eb 96 2f bd cf df 1c bd
       0.032048814 0.021265466 -0.042868536 -0.038299378
0001b0 c3 16 3c bd 94 c1 4e bc 9a 82 09 bc c5 d0 bc 3c
       -0.045920145 -0.012619395 -0.008392954 0.023048768
0001c0 71 f0 2b bd 17 19 cf 3c c3 04 8c bd 66 f5 b0 3c
       -0.04197735 0.025280518 -0.06836846 0.02160139
0001d0 31 8a b6 3c 3f 75 cf 3c 5d c6 af bc 00 32 d6 ba
       0.022282692 0.025324462 -0.021456892 -0.0016341805
0001e0 97 40 17 bc d3 31 41 3c a3 1a 6b bc ef 74 bb 3b
       -0.009231708 0.011791664 -0.014349612 0.0057207267
0001f0 3e c1 50 3d ae 50 db 3c 66 9b 96 bb 56 f3 c7 3c
       0.05096554 0.02677187 -0.0045961617 0.024408024
000200 da 8d eb 3b a7 28 35 bd 6e 6e 06 bd d8 b5 89 3b
       0.007188541 -0.044228222 -0.032820158 0.0042025857
000210 63 ff de 3c 32 89 48 3c 83 fb 44 3c 02 09 96 ba
       0.027221387 0.012239741 0.012022856 -0.0011446776
000220 5e 22 12 bc 24 20 a3 3d 47 88 db bb e2 31 13 bd
       -0.008919327 0.07965115 -0.006699595 -0.035936244
000230 7a 76 ef bc ee a5 63 3c 9a d1 8c 3d 59 58 ee bc
       -0.029231299 0.013894541 0.06875916 -0.029094862
000240 30 e8 4a bd 0f e3 b8 3c 0e 53 d3 3c d3 45 04 bd
       -0.049537838 0.022569207 0.02579644 -0.032293152
000250 ab ce 29 bd 05 64 9c bc d0 c7 a5 3c 6e 8d 19 bd
       -0.04145686 -0.019090662 0.02023688 -0.037488393
000260 29 7e 91 bb 6e a0 04 bc 6d 4f 89 3b b2 59 ef 3b
       -0.0044400883 -0.00809489 0.0041903765 0.0073043937
000270 c9 c3 2e bd 50 d9 61 bd a1 1f 2d 3c 32 65 ea bc
       -0.042667184 -0.055138886 0.010566623 -0.028612707
000280 2a 1b e6 bc 9b 0e 00 bd 17 fb ec bc 46 a6 1a 3d
       -0.028089125 -0.03126393 -0.028928323 0.037756227
000290 dc 5c 5d bc 62 26 49 3c 7b 66 37 3c 07 ea 7a bc
       -0.013510909 0.012277218 0.011193867 -0.0153145855
0002a0 d3 93 0c bd 95 00 93 3c ac 7c d7 bc 85 10 45 bd
       -0.034320664 0.017944613 -0.026304565 -0.048111457
0002b0 fa 22 06 bb 02 65 6b 3d af 1b 3e 3d 38 33 18 bc
       -0.0020467625 0.057469375 0.04641312 -0.009289555
0002c0 af d9 c6 bc 54 d5 37 bd b1 65 57 bc b1 d1 99 bc
       -0.024273722 -0.04488118 -0.013146804 -0.018776746
0002d0 77 e9 0d 3c 9e 36 87 3c 56 29 37 3c 4f 13 43 3a
       0.008661619 0.016505536 0.011179289 0.0007441537
0002e0 f9 81 9b 3c 4f 69 55 3d a7 1c cb 3c fb f6 99 3c
       0.018982874 0.052102383 0.024793936 0.018794527
0002f0 c7 65 6f 3d c2 bd be 3c b4 99 1e bc f1 b7 d7 3c
       0.05844667 0.023283843 -0.0096802 0.026332827
000300 45 23 2d 3d 6c 6f 7f 3c f2 fe 10 3d 41 9f ae bc
       0.042269964 0.01559053 0.035399385 -0.021316173
000310 33 49 f9 bc cf da 2d bc 4a b2 40 bd d2 82 f9 bb
       -0.030430412 -0.01061125 -0.04704503 -0.007614472
000320 fc c5 76 3c 2e c3 c8 bb 7d a3 3a bc e7 6e cb 3a
       0.015061852 -0.006126783 -0.011391518 0.0015520722
000330 a4 ed 15 bc 27 ac c3 3c ed be 90 3c 60 f0 5d 3c
       -0.009150896 0.0238858 0.017669166 0.013546079
000340 a9 aa eb bc 82 89 61 bd e0 8d 07 3c 69 d4 c7 bc
       -0.0287679 -0.05506278 0.008273572 -0.024393277
000350 cb ea bb 3b b5 6a 93 3b 93 8e 97 bd 4b d3 fd bc
       0.0057347766 0.0044988045 -0.07400241 -0.030984541
000360 b1 56 10 bd 49 87 0d bc 32 9f a3 bc f7 78 d1 3b
       -0.035238925 -0.0086382115 -0.019973371 0.006392594
000370 3a e2 f3 bc 76 4d 16 bc 18 49 60 bc 62 60 18 3d
       -0.02977096 -0.009173742 -0.013689302 0.037201293
000380 0d 9c 14 3d e8 32 0d bd ad c6 9f bc 93 86 5a bc
       0.036281634 -0.034472376 -0.019503916 -0.013337749
000390 d1 97 da 3c 82 54 eb 3c b9 20 86 b9 8e bf 24 bd
       0.02668372 0.02872682 -0.00025582852 -0.040221743
0003a0 02 2b 05 bd 20 06 f4 3c b3 cd b4 bb 5b 4f d5 bb
       -0.03251172 0.029788077 -0.0055176853 -0.006509704
0003b0 a8 95 43 bd 97 89 1d bc 08 b5 d7 3c ee 7f c8 3a
       -0.047750145 -0.0096153235 0.02633144 0.0015296915
0003c0 c3 78 73 3c 67 85 22 bd ac 28 8a bd 16 c8 f0 bc
       0.014860335 -0.039678004 -0.06746039 -0.029392283
0003d0 65 b8 60 bc 7d 50 a1 bc e6 a2 fb 3c 94 2b e7 bc
       -0.013715838 -0.0196917 0.030717324 -0.028219022
0003e0 19 0a f3 3c f4 0c 50 3c f3 33 15 bd 06 9a 4d bc
       0.0296679 0.012698401 -0.036426496 -0.012548929
0003f0 42 fb 90 bc c8 cb a3 3c ed 13 16 3c d9 bc c5 39
       -0.017697934 0.019994631 0.009160024 0.0003771547

fc.bias f4 [10]
000000 c4 d2 d8 3c f6 05 54 3d 9e 06 c0 3c c5 f3 2b bd
       0.026467688 0.051763497 0.023440655 -0.041980524
000010 9b 85 d4 3c 91 ad 6f 3c 7b b5 c1 3b 1a 87 bf 3c
       0.025942614 0.014628784 0.0059115267 0.023379851
000020 45 cf 6f bd 7d 39 e0 3b
       -0.058547277 0.0068427906

qconv1.conv_module.weight f4 [40, 1, 3, 3]
000000 77 de 85 3e 4c d9 6a be 14 23 3e bd 19 5f 0d 3e
       0.2614629 -0.22934455 -0.04642017 0.13805808
000010 12 1c f5 be 87 55 7c 3e 63 7c fb bd fe 08 b0 3d
       -0.47872978 0.24642001 -0.12279584 0.08595465
000020 56 25 0e 3e 68 de 52 3d fc 1a c8 3d cc 33 0b be
       0.1388143 0.051481634 0.09770772 -0.13593978
000030 ec 75 98 3e ac 71 04 be a9 e2 84 be 07 1c 63 3e
       0.29777467 -0.12933987 -0.25954178 0.2217866
000040 e8 f7 05 3e 59 10 12 be c8 17 9e 3e ea 0c d1 3d
       0.1308285 -0.14264049 0.3087752 0.10207541
000050 0b 30 00 be 42 8e 8e be c7 bc 5c be 47 94 62 be
       -0.12518327 -0.2784291 -0.21556388 -0.22126876
000060 93 67 1a be 8c f1 ee 3c 42 be 8c 3e 59 fc 86 3e
       -0.15078573 0.029167913 0.27488905 0.263644
000070 39 dd 38 be 75 1e 93 3e 04 83 e5 3d 9c 82 bc 3e
       -0.1805314 0.28734174 0.1120663 0.36818397
000080 c0 e1 63 3e a6 e2 c6 be ab 60 cc be a4 bd 92 be
       0.22254086 -0.38844794 -0.39917502 -0.2866031
000090 09 ba 94 3e 10 fd 35 3c 6a 8f 34 3e e4 ea 77 bd
       0.29048184 0.011107698 0.17632833 -0.060526744
0000a0 2d 6b c1 3e f3 f3 41 be 10 73 a8 3e b5 cc c5 3b
       0.3777708 -0.18940715 0.32900286 0.006036366
0000b0 b1 1e 85 be 33 8b 5f 3e e2 3a 28 be f6 51 d2 3d
       -0.25999978 0.21830444 -0.16428712 0.10269539
0000c0 a9 51 ec bd 13 d0 81 bd 87 7b a5 be 3d 4c 40 be
       -0.11539013 -0.06338515 -0.32320806 -0.18779083
0000d0 51 15 20 3e bd 7c 7a bd c9 35 b6 3e 6a 73 99 3e
       0.15633132 -0.061154116 0.3558791 0.29970866
0000e0 c6 60 67 bb 17 dc 73 be e5 53 7c 3e 40 7c 04 3e
       -0.0035305484 -0.23814426 0.24641378 0.12938023
0000f0 af ec 82 be bd bc 61 3e 80 04 77 3e 14 99 ab 3e
       -0.255712 0.22044654 0.2412281 0.33515227
000100 cc be 35 be 00 d7 af bd cb 38 84 3c 08 ff 88 3d
       -0.17748564 -0.0858593 0.016140362 0.06689268
000110 46 2c 85 be 32 4a 78 be cf 10 3a 3e 71 54 be bd
       -0.2601034 -0.24247053 0.18170474 -0.0929345
000120 c5 56 4a 3e 37 ca 53 3d 6e 75 21 3e db e2 a1 3d
       0.19759662 0.05170652 0.15767452 0.07904597
000130 c1 f3 23 3e b6 cb 4c 3e 4b 93 af be 19 6e 18 3e
       0.16010953 0.19999585 -0.34292063 0.14885749
000140 24 18 55 be cb 86 ae be 7d 63 9e bd 9a aa f1 bd
       -0.2080999 -0.34087214 -0.0773382 -0.11800118
000150 ae f0 5f 3e d7 77 39 be 09 b9 a0 be bb 9f ae 3e
       0.21869156 -0.18112122 -0.3139117 0.3410624
000160 31 76 af 3d 61 97 63 3e 61 58 bb 3d 9a 40 8c be
       0.08567465 0.22225715 0.09147716 -0.27393037
000170 ff d9 cb 3d dd a2 37 3e b5 62 5f be 35 9b 37 be
       0.09953689 0.17933221 -0.21814997 -0.179303
000180 ee f0 81 3e 38 e2 e2 3d 72 75 3f be ba f6 72 bd
       0.25379127 0.11078304 -0.18697146 -0.059317328
000190 bd f5 9d 3e a6 39 35 be 7f e0 7a 3e e5 22 75 3e
       0.30851546 -0.17697772 0.24499701 0.23939092
0001a0 4f 95 b2 be 57 95 70 be 40 9d d0 3e 58 d2 32 bc
       -0.34879538 -0.23494469 0.40744972 -0.010914408
0001b0 0e 9f 8b 3e c5 71 a9 3d 17 ab ce 3d d7 21 8e 3e
       0.27269787 0.08273653 0.100912265 0.27760193
0001c0 d3 de a9 3e f6 f6 59 be bf 03 84 3d 5a 25 8b 3e
       0.33177814 -0.21285614 0.06446027 0.27176934
0001d0 46 1d 87 3e 60 df 37 3e 25 c4 96 be 55 ee 84 be
       0.2638952 0.17956305 -0.2944652 -0.25963083
0001e0 93 23 97 be 1d 99 21 bd b1 8d b2 3e ad 26 3f be
       -0.29519328 -0.03945266 0.34873727 -0.18667097
0001f0 dc 5e 81 3e 3d 59 df bd fd 23 c9 be 62 5a fc bd
       0.25267684 -0.10905693 -0.3928527 -0.12321927
000200 80 4c 05 3e dd 5d 87 3e ec 8b 38 be 12 cc b3 3d
       0.13017464 0.264388 -0.18022126 0.08779158
000210 9e d3 a4 3e 9f d0 92 3e d2 cd 87 3e 87 c2 b2 3e
       0.321927 0.2867479 0.26524216 0.34914038
000220 1e 78 b2 3e 0b 80 17 3e 06 60 69 be a1 92 7c be
       0.34857267 0.14794938 -0.22790536 -0.2466531
000230 e4 02 67 be 8b 99 c6 bd 88 47 4e be f5 49 1b 3d
       -0.22559696 -0.09697255 -0.20144475 0.037912328
000240 a5 33 dd 3d c7 eb 41 bd a3 c0 18 3e 08 bf f0 3d
       0.10800866 -0.047343995 0.14917235 0.11755186
000250 19 26 60 3e 57 0e 75 3e 0e 4d dc bd 85 35 a4 3e
       0.21889533 0.23931251 -0.107568845 0.32072082
000260 0d 11 07 bd 85 8c 7e bc 10 d6 a8 be 43 f0 50 be
       -0.032975245 -0.015536432 -0.32975817 -0.20404153
000270 97 d8 54 be 0d 70 0f be 7f 82 98 3e 3c 90 07 be
       -0.20785747 -0.14007588 0.2978706 -0.13238615
000280 c2 51 66 be 8f 79 60 3e c9 68 55 3e d7 38 86 3e
       -0.22492126 0.21921371 0.20840754 0.2621524
000290 ce f6 35 be c6 b1 0e 3e 65 ef 0b be 27 69 20 be
       -0.1776993 0.13935003 -0.1366554 -0.15665112
0002a0 04 63 89 be 06 c9 41 be cb dd 18 be 90 65 1a 3e
       -0.26833355 -0.1892434 -0.14928357 0.15077806
0002b0 12 38 aa 3d 34 83 c7 3d 9c 17 ab 3e ed af ae 3e
       0.08311476 0.09741822 0.3341645 0.34118596
0002c0 8c 2a 7f 3e c9 05 0e bc 69 8a 5a be 37 93 93 3e
       0.24918574 -0.0086683715 -0.21341862 0.28823254
0002d0 f7 b8 b3 bd e6 c9 17 bd c6 fa 95 be d9 73 8d bd
       -0.087755136 -0.03705778 -0.29292887 -0.06906862
0002e0 cf 9e 5e be aa 42 a4 3e 2f da 92 be ce 8b 81 be
       -0.21740268 0.3208211 -0.28682086 -0.25301975
0002f0 03 55 a3 3c bb ae 8a be f4 31 95 3d 57 b2 93 bd
       0.019937998 -0.27086434 0.072849184 -0.0721175
000300 6a b0 89 be 51 6f 22 bd 6b 59 98 3e 37 a5 95 be
       -0.26892406 -0.03965694 0.2975572 -0.2922761
000310 78 66 20 3e eb 58 9e 3e ab 4e c3 3e fc b5 61 be
       0.15664089 0.30927214 0.38145956 -0.22042078
000320 a4 2a 9e bc b5 a5 04 be 13 f6 a4 3e 84 76 3f be
       -0.019307442 -0.12953837 0.3221899 -0.18697554
000330 2d 64 82 3e a1 6c a3 3d 49 9c a9 bc 55 28 c5 3c
       0.25467053 0.07979704 -0.020704405 0.024067083
000340 eb b9 9f 3d 7b 08 3d 3e fb d6 bf 3d fa 2b 0e 3e
       0.07799133 0.18460266 0.09367176 0.13883963
000350 6b 60 84 be 25 7a 8f 3e 9d 69 aa 3e 89 0d 9d 3e
       -0.2585481 0.28022876 0.33283702 0.3067439
000360 de 56 8d 3e 20 29 93 be f0 f0 2b be 45 a9 91 3e
       0.27605337 -0.28742313 -0.16791129 0.28449455
000370 6f 6b c8 be 83 db 74 3e eb ea 81 be 0e c6 9f be
       -0.39144465 0.23911862 -0.2537454 -0.3120579
000380 40 7a 20 3e cd 50 8d be 62 1a 8c bd d5 f4 98 3e
       0.15671635 -0.2760071 -0.068409696 0.29874292
000390 61 72 85 3e ec 89 b5 3e 40 e1 2b bc 80 0e 57 be
       0.26063827 0.3545679 -0.0104907155 -0.21001625
0003a0 7d 2c bc 3e 38 5f 97 bd 7d 1d 1c be a8 03 3c 3d
       0.36752692 -0.073912084 -0.15245624 0.045901924
0003b0 70 e9 89 be b1 44 74 3e a9 44 8f 3e 99 1a 81 be
       -0.2693591 0.23854329 0.2798207 -0.25215605
0003c0 b5 54 8a be 46 61 05 3d f6 87 17 3e b6 59 19 bd
       -0.2701775 0.03256347 0.14797959 -0.03743907
0003d0 ad c9 21 be cd 53 cb 3c 3a a5 98 be 31 bc 88 be
       -0.1579959 0.024820233 -0.29813558 -0.2670608
0003e0 a8 eb 8a be 90 78 c0 3e 82 21 b5 3e e5 f8 ad bd
       -0.27132916 0.37591982 0.35377127 -0.084947385
0003f0 e0 84 b1 bc b2 9f 2e 3e cd 0f 5d 3d c5 b4 8f be
       -0.021669805 0.17053106 0.053970147 -0.28067604

qconv1.conv_module.bias f4 [40]
000000 15 66 13 be a3 44 92 be 01 48 81 3e f3 ab 72 bd
       -0.1439441 -0.2856799 0.25250247 -0.059246015
000010 1f e0 14 3e 64 ab f1 3c 71 ee 9d be a7 1c 32 be
       0.1453862 0.02950067 -0.3084598 -0.17393743
000020 a0 56 b7 3d 51 53 1f bd 60 ab 96 be 89 18 ff 3d
       0.08952069 -0.038897816 -0.29427624 0.124558516
000030 33 7f 75 3c 5f af c1 bd c6 1c 08 3e 4f 76 be 3d
       0.01498394 -0.094572775 0.13292226 0.09299909
000040 a2 d2 01 be 74 93 aa 3e ba d9 43 3e 22 af 28 3d
       -0.12678006 0.33315623 0.19126025 0.041182645
000050 4f ef 76 bd 67 d3 8a be ad 93 78 3e c3 93 93 bd
       -0.060286816 -0.27114412 0.24275084 -0.07205918
000060 ff e3 2f be cc 74 64 3e 05 58 15 3e ea f1 cc 3d
       -0.17176817 0.2231018 0.14584358 0.10007079
000070 94 8a 8a bd e3 d5 c1 bd e1 e4 9b 3d 1f c2 87 3e
       -0.06764713 -0.09464624 0.076120146 0.2651529
000080 98 44 e9 3b 98 ef 19 be 3d d0 b1 3e 67 c7 a2 3c
       0.0071187727 -0.15032804 0.34729186 0.019870473
000090 12 36 8c 3e a9 f7 c4 3d e0 96 a3 3e 91 24 46 3e
       0.27385002 0.0961755 0.31951046 0.19349886

qconv1.bn_module.weight f4 [40]
000000 ac 0f 8b 3f 38 66 8d 3f 52 7a 8d 3f 03 ed 8e 3f
       1.0864158 1.104682 1.1052954 1.116608
000010 92 e3 86 3f 73 bd 81 3f 35 e6 84 3f 9f 89 81 3f
       1.0538199 1.013594 1.0382754 1.0120124
000020 a9 ff 80 3f 41 b9 8a 3f d3 6d 88 3f 36 3f 88 3f
       1.0078021 1.0837785 1.0658516 1.064429
000030 92 b0 82 3f 31 3b 86 3f af ce 84 3f 98 98 8a 3f
       1.0210135 1.0486814 1.0375575 1.0827818
000040 4a 76 7e 3f 95 14 86 3f 24 0c 8a 3f 54 9f 80 3f
       0.99399245 1.0475031 1.0784955 1.0048623
000050 42 f3 80 3f 9f 83 8b 3f d7 27 80 3f a3 d6 81 3f
       1.0074236 1.0899543 1.0012158 1.0143627
000060 d6 7b 8b 3f 11 ea 81 3f ee c6 82 3f 7f 0a 8a 3f
       1.0897167 1.0149556 1.0216959 1.0784453
000070 50 ba 83 3f 22 b9 83 3f 2a 7b 8b 3f 9c 14 83 3f
       1.0291233 1.0290873 1.0896962 1.0240664
000080 ab a5 8d 3f 0b 1e 80 3f 8d 46 86 3f 45 1d 90 3f
       1.1066183 1.0009168 1.049028 1.1258932
000090 c7 4b 95 3f 52 31 81 3f 09 bd 82 3f 91 df 80 3f
       1.166375 1.0093176 1.0213939 1.0068227

qconv1.bn_module.bias f4 [40]
000000 7c 3f 87 3b 33 96 1b 3a d2 81 4b 3c 74 be aa bc
       0.004127441 0.0005935162 0.012421088 -0.020842768
000010 62 68 b5 bb c1 6e 97 3b 62 a2 60 bc 52 fb 20 bc
       -0.005536125 0.004621357 -0.01371059 -0.009825544
000020 f1 bd e4 bb 2e 6c 32 3c ea 20 26 3c 51 ec 8b bc
       -0.0069806506 0.01089005 0.010139683 -0.017080458
000030 c2 7d 8c bb 05 92 a9 3a db b7 9b bc 9b e6 19 3c
       -0.0042874524 0.0012937194 -0.019008568 0.00939336
000040 05 24 17 bc 7a 56 de 3c 30 ea c1 3b 3a 50 68 bc
       -0.009224896 0.027140845 0.00591781 -0.014179284
000050 d3 f9 0c 3a 5d fa 91 bb 7a 0b 9f bc be 99 f5 3b
       0.0005377803 -0.0044548945 -0.019414652 0.007495134
000060 30 60 95 3c 96 6c c2 bb dc a7 b9 3b 76 ca 09 3c
       0.018234342 -0.0059333546 0.0056657623 0.008410087
000070 4d ae 06 bc d9 ef 80 3a 8e 13 4e 3a 09 75 60 bc
       -0.0082202675 0.0009837105 0.000786119 -0.013699778
000080 26 2b 8f bc b6 48 95 39 9e c8 2a 3b 0a b9 a2 bb
       -0.01747663 0.00028473668 0.0026059519 -0.004965906
000090 30 40 b5 bc 6f 58 94 3c 0b ab 6a 3c 89 ee b2 bb
       -0.022125334 0.018108575 0.014323006 -0.0054605645

qconv1.bn_module.running_mean f4 [40]
000000 d4 5f 11 be 68 83 8d be cd 60 6e 3e d8 65 77 bd
       -0.14196712 -0.27639318 0.23279114 -0.06039986
000010 7b b3 42 3e 30 76 34 39 be a6 79 be d8 bd 42 be
       0.19013779 0.00017210166 -0.24380013 -0.19017732
000020 b2 c3 f0 3d d5 e5 4c bd d6 c1 9a be 4c 42 1a 3e
       0.11756076 -0.050023872 -0.3022601 0.15064353
000030 8d 5c df 3d cd 34 f7 bd b2 8d 34 3e 46 c8 ad 3d
       0.109063245 -0.12070618 0.17632177 0.08485465
000040 af 78 83 bd 0a 1e 92 3e 7e a1 23 3e 58 d7 01 3e
       -0.06419503 0.28538543 0.15979573 0.12679803
000050 4d b2 f3 bd 2b f5 8d be 4e db 8b 3e e9 03 9c 3b
       -0.118992426 -0.2772611 0.27315754 0.0047612083
000060 d8 ea 4d be 59 22 88 3e 96 d7 08 3e bb d8 9a 3d
       -0.20109117 0.26588705 0.1336349 0.07560869
000070 d5 de 23 bd ec 87 c0 bd 94 06 83 3d 59 1b 95 3e
       -0.04000743 -0.09400925 0.06397739 0.29122427
000080 f2 14 04 bc 3a b5 4b be 0d c7 b3 3e 23 dc e4 3c
       -0.008061634 -0.19893351 0.351128 0.027937
000090 c0 5f 91 3e 13 cf fe 3c cc cd 89 3e fc 68 84 3e
       0.28393364 0.0311046 0.26914823 0.25861347

qconv1.bn_module.running_var f4 [40]
000000 33 46 f0 3d ec 2d 92 3e 1f b1 67 3e 71 fe e4 3e
       0.117321394 0.2855066 0.2262616 0.44725373
000010 ee e9 1e 3f ac 0d 61 3e db 1e 66 3f af 5b 2c 3e
       0.620757 0.21977872 0.8989083 0.1683185
000020 79 0d a1 3e 7d ec a3 3e b6 e2 37 3e 35 7a 9a 3e
       0.3145559 0.32016364 0.17957577 0.30171362
000030 fe 5b d6 3f b8 37 86 3e 7b af 34 3f b0 56 b5 3e
       1.6746824 0.26214385 0.7058026 0.354177
000040 a7 3b 4f 3f 02 5b 33 3f ca 52 f9 3e 95 55 b4 3f
       0.809504 0.7006074 0.48695976 1.4088618
000050 c2 97 3d 3f a3 21 02 3f 61 0b 8a 3e 03 29 91 3f
       0.7405969 0.50832576 0.26961806 1.1340641
000060 11 bf d6 3e db a5 11 3f d5 9d b7 3d 5b 06 b2 3e
       0.41942647 0.568937 0.08965651 0.34770474
000070 26 c5 bb 3e c0 47 76 3e 50 79 de 3e f6 6f 4a 3e
       0.3667385 0.24050808 0.4345193 0.19769272
000080 ed 10 81 3e bb 25 e1 3e 68 84 83 3e f5 5c 52 3e
       0.25208226 0.439741 0.25686955 0.20543273
000090 a3 4b ef 3e 19 9f 40 3f eb 11 13 3f db d2 69 3f
       0.46737394 0.75242764 0.57449216 0.91337365
